model/2025021848.pth (torch, 48122 bytes, 10 tensors)

weight f4 [64, 1]
000000 e6 45 a9 bf 28 11 1e bf a8 7c 71 c0 d9 8e 51 3e
       -1.3224456 -0.6174493 -3.7732334 0.20464648
000010 7b 38 38 be e4 67 55 bf b5 6d 5f bf 63 e8 f9 be
       -0.17990296 -0.8336165 -0.87276775 -0.4881011
000020 c9 2e c3 bf c6 37 09 bf 77 f4 15 c0 02 88 4c 40
       -1.5248653 -0.5360073 -2.343046 3.1958013
000030 aa 99 e5 3e ee 92 88 be 43 58 e8 3f 7c b9 d7 3f
       0.448438 -0.26674598 1.8151935 1.685348
000040 fd 77 43 be a2 2d dd 3f e9 bb 00 40 de 3c c2 3f
       -0.1908874 1.7279551 2.0114691 1.5174825
000050 44 58 33 bf c8 ec ff bf d9 df 81 bf a8 80 eb bf
       -0.7005656 -1.9994135 -1.0146438 -1.8398638
000060 84 ea cb 3d da 2c 16 3b cc b2 2b 40 7c a3 81 3f
       0.0995684 0.0022914917 2.682788 1.0128016
000070 33 f1 08 be 5a 77 97 bf 0d 9b f3 3f d2 13 d0 be
       -0.1337326 -1.1833298 1.9031693 -0.40640122
000080 b0 73 57 bf f2 87 ee be 26 17 a5 bf b3 26 93 bf
       -0.841609 -0.46588093 -1.2897689 -1.1496185
000090 f6 fa 87 bf 26 79 6c bd db 45 45 3f 81 44 0a 40
       -1.0623462 -0.057732724 0.77059716 2.1604311
0000a0 95 4d 3e 3c f8 07 27 3f a8 e4 15 40 9d 2c 81 3f
       0.011615177 0.65246534 2.342081 1.009174
0000b0 db 9f 7b be 0e 57 ba 3f 67 73 05 c0 d3 5e 88 bf
       -0.24572699 1.4557817 -2.0851686 -1.0653938
0000c0 a7 59 8b be 74 6c 0b 3f eb 88 10 3f 6a e4 f7 bd
       -0.27216837 0.5446236 0.5645892 -0.121041134
0000d0 80 62 a3 3f bd b1 c9 bf 96 0d 22 3e d2 37 2b 3f
       1.2764435 -1.5757366 0.15825495 0.6688205
0000e0 e2 9d 4a bf 15 4d ec be 52 33 4e bf ff cb a2 3f
       -0.7914716 -0.4615256 -0.8054706 1.2718505
0000f0 b2 23 d3 3e bb 20 3f 3e e2 6d 2a 3f 9f f3 c4 bf
       0.4123817 0.1866483 0.6657392 -1.5386847

bias f4 [64]
000000 38 92 95 3d 50 05 50 bd 09 9f c4 3d 86 56 73 3d
       0.0730328 -0.050786316 0.09600646 0.059408687
000010 18 07 a8 3c f1 aa 23 bd 7e 98 18 bc e9 20 5c bd
       0.020511195 -0.039957944 -0.009313701 -0.053742323
000020 bc 71 02 3c 06 b4 7f bc eb c4 90 bd b7 00 cc bc
       0.007961687 -0.015606886 -0.07068809 -0.024902685
000030 cc 55 5c bd 2d 97 e4 3b bd 83 33 3c bb 45 5e 3d
       -0.05379276 0.0069760294 0.010956702 0.05426572
000040 6e 81 5e bd 0d a4 94 3c a1 37 87 bd 76 9a bf 3c
       -0.054322653 0.018144632 -0.06602407 0.023389082
000050 fc 98 16 bd fc 3e f6 3c 3a a4 94 bc e0 3b 86 3d
       -0.03676699 0.03005933 -0.018144716 0.06554389
000060 eb b9 de 3c e0 88 bd bc 2f c4 6e 3d 19 de 2f 3d
       0.027188262 -0.023136556 0.058292564 0.04293642
000070 8d a7 f7 bb c0 18 cb bd e4 2e f7 bc ad 3b b6 3b
       -0.0075578154 -0.0991683 -0.030173726 0.005561313
000080 0d b9 f0 3a 62 20 46 bd 87 c2 84 3d 11 b6 9b ba
       0.0018365696 -0.048370726 0.06482416 -0.0011879822
000090 f1 56 7e bc 6d 05 58 bc 93 8e 38 bd 36 17 80 3d
       -0.015523658 -0.013184887 -0.045057844 0.06254427
0000a0 f4 e1 6b bd 01 11 4c 3b 48 58 c2 3d da ce ed 3b
       -0.057588533 0.0031138065 0.094894946 0.0072573246
0000b0 5b eb 11 bd 6a 84 ba 3c 01 2c 01 3c 77 68 5f bd
       -0.035624843 0.022768218 0.0078840265 -0.054542985
0000c0 c7 16 8e bd 9c e5 d1 3c 91 0e 8e bd a5 86 7f 3d
       -0.06937938 0.025622182 -0.06936372 0.062384266
0000d0 6b 18 52 b7 96 4b 68 bd e5 23 08 3d dd a0 e1 3c
       -1.2522661e-05 -0.05671271 0.033237357 0.027542526
0000e0 ec 45 91 bd 4b 68 5b bd 62 60 3d bd a5 89 0c bd
       -0.07093415 -0.05356626 -0.046234496 -0.034310956
0000f0 e6 ea ed 3c 18 c5 bb 3c 46 17 2c 3c 23 23 c1 bc
       0.029042672 0.02292113 0.010503596 -0.023576325

weight f4 [64, 64]
000000 32 7c d2 3c 05 0e da bd d6 2e 26 3e c5 73 05 be
       0.025693987 -0.10647205 0.16228804 -0.13032444
000010 fd 61 74 3e 8a 0f 14 3e a9 37 6e 3c c5 eb 32 be
       0.23865505 0.14459053 0.014539638 -0.17472751
000020 6b bb 0c 3e 2a ad 16 3e 3b f4 3a be b8 4b 9f bd
       0.1374337 0.14714494 -0.18257229 -0.07778114
000030 c0 10 ab 3d 07 26 8a 3d ea b5 09 be 5d db 14 bd
       0.08352804 0.067455344 -0.13448301 -0.036342014
000040 57 42 7a bd 91 a5 9b 3e 85 c4 26 be ee c5 8e 3e
       -0.061098423 0.30399755 -0.16285904 0.27885383
000050 77 69 7b 3d 9e 9c c5 bd 96 07 de 3c 05 62 e6 bc
       0.061379876 -0.09649013 0.027103227 -0.028122911
000060 a5 54 44 bd 6a da 10 be b9 fd 28 3e 87 c4 d8 bd
       -0.047932286 -0.14145818 0.16503038 -0.105843596
000070 c4 25 f7 3d ff d7 b2 3d 80 0c a1 3e 79 f6 33 3d
       0.1206775 0.08732604 0.3145485 0.043936227
000080 61 10 56 bd 16 5a dc bd db 3f 07 3f 69 3c 9e bc
       -0.052261714 -0.1075937 0.5283181 -0.019315915
000090 e2 bb 9e bd 3a e9 bd bc f8 48 ab 3e f7 80 a2 3e
       -0.077506796 -0.0231825 0.33454108 0.31739017
0000a0 40 ed d4 bd 1c 05 08 bd 8b 52 0f bb a2 68 82 bd
       -0.10396814 -0.033207998 -0.0021869268 -0.063676134
0000b0 ac 3b ca 3e 15 ff d2 3b ed 15 b2 bb 36 a4 85 3d
       0.3949865 0.0064390996 -0.0054347427 0.065254614
0000c0 6a b6 90 be 84 39 2c be 56 d2 b1 3e fa 0f 28 3d
       -0.2826417 -0.16818815 0.34730786 0.04103086
0000d0 80 0e b1 be 6a ff e3 3e 1e 24 3b 3e 8d c2 ae be
       -0.34581375 0.44530803 0.18275496 -0.34132805
0000e0 53 dd 27 be 6a b7 37 bd 63 99 4c 3e 6c 78 32 bd
       -0.16393022 -0.04485265 0.19980387 -0.043571874
0000f0 f9 9e 0f be 85 9c 00 3e a5 22 a2 3d 9b cc 75 3d
       -0.14025487 0.12559707 0.07916764 0.06000958
000100 10 ce bd 3e b1 1e 65 be 28 40 96 bd ef 8a 39 bd
       0.37071276 -0.22374989 -0.073364556 -0.045298513
000110 2b 1f 17 3d bb 37 ba bd 8e 54 75 be d6 62 e3 3d
       0.03689496 -0.09092661 -0.23958036 0.11102836
000120 f7 4f 07 ba 6c b3 1f 3e d5 3c 81 be 29 7e dc bd
       -0.0005161757 0.15595788 -0.25241724 -0.10766251
000130 66 a0 60 3e 43 bf 9a be 26 e3 08 3d c1 e8 5c bd
       0.21936187 -0.30224046 0.03341975 -0.05393291
000140 20 7f 20 be 22 10 52 3d e5 1b 9f 3c a1 fc ff 3d
       -0.15673494 0.051284917 0.01942248 0.12499357
000150 6e 9f 4d 3e c6 6d ae 3d b6 37 80 bd fd 5b aa 3d
       0.20080349 0.08517031 -0.06260626 0.083183266
000160 0f cc 3c 3d ab 9a 34 3e ee bb 5d bd 3d 29 d2 bd
       0.046093043 0.17637126 -0.0541343 -0.10261772
000170 81 ab c6 3d f9 bc 78 3b 24 b6 af 3e 15 a3 f8 bd
       0.097006805 0.0037954433 0.3431865 -0.121404804
000180 17 c3 36 be 5f ea 94 3d 16 5b d5 bd 7c 9a e7 bc
       -0.17847858 0.07271265 -0.10417764 -0.028271906
000190 12 ae c3 3d 2f ef 36 bd be 6e a2 3d 17 e8 0a be
       0.09554686 -0.044661697 0.07931279 -0.13565098
0001a0 8b 9a 87 bd 1b 8c 0e 3d e2 d4 25 3e 04 0d 5a bd
       -0.066212736 0.034801584 0.1619449 -0.05323507
0001b0 96 a8 17 be 5b c1 1f be 2d 64 8d be af 42 9d bd
       -0.14810404 -0.15601103 -0.2761549 -0.076787345
0001c0 ca 8b 1e be 4d 23 7c bd a6 17 5b 3e 93 dc 86 be
       -0.15483013 -0.061557103 0.2139574 -0.2634016
0001d0 7e b2 dc 3d 05 ca 7c be c6 68 d7 3c f9 b0 bb 3d
       0.10776232 -0.2468644 0.026295077 0.09164614
0001e0 a6 3c 0e 3e f9 2d e0 bd 24 45 ad 3d bf 51 9f 3e
       0.13890323 -0.109462686 0.08460453 0.31117055
0001f0 5d 3d 13 3d f6 82 a0 3c 9c 59 61 3e 88 cd 86 bd
       0.035947192 0.019593697 0.2200684 -0.06582171
000200 31 1e b4 3d 4a 04 43 3e 64 e2 38 be 03 77 82 3e
       0.08794821 0.19044605 -0.18055111 0.25481424
000210 6e 5b 81 be 09 17 00 3e 57 f2 5a 3a fd aa b1 bd
       -0.25265068 0.12508787 0.00083521515 -0.086751916
000220 84 75 69 3e 3d 50 14 3e e6 b1 15 be eb f1 8c 3e
       0.22798735 0.14483733 -0.14618644 0.2752832
000230 1a 6e 3d be 38 58 7e 3e d7 e8 d9 3e 16 f0 3e 3e
       -0.18499032 0.2483834 0.42560455 0.18646273
000240 74 cb 36 3e 61 2b 5b be 26 b4 03 be 2f 1c e4 bc
       0.17851049 -0.21403266 -0.1286169 -0.02784547
000250 dd e2 01 be b2 14 4a 3e 81 29 0d bc 2e 0b ac be
       -0.12684198 0.19734457 -0.008615852 -0.3360228
000260 ee dc f1 bd 05 5e e3 bd c8 34 12 be 96 6c 41 3d
       -0.11809717 -0.11101917 -0.14277947 0.047222696
000270 a2 f5 45 3d 32 ef 75 3c a8 e7 5b 3b 40 ca d6 bd
       0.048329957 0.015010642 0.0033554826 -0.10487795
000280 0f 91 eb bd fa b0 f7 3c 67 05 ad be 36 bd ba 3e
       -0.11502277 0.030235756 -0.33793184 0.3647248
000290 fa 88 ba bd 96 0f 89 3c 41 5d 28 3e 54 ba 83 3d
       -0.091081575 0.016731065 0.16441824 0.06432024
0002a0 f3 a2 bb 3d 11 61 10 bd e4 25 79 be 55 13 71 3e
       0.091619395 -0.03524882 -0.2433086 0.23542531
0002b0 44 be 12 bc 53 9f 52 3e 34 d4 00 3e 57 42 68 be
       -0.008956496 0.2056859 0.12580949 -0.22681557
0002c0 9e d8 f9 3e 6e 56 e1 bd 1a c9 3e 3b b9 fe 28 3e
       0.48798078 -0.11002813 0.0029111565 0.16503419
0002d0 eb 8b 2c 3d b8 b6 b3 3d 0d 1a 7d 3e 6b ad 61 be
       0.042125624 0.08775085 0.24716969 -0.2203881
0002e0 ca 5b 94 bd f3 9e e6 3b 10 e6 d7 bd 35 18 77 3d
       -0.0724407 0.007037991 -0.10541928 0.06032582
0002f0 66 23 e1 3b 42 64 94 bc f3 06 a6 bd 07 f0 fc 3d
       0.006870675 -0.018114213 -0.08106794 0.12350469
000300 c8 38 25 3e fe 6e 30 be e0 33 32 3e df dd 1b be
       0.16134942 -0.1722984 0.17402601 -0.15221356
000310 9a ac 81 bd 5d 4b c3 3d 75 6c 4f 3e 05 e3 17 3e
       -0.06331749 0.09535859 0.20256217 0.14832695
000320 25 ca ec 3d de 6c a3 3e 9d c2 95 bd cb 40 07 3e
       0.115619935 0.31918997 -0.0731251 0.1320831
000330 63 a5 6d 3d 07 68 00 3d 57 ee a7 be e5 0a 72 be
       0.058019053 0.03134921 -0.32799026 -0.23636968
000340 3c 3d 5d 3d cc 32 c6 3d 32 fe 6b be b3 2b da 3b
       0.054013476 0.096776575 -0.23046187 0.0066580414
000350 cd 4f d3 bd 05 68 8f be 77 92 a8 be f9 97 9d bd
       -0.10317955 -0.28009048 -0.32924244 -0.07695002
000360 b5 49 4b 3e 07 1c c1 3d 6a 59 a5 bc fc 22 ce bd
       0.19852336 0.09429174 -0.020184238 -0.100652665
000370 e7 ca b0 b9 4d d5 a1 bd 1d a2 82 be 53 c8 8e 3b
       -0.0003372051 -0.07902012 -0.25514308 0.0043573766
000380 b7 54 3b 3e 7e 3c 48 bc 3d 7b 29 3e e6 c5 4c bb
       0.18294035 -0.012221454 0.16550918 -0.0031245886
000390 8d ea c7 bc 97 42 29 3e fe c2 a8 be 88 f2 b2 be
       -0.024403835 0.16529308 -0.32961267 -0.34950662
0003a0 38 87 58 be 28 88 24 be be ea 5f be fd f6 83 be
       -0.21145332 -0.16067564 -0.21866891 -0.25774375
0003b0 66 7a 9c be 22 62 15 3e dc 90 35 3e b5 ce c1 3b
       -0.30562133 0.14588216 0.1773104 0.005914534
0003c0 43 cd cc 3d 9b 2b 5b 3e 6f da f4 bd 2d 2c 7a 3e
       0.10000088 0.21403353 -0.119557254 0.24430914
0003d0 4e 46 4d be 5e 72 b2 3d fc 46 21 3e 05 9e 16 3e
       -0.2004635 0.0871322 0.15749735 0.14708717
0003e0 0f d1 31 be 89 ea 71 bb 8e 74 3f 3d ec fc 90 be
       -0.17364906 -0.0036913475 0.046742015 -0.28317964
0003f0 da b0 45 be c6 a6 78 3b 6c 6d b4 be 04 22 37 3d
       -0.19305745 0.0037941202 -0.35239732 0.044710174

bias f4 [64]
000000 b3 f1 0f bc 9d 20 be bc aa 51 96 3d 8c 2e 7f 3d
       -0.008785653 -0.02320891 0.07339795 0.06230025
000010 29 f9 8b bc 27 3c 77 3c 9a cf 67 bd 6b 03 d4 bd
       -0.017086582 0.015090025 -0.05659447 -0.103522144
000020 54 8c 87 bd ca fa ba bb 3c 1b 83 3d 6c 62 0f 3c
       -0.06618562 -0.005706166 0.06401679 0.008751493
000030 3f f8 1f bd 8c 33 75 bc 92 83 84 3a ac ff 21 bd
       -0.039055105 -0.014965903 0.0010110012 -0.03955047
000040 90 e1 92 bc 6a b1 10 bc 62 b8 8c bd 8b 12 54 bd
       -0.017929822 -0.008831361 -0.06871106 -0.051775496
000050 23 94 02 bd d3 2c 0a bd 20 55 31 3d ab 9f 5e 3d
       -0.031879555 -0.033734154 0.043294072 0.05435149
000060 9c 15 ed 3d 6b 91 49 3c a2 ba bb 3d fe 75 8d 3d
       0.11576387 0.012302737 0.09166457 0.06907271
000070 35 0d 5e 3d 7f 42 42 3b 45 ef 2e 3d ed 75 32 3d
       0.054211814 0.0029641686 0.042708654 0.043569494
000080 a0 4d e6 bd fe 89 a7 bc 0b 8f 68 3c 45 c9 f8 bc
       -0.112452745 -0.020451542 0.01419426 -0.03036941
000090 3f 83 4e 3d 97 81 ae 3b 4c 39 47 3d 58 f4 39 3d
       0.050418135 0.005325507 0.048638627 0.04539904
0000a0 7f 2d 53 3d 26 ec 49 bd 85 5c 7e 3c 3d 58 c3 3b
       0.05155706 -0.049297474 0.015524988 0.0059614466
0000b0 7e 97 7b bc 7c 76 4e 3c 3f 59 1f 3d 25 7d 67 bd
       -0.015355943 0.012601491 0.03890347 -0.05651583
0000c0 6e 72 67 bc 4c d4 b5 bc 9e 67 73 bb 34 cd 82 3d
       -0.014126403 -0.022195958 -0.0037140618 0.06386796
0000d0 9d 03 2d 3c 02 a8 6e 3d 5f 12 3b 3a da 73 87 3d
       0.0105599435 0.058265693 0.00071362214 0.06613894
0000e0 19 5e 45 bd e4 74 2d bc 8e 7a 0b 3d ae a5 48 3c
       -0.04818544 -0.010586951 0.034052424 0.012246532
0000f0 1a fa 38 3c 49 45 72 3d 85 a1 29 bd b4 41 66 3d
       0.011290098 0.059148107 -0.041413803 0.056215003

weight f4 [5, 64]
000000 8d d7 df 3e db a8 95 be 6f 63 53 be d1 69 94 3d
       0.4371914 -0.2923039 -0.206434 0.072467454
000010 d0 ea 66 3c 6e bf 55 be e9 ba 05 bc 23 2c ea 3d
       0.01409407 -0.20873806 -0.008162239 0.114342
000020 6b af 4a be 0f 2a 6f 3c 08 ca 6f 3e ec 98 b7 bd
       -0.19793479 0.01459743 0.23416913 -0.089647144
000030 4c 6a 61 bd ab 67 a8 3c db 3e b5 3e 55 c8 ff be
       -0.055033013 0.020557245 0.35399517 -0.4995753
000040 ff 40 30 be 1d 16 49 3c 9d 6e 72 be 25 18 d0 3d
       -0.17212294 0.012273339 -0.23675008 0.10160855
000050 7e df 0c 3e 53 22 1e bd 35 8a 76 be b0 73 2e 3d
       0.1375713 -0.038606953 -0.2407616 0.042590797
000060 53 7e cb 3e a9 41 4e be 26 6b 44 3e b0 9b 83 be
       0.39744815 -0.20142235 0.19181499 -0.25704718
000070 8c 4a 80 3d d8 7c 9e bd 14 23 a8 bd b1 e5 ce 3e
       0.06264219 -0.07738656 -0.082098156 0.40409616
000080 72 e7 5b 3e a8 3d 0a be 01 67 3a bc a9 52 9f 3e
       0.21475008 -0.13500082 -0.011377097 0.31117752
000090 d1 1d 56 be 5d bb f2 bd 3c 8d 85 be 73 04 e4 bc
       -0.20909812 -0.11852143 -0.26084316 -0.027834153
0000a0 bd 7c 95 bd d2 f3 5f 3e 26 60 65 3e d3 d4 d4 3d
       -0.072991826 0.21870354 0.22399959 0.103921555
0000b0 3c e7 a0 3e ee 42 61 bd 4c c8 26 3e 39 d9 4e be
       0.31426418 -0.05499547 0.16287345 -0.20200051
0000c0 0f 57 5d be 74 11 7b 3e 9c 44 be 3d bf e2 a0 be
       -0.21615241 0.24518377 0.0929043 -0.31422994
0000d0 3f de a0 be d2 f4 c1 3d 7d 3f f4 3d 4f e8 d5 bd
       -0.3141956 0.09470524 0.11926172 -0.104447
0000e0 5e 84 8e 3e 0b 9e 5c be 3d 1b 02 3d fa 55 10 be
       0.27835363 -0.21544664 0.031764258 -0.14095297
0000f0 a0 65 06 3e 2d 5c 04 3e 9f 3f 1f 3d 43 9b 5e 3e
       0.13124704 0.12925787 0.038879033 0.21738915
000100 69 e0 a9 be 1a 6e aa bd e5 84 1f bf 09 7c a2 bd
       -0.33179024 -0.083217815 -0.62312156 -0.07933814
000110 9f 9b 10 be bc 77 b3 bd 8f 2a b7 3b e5 15 23 bd
       -0.14121865 -0.08763072 0.00558979 -0.039815802
000120 0b b6 34 be e0 b9 81 3c 33 a7 12 bf 22 08 3d 3e
       -0.17647569 0.015835702 -0.57286376 0.18460134
000130 10 eb 33 3c f8 3c 90 bc 08 c5 b2 be cf 34 e8 bd
       0.010981336 -0.017607197 -0.34915948 -0.113381974
000140 b7 d5 a5 3e 75 13 75 be a4 c5 04 3d eb d1 d1 3e
       0.32389614 -0.23933204 0.032415047 0.40980467
000150 49 14 aa be 18 e7 87 3e d7 69 39 bd ab 6a 36 be
       -0.332186 0.26543498 -0.045266952 -0.17814128
000160 c3 62 47 3d 38 09 0e bf 1e 4d 8b 3e 67 43 9c bd
       0.04867817 -0.55482817 0.27207273 -0.076300435
000170 77 1a 23 3e e3 b1 b3 be be e6 8f be 10 92 70 be
       0.15928064 -0.35096654 -0.2810573 -0.23493218
000180 07 26 11 3e d8 cd b9 3e 8a 9d 07 bf a4 16 cc be
       0.14174663 0.3628986 -0.5297476 -0.39861023
000190 d7 0b 2e 3d 67 1a 7c bd 43 d5 f0 3d 6b 46 2b bd
       0.04249176 -0.061548617 0.117594264 -0.041815203
0001a0 fa 77 46 3d db 1d e4 be e4 4e c5 bd 69 a8 0a bf
       0.048454262 -0.44554028 -0.09634188 -0.54163224
0001b0 84 27 e0 bd 6f 81 8d bd 0d a4 2e be 13 a2 3c bd
       -0.10945037 -0.06909453 -0.17054768 -0.046053004
0001c0 76 99 82 bc 32 9f e5 bc ad ce cd 3c 79 8f a2 3e
       -0.015942317 -0.028030012 0.025122965 0.31750086
0001d0 e7 05 0a 3d a7 5a dc bd 0a 20 0c bd ee ac 45 be
       0.033697035 -0.10759478 -0.034210242 -0.19304249
0001e0 38 79 20 bd c6 10 0e 3d 0e 89 67 3e f8 9e 97 3d
       -0.039178103 0.034683965 0.22610876 0.07403368
0001f0 bd b2 b9 3e 01 df 8e 3d 72 df a7 3d 94 4e 8a be
       0.3626918 0.06976128 0.08196916 -0.27013075
000200 b8 fe 28 3e 66 c6 63 3d a3 b9 3a 3d 6d d5 89 3e
       0.16503417 0.05560913 0.045587193 0.26920643
000210 b4 ce b8 3e ed 09 12 be 2c 3a d6 3d f7 79 b7 be
       0.36095202 -0.14261599 0.10460314 -0.3583524
000220 98 a6 4d be db c4 94 3e b2 88 3a 3e 40 83 46 be
       -0.20083082 0.2905644 0.18216208 -0.19386005
000230 cb 6d 50 be 90 24 ea 3d 98 60 5b 3e 56 9e f9 3d
       -0.20354383 0.11432755 0.21423566 0.12188403
000240 74 9b 92 3c 9b 80 59 3e 3a 6d b4 be 0a aa ca bc
       0.017896391 0.21240465 -0.35239583 -0.024739284
000250 87 44 92 3e 67 f2 47 3e 62 72 4c 3d c1 85 4b 3e
       0.28567907 0.19526063 0.04991377 0.19875242
000260 51 22 78 bd 37 ac 7b bd 36 d6 7e bd 39 46 27 be
       -0.0605796 -0.061443534 -0.062216006 -0.16335382
000270 cd 61 96 3e 73 5f 4a bb 2d c9 c2 3e 49 c9 6e be
       0.2937149 -0.0030879646 0.3804411 -0.23318972
000280 42 b8 99 bb 0b f3 cb bd 46 70 d2 bd 28 49 eb 3d
       -0.0046911547 -0.09958466 -0.10275321 0.11488563
000290 ac 9d 26 be a8 14 fb 3e aa 9c 76 3c d7 4d 4e 3e
       -0.16271085 0.49039197 0.015052 0.20146881
0002a0 95 cb 3d bc 72 5b 7e 3e 60 b4 86 3e f5 f6 aa 3e
       -0.011584182 0.24839571 0.2630949 0.33391538
0002b0 41 ac 96 3d 7a e5 0e be ee 2b fc bd ce f7 64 be
       0.073570736 -0.13954726 -0.123130664 -0.22360155
0002c0 53 3d 21 be 99 9a b7 3e 88 b8 c7 bd 6e 2a db be
       -0.1574605 0.35860136 -0.097519934 -0.4280581
0002d0 c4 81 83 bd 35 49 15 be cb 36 48 be 5d 6c ea bb
       -0.06421235 -0.14578708 -0.19552152 -0.007154031
0002e0 e9 f1 c0 bd b1 2c 85 be 8f e1 36 be 18 83 d5 bb
       -0.09421141 -0.2601066 -0.17859481 -0.0065158717
0002f0 48 3f 20 be 5f 17 46 bd f0 23 cb bd f4 e8 de bc
       -0.1564914 -0.048362132 -0.09918964 -0.02721069
000300 65 ea c0 be e9 44 36 3e 31 c9 26 3e 21 09 b6 bd
       -0.3767883 0.17799725 0.16287686 -0.0888846
000310 04 14 64 3d 7b fa cf 3e a6 e2 37 3e 78 a4 76 3d
       0.05568315 0.4062079 0.17957553 0.060215443
000320 81 56 f1 3c bd 79 c4 3e 0b bc a0 bd ad 20 64 be
       0.029460194 0.3837413 -0.07848366 -0.2227809
000330 56 41 2a 3e 9c 9c 4b bc fe 2b f2 3d ae 7b 36 3e
       0.16626486 -0.012427475 0.11824797 0.17820618
000340 8f ca f6 3d 6e 6e 1d 3e 29 28 dc bd 2b 37 3e 3e
       0.12050354 0.15374157 -0.107498474 0.18575732
000350 37 90 06 3d 03 42 6c be 94 52 68 be f2 64 11 3e
       0.032852378 -0.23072056 -0.22687751 0.14198664
000360 40 de c1 3d a6 77 c0 be 63 29 f4 3d 35 3a c5 3c
       0.09466219 -0.37591285 0.119219564 0.024075607
000370 d9 66 a0 be 4a 9a 26 3e b4 2a 36 3d 15 c7 57 be
       -0.31328467 0.16269794 0.04447432 -0.21072038
000380 b8 03 74 3e 66 ce 0d be 86 b0 1f be 4a c7 f4 3c
       0.23829544 -0.13848266 -0.15594682 0.029880185
000390 ca cd 11 3f 47 ed c6 3d ea ae 22 3e c7 96 03 3e
       0.56954634 0.09713226 0.15887037 0.12850486
0003a0 0c c7 45 3e d9 79 50 be 82 ad bc 3d 71 ce 9a 3c
       0.19314212 -0.20358981 0.092127815 0.018897267
0003b0 96 27 55 3d c1 57 16 be cb 0b b9 bd 70 da 99 3e
       0.052039705 -0.14681913 -0.090354525 0.30049467
0003c0 d2 d9 60 3e 20 59 86 3e 74 b8 90 bd cd 90 b1 bc
       0.21958092 0.26239872 -0.07066432 -0.021675492
0003d0 9a 1e c3 bc a2 7e 89 bd 47 b8 96 3d f0 8a 22 3e
       -0.023818303 -0.067136064 0.07359367 0.15873313
0003e0 8a 8f 15 3e 7e 3b 84 bd c9 e6 52 bb ff 53 38 be
       0.14605537 -0.0645666 -0.0032181016 -0.18000792
0003f0 c9 29 3d 3d 23 9d 21 3d d2 f8 67 3d 49 c8 17 3e
       0.046182428 0.039456498 0.056633778 0.14822496

bias f4 [5]
000000 f3 ee ac 3a 0c 8f fd bd 6e a9 c1 3b 4a ed ca bd
       0.0013193771 -0.123808 0.00591009 -0.099085405
000010 34 cd ce 3d
       0.10097733

weight f4 [5, 64]
000000 98 e6 82 3d b9 33 45 be 05 23 0a be 4e a8 27 3d
       0.063916385 -0.19258012 -0.13489921 0.040931992
000010 43 6d 12 be fb 9f 30 3e a5 45 2e bd 01 e3 cd 3d
       -0.14299493 0.17248528 -0.042546887 0.10053063
000020 62 e0 90 bc 7f 32 28 bd 98 5f 60 be e4 83 30 3e
       -0.017685119 -0.04106378 -0.21911466 0.17237812
000030 11 68 8c bd 71 ee 06 3e 8c 62 0e be 85 5c 0e 3e
       -0.068557866 0.13176896 -0.1390478 0.13902481
000040 7a 0c 2d 3e db 11 63 3e 3d aa e1 bd 7f ef 26 be
       0.1689929 0.2217478 -0.110187985 -0.16302298
000050 94 13 47 3e 49 4b 89 3d 3c 1c 28 3e 71 ce e6 3c
       0.19441062 0.06703813 0.1641702 0.02817461
000060 cf 06 02 bf de b0 e5 3d 17 b2 d4 be 02 5d 6e 3e
       -0.5079164 0.11215375 -0.41542122 0.23277667
000070 41 be 7f 3e a3 4b af 3d 8c 2c b9 bd 49 11 89 3e
       0.2497492 0.085593484 -0.090417 0.26771
000080 ed 41 d3 3d 2b b6 dd 3d f5 88 bf 3e 9c 93 4d be
       0.10315309 0.108257614 0.37409177 -0.2007584
000090 2a 96 90 3d 28 ec cb be 66 14 7f bd 8f aa 3b bd
       0.070598915 -0.3982861 -0.062275313 -0.045816954
0000a0 60 39 e6 bc 3a e5 13 3e 58 1c 1a be 2e 46 7b be
       -0.02810353 0.14442912 -0.15049875 -0.2453849
0000b0 6a fc 7e be 0e ff 88 3c cb 94 85 be 2f 94 2f be
       -0.24900976 0.016723182 -0.26090083 -0.17146371
0000c0 c9 dd 68 3e 59 f2 61 3e 6b 25 04 3e 51 84 9e 3e
       0.22740854 0.22065105 0.12904899 0.30960324
0000d0 e6 e7 b2 3e 1f 27 28 bf b6 42 3a 3d af 96 ea 3d
       0.3494255 -0.65684694 0.045473777 0.11454522
0000e0 c1 0d ec bd 96 fe 67 be 2d e1 d1 bc 76 0b 15 3f
       -0.11526061 -0.2265571 -0.025620067 0.58220613
0000f0 1f e1 8b 3d 5f e0 73 3e 65 9d 27 be 07 07 55 3e
       0.06830048 0.2381606 -0.16368635 0.20803462
000100 2f ee 6e 3e 1c cc 83 3d be 26 04 be 72 bc 3e be
       0.23333047 0.06435415 -0.12905404 -0.18626574
000110 04 3d 8b 3d e9 a4 9d bd aa ac 99 be 37 13 7a 3c
       0.06798747 -0.0769747 -0.30014545 0.01526337
000120 95 3f af bd 78 79 69 be d9 3e 4d 3b bc 1f 93 bb
       -0.08557049 -0.22800243 0.0031317978 -0.004489867
000130 2b dc 43 3e 19 1f 8c 3e 32 c9 fa bc 4d 1b 9c 3e
       0.19126956 0.27367476 -0.030613516 0.3048958
000140 5c b4 b2 3d 14 75 20 3e b8 29 76 3e a3 6e 2e 3e
       0.08725807 0.15669662 0.24039352 0.17034392
000150 43 9e 36 3d 3d a5 34 3e e7 f8 a9 3d e3 5b 50 3d
       0.044584524 0.17641158 0.082994275 0.05086888
000160 d4 3a 08 3e 78 0d f7 3d ed af 09 be 93 f0 db 3c
       0.13303691 0.12063116 -0.13446017 0.026848113
000170 d1 45 aa bc 03 53 22 3e d9 ca 56 3e 07 eb 36 3e
       -0.020785244 0.15851979 0.20975818 0.17863093
000180 fe 80 20 be 25 23 16 3e ed f0 49 bd c1 21 65 be
       -0.15674207 0.14661844 -0.04930203 -0.22376157
000190 c6 58 ac bd 00 d4 7c be ab 06 22 3e 90 f6 c5 3d
       -0.0841537 -0.24690247 0.15822856 0.09666169
0001a0 af f2 5e be a1 ce 63 3e 71 b0 d6 3d 2f 5b bd 3d
       -0.21772264 0.22246791 0.10482872 0.092459075
0001b0 74 f3 c7 3d eb 5b 5b 3e 8a 41 03 3e 18 e5 c4 3d
       0.09763232 0.21421783 0.1281797 0.09614009
0001c0 35 56 35 3e 8e c0 a0 3d 36 ba 03 3d 43 47 e1 3b
       0.17708667 0.07849227 0.032160006 0.00687495
0001d0 b2 f1 5f 3e ae 4f 73 3e 9f 1c 5d 3e 4b 0c 11 3e
       0.21869543 0.23760864 0.2159295 0.14164846
0001e0 b2 2b 8b bc ea 90 58 be 41 99 5e bd 6f b4 1e 3e
       -0.016988609 -0.2114903 -0.054345373 0.15498517
0001f0 9c a1 7b bd 4f b4 07 3e c0 9d 2d 3e af cb 1e bd
       -0.06143342 0.13252376 0.16954708 -0.038768467
000200 9c 67 03 be 52 df 1f 3e be 23 39 3e bc b6 64 3d
       -0.12832493 0.15612534 0.18080041 0.05583833
000210 cc b7 f2 3c 9e 62 85 3d ed 86 3a be d4 76 6f 3e
       0.029628657 0.0651295 -0.18215533 0.23385173
000220 d7 70 e9 3d 58 57 2d 3e ce e1 90 3e 00 cf 28 bd
       0.113984756 0.1692785 0.28297275 -0.041213036
000230 ac 03 8c be 2a 48 84 3e 4e 52 d8 bc b8 e1 85 3e
       -0.2734655 0.25836307 -0.026406433 0.26148772
000240 ca 39 e8 3e 1f 81 af be d6 b7 e2 bd be 07 b6 be
       0.4535659 -0.342782 -0.1107022 -0.35552782
000250 9b 8c 8e 3e 77 36 5a bc d5 42 0d be 73 3e 36 3e
       0.27841648 -0.0133186495 -0.13795026 0.1779726
000260 16 0f eb be fd e5 c7 3e c3 3e 89 3e d2 f4 2c be
       -0.45909947 0.39042655 0.26805696 -0.16890267
000270 36 10 a0 3e 8e ad e4 bd d1 26 1d 3e 83 d7 e4 bd
       0.31262368 -0.111659154 0.15346839 -0.11173918
000280 5e 01 3d be c0 b2 7f 3e 97 a9 1a be 99 0a d2 3d
       -0.18457553 0.24970531 -0.15103756 0.102559276
000290 9b 5a 0a be f0 ae a2 bd eb 71 b6 ba 42 7d ff 3d
       -0.13511126 -0.07943523 -0.0013919448 0.12475063
0002a0 02 15 00 be 40 08 6b 3d 4b d0 c9 3c 2f 43 d8 bd
       -0.12508014 0.057380915 0.024635455 -0.10559689
0002b0 a4 1f 78 3d 69 88 c4 bb a6 f0 16 3e ec cc f8 bd
       0.06057705 -0.0059977067 0.14740238 -0.12148461
0002c0 8d 69 c3 3b ae f0 84 be da 23 69 3c 97 f0 13 3e
       0.0059635104 -0.25964874 0.014229739 0.14447246
0002d0 67 e2 21 bd 8d 82 60 3d ec 94 80 bd 47 60 5f 3e
       -0.039522555 0.054812003 -0.062784046 0.2181407
0002e0 12 10 08 be ce 21 cb be 96 91 58 3d f9 d3 c8 3c
       -0.1328738 -0.39674228 0.052873217 0.024515139
0002f0 46 96 9b 3e d4 5a 56 be 76 56 67 be 48 73 95 be
       0.30388087 -0.20933086 -0.22591576 -0.29189515
000300 ec c6 f0 bd d8 2a 0a be 98 f4 d5 bd 15 7e 0e 3e
       -0.11756691 -0.13492906 -0.10447043 0.13915284
000310 af ff 1e 3d 8c c1 e5 bc 3c 29 67 3e 26 fc e4 3a
       0.038818058 -0.028046392 0.22574323 0.0017470166
000320 7e f6 ff 3c b7 81 79 be 27 91 8a bd 87 f5 a9 be
       0.031245466 -0.24365889 -0.06765967 -0.33195135
000330 b5 c0 80 3e 80 a5 8c 3c 97 8a 5b 3d dc 1e 06 3e
       0.25147024 0.01716876 0.053598966 0.1309771
000340 cf a5 a3 3e fb eb 1b 3d 69 0e c7 be 09 a9 6b bd
       0.3196244 0.038066845 -0.38878182 -0.05753425
000350 5e 30 c4 bd 3c b6 d8 3d 45 fd 10 3e 3d f7 93 3d
       -0.09579538 0.105816334 0.14159115 0.07224891
000360 3a da 6d be 50 14 53 be 2e 69 22 be 17 10 89 bd
       -0.23227778 -0.20613217 -0.15860435 -0.06692522
000370 82 cb a9 3e 43 fd ec bc 15 3f eb 3d bf 04 7f 3c
       0.33163077 -0.028929358 0.11486641 0.015565096
000380 e2 bb 76 bd 31 3d 9c bd 3e 76 ce bd 56 28 49 bd
       -0.060237773 -0.07628859 -0.10081147 -0.049110733
000390 f4 88 3b 3e ae 93 7b be a6 e8 db bb ac d6 2f 3d
       0.18313962 -0.24568054 -0.0067110835 0.042929336
0003a0 34 66 c2 3a e2 ce c0 bd ac 7f d6 3d 18 12 6d bd
       0.0014831484 -0.0941446 0.1047357 -0.057878584
0003b0 f8 f2 8e 3e 86 e0 90 be ae 79 cb 3d d9 98 0d 3c
       0.27919745 -0.28296298 0.09935318 0.008642399
0003c0 b4 6d 14 3e fb 80 28 3e ef b7 05 be 7b 86 82 bb
       0.14494973 0.16455452 -0.13058446 -0.0039833165
0003d0 f2 3a 98 be 13 9b c8 bb ea 17 a6 3c 7b 71 1e 3e
       -0.29732472 -0.006122002 0.020275075 0.15472977
0003e0 4c 6d 59 3e 79 f8 c0 be 52 40 02 be 91 8c 87 be
       0.212331 -0.3768957 -0.12719849 -0.2647443
0003f0 c0 a9 30 be 43 0a 94 3c 3e 07 9d be 58 c5 78 bc
       -0.17252254 0.0180713 -0.30669588 -0.015183769

bias f4 [5]
000000 00 85 26 bd 7f fb c3 3c d8 fc 17 bc f0 a7 5c bc
       -0.040654182 0.023923634 -0.009276591 -0.013467774
000010 a7 a5 70 3c
       0.014687932

weight f4 [5, 64]
000000 4e 00 13 be 2e a1 56 3e 1e 3f 2f 3e 99 2e 2a be
       -0.14355585 0.20959923 0.17113921 -0.16619338
000010 eb b7 cc bd e7 bf d9 bd 5a 57 19 3e af 80 5e 3e
       -0.09996017 -0.106323056 0.14974728 0.21728776
000020 2b 5c be bd 40 93 2a 3e 93 cc 47 bd b6 d5 f2 3c
       -0.092949234 0.16657734 -0.04877908 0.029642921
000030 f6 a1 bc be b8 f9 4f bd cc 41 3f 3e c0 b2 80 3e
       -0.36842316 -0.05077526 0.18677443 0.25136375
000040 9b c6 f3 3d 96 f9 41 3e 54 cb d9 3b 17 d0 8d 3e
       0.11903115 0.18942866 0.006646553 0.27697822
000050 5c 8e d4 3e e5 57 71 be d9 28 c7 be 47 78 dc bd
       0.41514862 -0.23568685 -0.38898352 -0.107651286
000060 c5 a9 d7 3c 4a 7b ff bd 71 29 8c be 6a 7d 0c 3e
       0.02632607 -0.124746874 -0.27375367 0.13719717
000070 af 05 ed 3c b7 eb 3f bd fd 22 a0 bd c7 1e cc bd
       0.028933374 -0.046855655 -0.078191735 -0.09966808
000080 68 01 7d 3e da 39 77 3d f3 a6 60 be bc 38 c8 bd
       0.24707568 0.060357906 -0.21938686 -0.09776446
000090 28 39 5a bc 3e 86 e4 be bf ff fb 3d 05 b6 a9 bc
       -0.013319291 -0.4463367 0.12304639 -0.020716676
0000a0 e6 53 59 be c3 c0 d9 bc ba 5b 15 3e 7c 40 a5 be
       -0.21223411 -0.026581174 0.14585772 -0.3227576
0000b0 de 66 6c bd 14 d3 93 3e b7 0e 6f be 1e 62 76 3e
       -0.05771529 0.28871977 -0.23345457 0.24060866
0000c0 3e 97 08 3e e6 27 19 3e 1f 99 0a bd a0 ab ee 3d
       0.13338944 0.14956626 -0.033837434 0.116538286
0000d0 20 5e 07 be 09 1c 61 3e 5b 54 ec bd 59 3e 16 3c
       -0.132195 0.21983351 -0.11539527 0.009170138
0000e0 ba 17 69 3e 47 3d a6 3e 4d 7a f3 bd 49 c3 ac be
       0.22762957 0.32468626 -0.118885614 -0.3374274
0000f0 dc 51 88 3d ae 09 7b 3e 7a c6 a2 3e ca 9b ba bd
       0.066562384 0.24515411 0.3179205 -0.09111746
000100 b2 31 bf bd d8 a3 82 be 14 cb d2 be 2e 51 9b 3e
       -0.093356505 -0.25515628 -0.4117056 0.30335373
000110 14 25 be 3e 3e 9f a3 be 4b d7 a4 3c 10 fa 8d 3d
       0.37137663 -0.3195743 0.020122191 0.06932461
000120 39 b8 80 3e 3e f0 46 be fa 48 17 3e 57 4f 1c bd
       0.2514055 -0.19427583 0.14773932 -0.038161602
000130 c0 59 77 3e d1 c4 c0 3e 49 37 1b bf e1 66 82 be
       0.2415533 0.3765016 -0.60631233 -0.25469115
000140 32 d6 b7 be 62 0b 22 be 08 0f a0 3e a1 43 9e 3e
       -0.35905606 -0.15824655 0.31261468 0.30910972
000150 05 e5 60 3c e0 52 c0 3d 33 44 1f 3e a4 5a 62 3d
       0.0137264775 0.09390807 0.1555336 0.055262223
000160 19 e2 4c 3e a9 af 77 be 34 cf 03 bf 67 d6 97 be
       0.20008124 -0.24188103 -0.5148804 -0.29655764
000170 55 de 9e be 36 9d 03 3f 27 50 7f 3e 82 cc 41 be
       -0.31029 0.5141176 0.2493292 -0.1892567
000180 9f b8 b6 3e d2 00 e6 be 7f eb 48 3e 6d 45 b4 be
       0.3568773 -0.449225 0.19621085 -0.35209218
000190 76 6e 40 be c3 2a 5c 3e df a8 a3 bd 75 5a fd bd
       -0.18792138 0.21500687 -0.07991194 -0.12370769
0001a0 ed b5 d7 be 96 98 d1 3d 61 7a 81 3e 3d 8f b2 3e
       -0.42130986 0.102341816 0.2528868 0.34874907
0001b0 4c ab 8d bd 56 24 b6 bd 12 fb 3a 3e dc 25 8f be
       -0.06917438 -0.08893649 0.18259838 -0.27958572
0001c0 70 67 5a be 17 75 0e 3e f1 50 fa 3e ee 26 09 bf
       -0.21328521 0.13911854 0.48889878 -0.53575027
0001d0 67 ee e6 3a da 21 82 be 37 35 91 bb 93 ca 8c be
       0.0017618657 -0.25416452 -0.0044313925 -0.27498302
0001e0 9d 83 96 3e cb 37 5c bd 60 18 dd bd 0b 9f 0a 3e
       0.29397288 -0.053764146 -0.10795665 0.13537233
0001f0 51 e4 d4 bd b8 53 98 be 18 57 e6 bc a8 f6 7d 3e
       -0.103951104 -0.29751372 -0.028117701 0.24801123
000200 69 ff 0e 3c 48 6a 04 3e 50 2b 08 be 3d 4a 01 bf
       0.008727887 0.12931168 -0.13297772 -0.50503904
000210 cf 91 60 3e fc a4 81 3e 06 c8 e1 3d ff cb 45 3d
       0.21930622 0.25321186 0.110244796 0.04829025
000220 8c 55 95 3d a6 88 49 3e f7 9a d5 be 8e 05 04 3f
       0.072917074 0.19681033 -0.4171979 0.51570976
000230 18 68 18 3e 99 16 0b be 6e 1f b0 bd 0e 51 01 3e
       0.14883459 -0.13582839 -0.08599745 0.12628576
000240 27 c6 f4 3e 07 e9 fe 3d 8a 4a 08 3a 96 e1 12 3e
       0.47807428 0.1244679 0.00051990955 0.14343867
000250 92 2d a6 3d 85 2e 4d 3e 0f 88 a5 bd 06 61 82 3e
       0.081141606 0.20037277 -0.08082592 0.25464648
000260 05 6b 0c bf f3 99 51 3d 7f 64 96 3c 44 6e 5c 3d
       -0.548508 0.051172208 0.018358467 0.053816095
000270 14 c0 84 3e d3 49 90 bd 05 f7 aa be ab b0 9a be
       0.25927794 -0.07045331 -0.33391586 -0.30212912
000280 26 4c de 3d e9 63 96 bd eb 47 a9 bd cb 75 e7 bd
       0.10854368 -0.07343275 -0.082656704 -0.11301764
000290 50 94 b8 3e f9 04 e3 3e ca ad 0a 3e e4 d2 fb bd
       0.36050653 0.4433973 0.13542858 -0.122960836
0002a0 70 3a d8 be 33 32 8e 3e 15 dd 18 bd f6 6f 0d 3e
       -0.42232084 0.27772674 -0.037320215 0.13812241
0002b0 ab 0e 0e bd a1 82 7c bd 66 6e 24 be cc fa a7 3d
       -0.034681957 -0.061648015 -0.16057739 0.082021326
0002c0 13 60 83 3e f4 c3 d5 3d b1 b8 95 bd 44 5a d6 3d
       0.25659236 0.10437766 -0.07310618 0.104664356
0002d0 df a3 37 3e 79 b6 c2 bd 71 e5 4a bd 74 98 bb 3e
       0.17933606 -0.0950746 -0.04953522 0.3663975
0002e0 b8 25 3b be 3a 73 0a 3f 53 36 23 bc b9 0e 88 bc
       -0.18276107 0.5408207 -0.009961682 -0.016608583
0002f0 18 13 1d 3e 07 75 50 3e 0a e8 27 3b 9d 9d ca be
       0.15339315 0.20357142 0.0025620484 -0.39573374
000300 ef b3 71 bd 67 fb d9 3d fd 3b 6f bd 74 f5 90 3e
       -0.05900949 0.10643654 -0.05840682 0.28312266
000310 da 27 8a bd 16 bb 0a 3d 5d fb c1 3e cf d8 d1 3d
       -0.06745882 0.033869825 0.37887087 0.10246431
000320 ed cf 3b 3d 32 45 8b 3b 7a 1b 6a 3e 9b e4 b2 bd
       0.04585259 0.004250192 0.22862044 -0.08735009
000330 f1 f5 12 3e 5b 31 82 3e 67 ec c7 3d 23 46 95 3d
       0.14351632 0.2542828 0.09761887 0.07288768
000340 50 84 c1 3b a6 a2 93 bd 52 be 37 3e 87 f4 86 3d
       0.0059056655 -0.07208757 0.17943695 0.06589609
000350 8d 79 a7 3e ae 5e 4f 3c 0e e8 a9 bd bd 88 5b be
       0.32709923 0.012656851 -0.08296214 -0.2143888
000360 77 fe b1 bd 7e 1f 2a 3d d5 19 30 be d2 ef e4 bd
       -0.086911134 0.04153394 -0.17197354 -0.111785546
000370 1b c8 ae bd a5 a8 6e 3d a2 49 cf 3e d6 c1 20 be
       -0.08534261 0.0582663 0.40485865 -0.15698943
000380 da 1d 85 3e 26 54 09 3e 6a f3 78 3e 68 bc 08 3e
       0.25999337 0.13411006 0.24311605 0.13353121
000390 9e de 45 be 06 e0 76 be 63 b4 07 bd d8 e1 1b be
       -0.19323203 -0.24108896 -0.033131015 -0.15222871
0003a0 7e f6 8a be 86 5d 7e 3d 5a 12 c1 bd 5e 33 31 be
       -0.27141184 0.06210091 -0.094273284 -0.17304751
0003b0 d4 55 bf 3e e6 9c ab bd 7b 97 8c 3e 20 7d 9c 3e
       0.3737017 -0.083795354 0.2745932 0.30564213
0003c0 ce fa 46 3d 19 f5 1e 3e 8b 53 38 bd 94 da 5e be
       0.04857903 0.15523185 -0.045001548 -0.21763068
0003d0 65 f3 0a bd 74 2c c3 be bd 1f cc bc d0 e0 14 be
       -0.033923525 -0.38119853 -0.024917478 -0.14538884
0003e0 f6 07 0c 3d e9 41 df 3d 14 a9 e4 bc 9b 77 1d 3e
       0.03418728 0.10901243 -0.027912654 0.15377657
0003f0 61 7f 26 be b7 fa 89 be a5 7b 37 3e 26 c5 e3 3d
       -0.16259529 -0.26949093 0.1791826 0.111215875

bias f4 [5]
000000 0b 2b 14 be 21 d4 76 be ef 6b b8 bd 04 83 8d bd
       -0.14469545 -0.24104358 -0.09004962 -0.06909755
000010 13 4e 5c be
       -0.21514158
