model/2025021848.pth (torch, 46548 bytes, 10 tensors)

weight f4 [64, 1]
-1.9297802 0.19036368 2.8865232 0.6972347 -0.41497642 2.5475233 0.0050874506 1.2396401
-0.7423971 0.7833033 -0.4996963 -0.47948053 -0.064917594 -1.0856392 -1.5991856 -2.5488305
0.5126408 -1.2108368 -1.7144256 0.13667616 -1.5012325 -2.266386 -0.3289162 -1.550663
-0.12211732 0.08526655 -0.21209504 0.21079147 -0.54541254 2.6308584 -0.8649997 -0.04627492
1.1037077 1.2011608 -0.35852203 -0.6519649 0.0716506 0.5976962 -2.2228599 -0.6434873
-2.0751765 -0.8947639 0.8963711 -1.13546 -0.3279803 2.0670187 -1.2371583 -2.7150013
0.2386354 -2.1458895 -1.5277166 0.53413475 0.76618534 2.1547065 -0.94623744 -0.9800876
1.3509932 0.89924955 0.5445653 1.6192768 -1.264389 0.82450515 -1.3573616 0.49871194
00000000: 0a03 f7bf b2ee 423e ccbc 3840 f97d 323f
00000010: ca77 d4be 9f0a 2340 a1b4 a63b 87ac 9e3f
00000020: bd0d 3ebf 9186 483f 32d8 ffbe 797e f5be
00000030: 84f3 84bd 3af6 8abf 1db2 ccbf 0a20 23c0
00000040: 6d3c 033f b3fc 9abf 4c72 dbbf d6f4 0b3e
00000050: 6328 c0bf 780c 11c0 b467 a8be 207c c6bf
00000060: a518 fabd 3ba0 ae3d 712f 59be b8d9 573e
00000070: 28a0 0bbf fc5f 2840 9f70 5dbf c58a 3dbd
00000080: 4b46 8d3f a3bf 993f 3390 b7be 2ce7 26bf
00000090: 8dbd 923d 9e02 193f 5643 0ec0 95bb 24bf
000000a0: b1cf 04c0 3f0f 65bf 9478 653f c156 91bf
000000b0: 09ed a7be 094a 0440 345b 9ebf 95c2 2dc0
000000c0: d75c 743e 4156 09c0 388c c3bf 0ebd 083f
000000d0: b924 443f b6e6 0940 9e3c 72bf 05e7 7abf
000000e0: 58ed ac3f 3835 663f a268 0b3f 7644 cf3f
000000f0: 80d7 a1bf c512 533f 06be adbf 2c57 ff3e

bias f4 [64]
-0.050122306 0.19374126 -0.011724585 0.0031251025 0.123056754 0.013927522 -0.25772315 0.09417888
0.010862128 0.044302672 -0.046064477 -0.14155112 -0.061603155 -0.13285598 0.06772994 0.03169983
0.059852786 -0.12582162 0.040170055 0.06842026 0.008391501 0.18425308 -0.0336247 0.06142452
0.12476809 0.01067788 0.047064662 0.021776374 -0.16852559 0.22372247 -0.079719126 -0.17391314
0.05031595 0.20258245 -0.20929386 0.07534479 -0.03319693 -0.102125935 -0.15187691 0.026540045
-0.12869069 0.02208608 -0.1913912 0.020379586 -0.0686081 0.08232332 0.10628218 0.05672873
0.032914236 0.14887674 -0.095659636 0.13141237 -0.011413808 0.152813 0.13480611 -0.20679054
0.17153001 -0.06750041 -0.06056316 -0.13059624 -0.1854839 0.012073196 -0.050370846 0.101698495
00000000: 0c4d 4dbd 1c64 463e 7918 40bc 85ce 4c3b
00000010: 2e05 fc3d 4330 643c 4af4 83be dbe0 c03d
00000020: 11f7 313c b876 353d 1bae 3cbd c7f2 10be
00000030: 9753 7cbd 660b 08be ffb5 8a3d aed7 013d
00000040: 3228 753d 62d7 00be 5b89 243d ec1f 8c3d
00000050: 827c 093c d7ac 3c3e 0eba 09bd 4798 7b3d
00000060: 6a86 ff3d 46f2 2e3c e0c6 403d 5e64 b23c
00000070: f991 2cbe 8117 653e c843 a3bd 4916 32be
00000080: 1918 4e3d c671 4f3e 2151 56be 5f4e 9a3d
00000090: 81f9 07bd 6727 d1bd 9f85 1bbe 826a d93c
000000a0: 7ec7 03be deed b43c 0efc 43be 17f3 a63c
000000b0: 6782 8cbd 2199 a83d 79aa d93d 635c 683d
000000c0: 14d1 063d 2573 183e 33e9 c3bd f790 063e
000000d0: fb00 3bbc 037b 1c3e 9d0a 0a3e e6c0 53be
000000e0: 90a5 2f3e a83d 8abd 1311 78bd 05bb 05be
000000f0: 7eef 3dbe a7ce 453c a951 4ebd 4d47 d03d

weight f4 [64, 64]
-0.004570079 0.1963201 0.012224027 0.05362401 -0.11152379 0.0144494055 0.09975016 -0.21750815
-0.17531896 0.12017836 -0.21817303 -0.019224914 -0.20488611 0.15222763 -0.024687605 -0.24379979
-0.18514435 0.08000386 -0.11627725 0.30594826 -0.18003017 0.0013831939 0.070379205 -0.05661647
-0.13625896 0.09873652 -0.056787718 0.019810358 -0.18153194 0.10461827 0.013092166 0.6446029
0.021220846 0.15209463 0.12194172 0.1783765 -0.06052122 -0.004256612 -0.10632148 -0.12379046
-0.24729706 -0.1668575 -0.2413329 0.09848103 -0.3201418 0.24655403 -0.062486507 -0.3318621
0.12488662 -0.10709256 -0.16929075 0.11481473 -0.068350665 -0.07928232 0.15465768 -0.25601044
-0.2505775 0.050321568 -0.17873348 -0.16993833 -0.15883788 -0.05964338 0.23361067 0.10590199
-0.07367639 0.40225044 -0.096562706 0.067775585 -0.023041623 0.24767853 0.17004594 -0.26337624
0.22431527 -0.07645085 -0.12822622 -0.05832205 0.33731186 -0.10033794 0.14248922 -0.059257526
0.16611625 -0.17158155 0.32254696 0.053520493 0.20459218 -0.02506251 -0.08821701 -0.23335971
0.07035924 0.1608824 0.09505459 0.2602764 -0.2511775 -0.09949271 -0.046119645 0.34102592
-0.34519625 -0.17561212 -0.06195936 0.081171416 0.18105215 -0.17957145 -0.10870974 0.09175744
-0.26586315 -0.2117668 -0.05605721 0.17643587 -0.44428086 -0.16299438 0.07948734 0.03018234
0.23410381 0.42217183 0.13768996 0.15579055 -0.26811504 0.2531013 -0.16798474 -0.28476286
0.3124372 -0.01494766 0.33077267 -0.033634532 -0.17081393 0.3358428 0.018375838 -0.022447385
0.05649277 -0.0824501 0.1405626 0.04109539 -0.13416983 0.15739693 -0.25329417 0.081023216
-0.1434997 -0.09940101 -0.018788073 -0.05849806 -0.041269165 0.07344446 -0.11035739 -0.419791
0.2369686 0.216154 -0.12425507 0.009517485 0.061779853 -0.07811554 -0.12632784 -0.19285463
0.20974042 0.23612407 0.05183088 0.24477448 -0.06526455 -0.2839013 0.17780532 -0.12384319
-0.0926031 -0.03190125 0.37298018 -0.08617597 -0.34160662 0.12699543 -0.41221067 0.033149414
-0.16849084 0.029136416 -0.108762205 0.16182995 -0.36579522 0.065972984 0.23644067 -0.098088466
0.085380875 -0.24756992 0.11185213 0.046631057 -0.12065184 0.20577335 -0.0444946 -0.042638067
-0.012946102 -0.29560617 0.13597353 0.061229914 0.019417576 -0.05256245 -0.309753 0.0937271
0.065919116 0.13867673 -0.13987625 -0.10939022 -0.053037673 -0.101782866 -0.13879056 0.3706093
0.02269153 -0.07175447 0.2492403 -0.25328875 0.029877186 -0.027248288 -0.46120277 -0.31077275
-0.37070164 0.03320085 0.074557945 -0.22280797 -0.14748093 0.15630177 0.2085097 -0.089207195
-0.10627859 -0.060653973 -0.097549215 0.13716982 -0.09725082 0.23796025 -0.11678354 0.35086504
0.0574915 -0.2668626 0.1546413 0.043067686 0.1489718 0.02669803 0.05795992 0.016527543
0.40148693 0.053142212 -0.028953696 0.026428822 -0.07437711 -0.04278521 0.19159251 -0.011480513
0.23732555 -0.12557824 -0.09145519 0.12736659 0.0571181 -0.027172875 0.027886756 0.08649482
0.1283462 0.13560222 0.006523296 0.1331057 -0.08846064 -0.083620384 -0.04269358 -0.019631192
00000000: 9ac0 95bb 2308 493e 4947 483c daa4 5b3d
00000010: 9666 e4bd 33bd 6c3c d049 cc3d 75ba 5ebe
00000020: d086 33be 1220 f63d c068 5fbe 917d 9dbc
00000030: aacd 51be 8fe1 1b3e a93d cabc a7a6 79be
00000040: 7b96 3dbe 10d9 a33d c422 eebd 40a5 9c3e
00000050: d459 38be 494c b53a f922 903d ace6 67bd
00000060: 7887 0bbe 5f36 ca3d 3d9a 68bd 5549 a23c
00000070: 82e3 39be 1b42 d63d 8680 563c b204 253f
00000080: 57d7 ad3c b2be 1b3e 95bc f93d 54a8 363e
00000090: 19e5 77bd 0d7b 8bbb 13bf d9bd da85 fdbd
000000a0: 713b 7dbe b1dc 2abe f91f 77be 6cb0 c93d
000000b0: a0e9 a3be a978 7c3e daf1 7fbd d4e9 a9be
000000c0: 8ec4 ff3d 5853 dbbd 8e5a 2dbe fc23 eb3d
000000d0: 6ffb 8bbd c55e a2bd 955e 1e3e cd13 83be
000000e0: b24b 80be fd1d 4e3d e905 37be 5004 2ebe
000000f0: 66a6 22be 9e4c 74bd a337 6f3e 24e3 d83d
00000100: a6e3 96bd c5f3 cd3e abc2 c5bd edcd 8a3d
00000110: c9c1 bcbc 719f 7d3e 8620 2e3e 40d9 86be
00000120: e7b2 653e 4392 9cbd bc4d 03be 1ae3 6ebd
00000130: 24b4 ac3e fa7d cdbd b2e8 113e 05b8 72bd
00000140: 611a 2a3e 13b3 2fbe e024 a53e 4e38 5b3d
00000150: 9d80 513e e54f cdbc 1fab b4bd d9f5 6ebe
00000160: 8118 903d 5bbe 243e fbab c23d f342 853e
00000170: 569a 80be d5c2 cbbd f4e7 3cbd f39a ae3e
00000180: 90bd b0be aad3 33be 19c9 7dbd 333d a63d
00000190: bc65 393e 94e1 37be 36a3 debd 53eb bb3d
000001a0: 371f 88be 65d9 58be 3f9c 65bd 9bab 343e
000001b0: c878 e3be 00e8 26be 42ca a23d f440 f73c
000001c0: e9b8 6f3e e826 d83e 99fe 0c3e 8f87 1f3e
000001d0: 6046 89be 7e96 813e 3104 2cbe 70cc 91be
000001e0: c5f7 9f3e 08e7 74bc 095b a93e 5dc4 09bd
000001f0: d9e9 2ebe 96f3 ab3e ed88 963c 94e3 b7bc
00000200: f664 673d 99db a8bd a4ef 0f3e a453 283d
00000210: d163 09be a92c 213e c6af 81be 80ef a53d
00000220: 96f1 12be c292 cbbd 72e9 99bc a99b 6fbd
00000230: db09 29bd 0d6a 963d 0e03 e2bd d9ee d6be
00000240: e6a7 723e 7957 5d3e 7179 febd 3aef 1b3c
00000250: df0c 7d3d 0afb 9fbd 165c 01be af7b 45be
00000260: 31c6 563e 82ca 713e 9e4c 543d 29a6 7a3e
00000270: 6ca9 85bd 835b 91be 9912 363e 80a1 fdbd
00000280: b2a6 bdbd e3aa 02bd 42f7 be3e 077d b0bd
00000290: 10e7 aebe 170b 023e 470d d3be aec7 073d
000002a0: dd88 2cbe 7eaf ee3c b8be debd c0b6 253e
000002b0: 8349 bbbe d81c 873d 811d 723e 9be2 c8bd
000002c0: 2bdc ae3d f882 7dbe bb12 e53d 3500 3f3d
000002d0: 5018 f7bd 40b6 523e f83f 36bd 41a5 2ebd
000002e0: e31b 54bc b159 97be a53c 0b3e 38cc 7a3d
000002f0: 9c11 9f3c b94b 57bd f297 9ebe fef3 bf3d
00000300: 9a00 873d 4601 0e3e b83b 0fbe fb07 e0bd
00000310: 083e 59bd 8973 d0bd 1d1f 0ebe 81c0 bd3e
00000320: 96e3 b93c 02f4 92bd d938 7f3e 10af 81be
00000330: 00c1 f43c cd37 dfbc c522 ecbe 9b1d 9fbe
00000340: 9bcc bdbe 9dfd 073d d6b1 983d c627 64be
00000350: 3e05 17be 920d 203e 9183 553e 43b2 b6bd
00000360: 97a8 d9bd 4d70 78bd e2c7 c7bd 3f76 0c3e
00000370: 702b c7bd daab 733e 352c efbd 95a4 b33e
00000380: 357c 6b3d 37a2 88be 4a5a 1e3e be67 303d
00000390: 108c 183e d4b5 da3c 6267 6d3d c564 873c
000003a0: b28f cd3e a6ab 593d 4d30 edbc 4281 d83c
000003b0: 0753 98bd 8b3f 2fbd d430 443e c318 3cbc
000003c0: 7805 733e 9597 00be dc4c bbbd 636c 023e
000003d0: abf4 693d a699 debc c472 e43c 3224 b13d
000003e0: 306d 033e 4fdb 0a3e 5fc1 d53b dc4c 083e
000003f0: da2a b5bd 2a41 abbd 77df 2ebd 98d1 a0bc

bias f4 [64]
-0.085113294 0.013526688 0.034511063 0.042451587 0.045522336 0.11844268 -0.039823283 0.16276047
0.012001146 -0.11174821 -0.054901417 -0.21308625 -0.16718245 -0.06351219 0.021191359 -0.10079404
-0.14179148 0.11050391 -0.0662468 -0.32498857 0.033178978 0.15929924 0.048878714 -0.49359939
-0.08744005 -0.09475944 -0.13666221 -0.090675466 -0.03949414 -0.104423515 -0.4885246 -0.34156695
-0.14928158 0.1499039 -0.31842527 -0.009791569 -0.087622486 -0.011026322 -0.007272123 -0.019502655
-0.020121904 -0.0030970343 0.37861395 -0.05245992 0.07486331 0.11170909 0.15121138 0.02449273
0.092791356 0.02657488 0.02609396 -0.12903975 0.1489852 -0.19234894 0.13722034 -0.10701458
-0.098462716 -0.083471105 -0.14633155 -0.13649762 -0.06271199 -0.0077382238 0.057004407 -0.1062772
00000000: e14f aebd 0b9f 5d3c 795b 0d3d b7e1 2d3d
00000010: a175 3a3d 1392 f23d bd1d 23bd aeaa 263e
00000020: 74a0 443c 3fdc e4bd 4fe0 60bd 4833 5abe
00000030: e031 2bbe ae12 82bd 8099 ad3c 1b6d cebd
00000040: c931 11be e04f e23d 67ac 87bd e764 a6be
00000050: aee6 073d 571f 233e 0c35 483d 0fb9 fcbe
00000060: c513 b3bd 3d11 c2bd 2ef1 0bbe 0fb4 b9bd
00000070: 9bc4 21bd ffdb d5bd e51f fabe dde1 aebe
00000080: 45dd 18be 6880 193e a308 a3be d16c 20bc
00000090: 6b73 b3bd bfa7 34bc fd4a eebb 08c4 9fbc
000000a0: b1d6 a4bc 9df7 4abb b0d9 c13e 37e0 56bd
000000b0: ef51 993d bcc7 e43d 28d7 1a3e faa4 c83c
000000c0: 6509 be3d 90b3 d93c 00c3 d53c ff22 04be
000000d0: 948f 183e 1ff7 44be 7d83 0c3e 762a dbbd
000000e0: d2a6 c9bd e6f2 aabd f0d7 15be 08c6 0bbe
000000f0: 256f 80bd ed90 fdbb 747d 693d dca7 d9bd

weight f4 [5, 64]
-0.6072322 -0.055593494 -0.36217844 -0.25309846 0.30783513 -0.025272518 0.0851541 -0.04151098
0.19910997 0.0527968 0.002013728 -0.19275446 -0.2379545 -0.22796069 -0.35057855 0.22363804
-0.10955329 -0.46907783 -0.34210917 -0.30005142 0.4431035 -0.23137048 0.2691201 -0.57437915
-0.14252178 0.00049194624 0.41427466 -0.21535535 -0.11439634 0.11808001 -0.32434207 -0.42381737
-0.10968562 0.06592353 -0.16735682 -0.071809955 0.07011043 -0.0023173948 -0.22463882 -0.40670675
0.029962042 -0.09288286 -0.28885698 0.23233685 -0.33358634 -0.09114633 -0.20984879 0.19243282
-0.23522654 -0.15486273 0.044662386 -0.626888 -0.6319692 0.028119728 0.13761432 -0.33374363
0.09694007 -0.5317472 -0.4036995 -0.18607327 0.1296453 0.15916179 0.24633561 0.04836926
0.11131104 -0.06069777 0.32223186 0.11715252 -0.086745344 -0.09250557 -0.48221207 -0.54948044
0.1557539 -0.1565702 0.6271324 0.0031871037 0.060047816 0.60972697 0.6528064 0.024646632
-0.17313838 0.5773506 0.07270663 0.092285775 0.36576775 0.13016668 0.123349875 0.06401529
0.17539127 -0.143135 -0.14359114 -0.08573352 0.053060543 -0.44689283 -0.048263807 0.20249932
-0.08130816 0.42068687 0.08575049 -0.09260477 -0.08075613 0.2747426 0.35060284 -0.21329975
-0.13140708 -0.35680392 0.03905196 -0.19701199 -0.028169217 -0.3273299 0.2403319 0.7041841
0.24095055 -0.04218242 0.033237595 0.18396541 0.09277377 0.28274944 -0.3786446 -0.01969742
-0.1075672 0.20724382 0.26806012 0.18180133 0.09426688 -0.17278385 -0.11287942 -0.09771068
0.02254552 0.012305323 0.08611132 0.12271174 -0.25156415 -0.44425106 -0.41681108 -0.56409895
-0.07346014 -0.3195219 -0.15456484 -0.24501601 0.27142772 -0.2954817 -0.09352434 0.12478824
0.06765368 0.3627354 0.21414138 0.18796319 -0.06154376 0.028493261 -0.12757987 0.3306721
0.12953186 0.19130377 -0.09316535 -0.2228597 -0.38007703 -0.087197855 0.3901933 0.41664025
-0.033909496 -0.19536942 0.14269647 -0.2457108 -0.2645806 -0.08534564 -0.104696356 -0.25754198
-0.4810913 0.24226351 0.15874198 0.10726939 0.20430775 -0.33395544 -0.03297791 -0.17566311
-0.24495535 -0.4038663 -0.64479315 0.4104583 0.31820673 0.20104885 -0.29975668 -0.27849868
-0.039382346 0.17248514 0.019460166 0.25560504 -0.29633957 -0.15547524 -0.02609348 -0.41071707
0.52894026 -0.031764124 0.3774578 -0.0054995385 -0.27937564 -0.4297695 -0.3875059 0.02647709
0.06378287 -0.2837303 -0.012021821 -0.3725192 -0.4043235 -0.003592817 0.12974083 -0.15592164
-0.033592276 0.38512066 -0.29704294 0.20741104 -0.39731866 -0.14662553 -0.08401357 0.011001043
-0.27850935 -0.21961293 -0.020621125 -0.24216837 -0.061497286 -0.27383983 -0.05939696 -0.07832798
-0.34359917 -0.15730034 0.14471428 -0.20453808 -0.3211128 0.108788446 -0.0437371 -0.4686986
0.13445297 -0.31968552 0.12692437 0.4271706 0.09506542 -0.19149876 -0.114925645 -0.15844448
0.18390356 -0.30089217 0.030849552 0.29144043 0.12271222 0.13368915 -0.5048938 -0.23812582
-0.1459584 0.35186636 0.39057967 0.1218216 -0.2121051 -0.31783065 -0.060266692 -0.24528217
00000000: 9273 1bbf 01b6 63bd 746f b9be 1f96 81be
00000010: 919c 9d3e 5008 cfbc 4665 ae3d 6b07 2abd
00000020: 7ce3 4b3e 7541 583d c0f8 033b 6d61 45be
00000030: 58aa 73be 876e 69be 087f b3be 5f01 653e
00000040: 7a5d e0bd f82a f0be ef28 afbe 57a0 99be
00000050: 76de e23e 62ec 6cbe 1cca 893e 830a 13bf
00000060: 3bf1 11be f4f5 003a cf1b d43e 1d86 5cbe
00000070: a148 eabd efd3 f13d 2a10 a6be 97fe d8be
00000080: dba2 e0bd ea02 873d 965f 2bbe 1911 93bd
00000090: 0f96 8f3d 6fdf 17bb b807 66be de3b d0be
000000a0: f572 f53c 5e39 bebd 10e5 93be b6e9 6d3e
000000b0: d4cb aabe edaa babd 9ae2 56be 1c0d 453e
000000c0: 3adf 70be 5694 1ebe e8ef 363d bb7b 20bf
000000d0: bcc8 21bf 585b e63c c5ea 0c3e 72e0 aabe
000000e0: 8488 c63d 9620 08bf b3b1 cebe fe89 3ebe
000000f0: bdc1 043e 4ffb 223e 673f 7c3e d81e 463d
00000100: 0bf7 e33d 3a9e 78bd 93fb a43e a9ed ef3d
00000110: 8ba7 b1bd 8f73 bdbd 80e4 f6be c0aa 0cbf
00000120: f37d 1f3e f053 20be c08b 203f bade 503b
00000130: b3f4 753d 1117 1c3f 521e 273f bce7 c93c
00000140: 304b 31be 40cd 133f 37e7 943d 5300 bd3d
00000150: e945 bb3e 6a4a 053e dc9e fc3d 731a 833d
00000160: c599 333e fb91 12be 8e09 13be 0e95 afbd
00000170: 0356 593d 23cf e4be 45b0 45bd fb5b 4f3e
00000180: e584 a6bd 4564 d73e f49d af3d 92a7 bdbd
00000190: 7863 a5bd 10ab 8c3e 3782 b33e 406b 5abe
000001a0: 948f 06be 01af b6be f3f4 1f3d 83bd 49be
000001b0: 21c3 e6bc c997 a7be 9119 763e 6945 343f
000001c0: bebb 763e 79c7 2cbd 2524 083d 6e61 3c3e
000001d0: 2d00 be3d 89c4 903e b4dd c1be 7c5c a1bc
000001e0: 314c dcbd b937 543e 2d3f 893e 212a 3a3e
000001f0: fe0e c13d 40ee 30be 532d e7bd 891c c8bd
00000200: 62b1 b83c 449c 493c 225b b03d 4b50 fb3d
00000210: 04cd 80be e074 e3be 4368 d5be ca68 10bf
00000220: 4572 96bd 6098 a3be 3f46 1ebe 7ae5 7abe
00000230: 93f8 8a3e 6149 97be b089 bfbd fa90 ff3d
00000240: 038e 8a3d 74b8 b93e e147 5b3e 6c79 403e
00000250: 4f15 7cbd b36a e93c 4ca4 02be da4d a93e
00000260: 00a4 043e 23e5 433e 7acd bebd 5535 64be
00000270: 7599 c2be ca94 b2bd 6bc7 c73e df51 d53e
00000280: afe4 0abd ec0e 48be 061f 123e 9d9b 7bbe
00000290: 1c77 87be b2c9 aebd 0b6b d6bd 8bdc 83be
000002a0: 9951 f6be ed13 783e 428d 223e 0eb0 db3d
000002b0: 0d36 513e 35fc aabe d813 07bd 08e1 33be
000002c0: 93d5 7abe 90c7 cebe 2a11 25bf 9727 d23e
000002d0: feeb a23e c0df 4d3e b579 99be 6197 8ebe
000002e0: 624f 21bd f29f 303e ed6a 9f3c aade 823e
000002f0: d2b9 97be e734 1fbe fec1 d5bc 8249 d2be
00000300: a168 073f 191b 02bd 2642 c13e 7935 b4bb
00000310: 530a 8fbe bf0a dcbe 2c67 c6be 7be6 d83c
00000320: 98a0 823d 1945 91be 2cf7 44bc d6ba bebe
00000330: 7d03 cfbe 7875 6bbb c8da 043e eca9 1fbe
00000340: 0e98 09bd 892e c53e 0316 98be 8f63 543e
00000350: 5a6d cbbe 0125 16be 4e0f acbd b83d 343c
00000360: c798 8ebe 36e2 60be a2ed a8bc fcfa 77be
00000370: 94e4 7bbd bc34 8cbe 3a4a 73bd 6c6a a0bd
00000380: 3bec afbe 5713 21be fb2f 143e 6e72 51be
00000390: e668 a4be 7acc de3d ac25 33bd 43f9 efbe
000003a0: 0aae 093e d2ad a3be 76f8 013e 1bb6 da3e
000003b0: a9b1 c23d 4018 44be 235e ebbd 453f 22be
000003c0: 3751 3c3e 8a0e 9abe 33b8 fc3c ae37 953e
000003d0: 8b50 fb3d cfe5 083e b840 01bf 41d7 73be
000003e0: 1e76 15be d427 b43e 0ffa c73e 9a7d f93d
000003f0: 1432 59be b3ba a2be 35da 76bd 402b 7bbe

bias f4 [5]
0.1810152 -0.14641277 -0.22352956 0.11599494 -0.10377188
00000000: 0c5c 393e 3bed 15be efe4 64be c18e ed3d
00000010: 5a86 d4bd

weight f4 [5, 64]
-0.20366977 -0.2549273 -0.061392497 0.02603366 -0.13391104 -0.013288684 -0.07274394 0.24408855
0.03897124 0.10339707 0.0009036258 -0.0090619465 0.1398324 0.07842182 0.32253215 -0.057556294
-0.24139361 0.13719925 -0.08491526 -0.082688004 -0.16979966 0.22533014 0.06137839 -0.09491854
0.03986825 0.1809838 0.025754236 0.09922964 -0.055807 -0.05394187 -0.2847596 0.25174138
-0.20623332 0.33561757 -0.12420162 0.09857718 -0.008209064 -0.3293659 0.23735127 0.18913347
0.10283878 0.016457682 0.46990156 0.07243355 -0.00068052224 -0.18355492 -0.23164554 0.006089803
-0.09716309 -0.40766495 -0.19472513 -0.15381739 0.028980946 0.1039399 -0.11218053 0.05020319
0.17563063 0.22707595 -0.021638691 -0.071058206 -0.0737081 0.23398502 -0.1720031 0.09292231
0.13805114 -0.023130283 -0.08588506 0.00859746 -0.15804945 0.106842265 -0.07254909 0.2581427
-0.2936356 0.31513163 0.40160182 0.077416174 0.012577536 0.061923172 -0.028315302 -0.012184326
-0.03764536 -0.08673142 0.31103817 -0.08637479 -0.14460936 -0.06626892 0.058647893 -0.16972852
0.070977546 -0.123050235 -0.47699696 -0.070488006 -0.081547484 -0.27213135 -0.021846067 -0.016848898
0.24194412 0.0018383566 0.057964392 -0.043163702 -0.14543833 -0.09887871 -0.094994865 -0.034468718
-0.018281965 0.18073188 0.009485538 -0.32671338 0.15792693 0.04103955 0.017905952 0.11564717
-0.22807848 -0.08827831 -0.11013089 0.10910975 0.2188281 -0.02646635 0.18260486 0.16945629
-0.09154784 0.17664583 -0.016962588 0.104527555 -0.2111707 0.2034315 0.011918776 0.046401165
0.01838237 0.21669072 -0.16766015 0.014447553 0.39274228 0.06134334 -0.09088984 0.09722994
-0.15463294 -0.035653375 -0.05141837 -0.088993385 -0.14316273 0.014131742 -0.0077953 -0.11183979
0.016078733 -0.15533447 0.052781984 -0.1572175 0.10648145 0.1544033 -0.016514711 -0.03251963
0.026890626 -0.023567913 0.03101631 0.40614554 0.07452053 -0.07377516 0.07414146 -0.17441264
-0.0624502 0.064466596 0.217354 0.0107606 -0.08220657 -0.029876495 0.027929226 0.18111898
0.1767769 -0.092527285 -0.2504224 0.18389383 -0.020665882 0.15534922 0.18187055 -0.082645275
-0.05891806 -0.018792003 -0.0855487 0.09746325 0.06912494 -0.31380978 0.09066947 -0.23997836
-0.07758318 -0.082441255 0.12244726 -0.06373886 -0.23143047 -0.2718128 -0.10403842 -0.09513158
-0.102335036 -0.28654805 0.02759746 0.2234932 -0.07615439 0.032367725 -0.07521507 0.049598146
-0.1748348 0.108760186 0.13271299 -0.1595686 0.06811243 -0.16805618 0.15329728 -0.20723361
-0.2001126 0.1458563 0.041826177 -0.23395452 0.07418897 0.07078433 -0.08475097 -0.13630676
0.08999164 0.1260032 0.053022 0.27088675 0.07135524 -0.009006481 -0.11761578 0.19603959
0.13734013 -0.11034846 -0.3158579 -0.06683544 -0.04676395 -0.35192874 0.12988803 0.08953836
0.08887747 0.12690246 -0.012107738 -0.17698199 -0.22721632 0.08030367 0.055969805 -0.22671676
-0.025398703 0.2348996 0.023909241 -0.1644634 -0.08713592 -0.0069490625 -0.1352917 0.058502354
-0.11385426 -0.03764637 0.07076259 0.076948255 0.10216766 0.07884294 -0.09178063 0.08843679
00000000: cf8e 50be d585 82be b376 7bbd 8b44 d53c
00000010: fa1f 09be c8b8 59bc c6fa 94bd 59f2 793e
00000020: 4fa0 1f3d d8c1 d33d 4de1 6c3a 8f78 14bc
00000030: 3a30 0f3e 9f9b a03d ef22 a53e 26c0 6bbd
00000040: e32f 77be f67d 0c3e 0de8 adbd 5458 a9bd
00000050: f6df 2dbe f2bc 663e e867 7b3d a764 c2bd
00000060: e44c 233d d153 393e 8cfa d23c e938 cb3d
00000070: e195 64bd 26f2 5cbd 03cc 91be 3fe4 803e
00000080: d42e 53be 11d6 ab3e 6b5d febd d5e2 c93d
00000090: 4f7f 06bc a6a2 a8be 360c 733e 34ac 413e
000000a0: 239d d23d 43d2 863c f096 f03e 0b58 943d
000000b0: 1365 32ba d2f5 3bbe 7d34 6dbe f88c c73b
000000c0: 71fd c6bd 76b9 d0be 0666 47be 4e82 1dbe
000000d0: 7369 ed3c 71de d43d e8be e5bd dca1 4d3d
000000e0: 84d8 333e 9986 683e a043 b1bc f786 91bd
000000f0: 46f4 96bd c599 6f3e 9521 30be 0d4e be3d
00000100: 475d 0d3e b87b bdbc 82e4 afbd 5cdc 0c3c
00000110: b7d7 21be 1ed0 da3d 9e94 94bd 482b 843e
00000120: 6857 96be ef58 a13e c19e cd3e 5f8c 9e3d
00000130: 0212 4e3c 27a3 7d3d 7ef5 e7bc c4a0 47bc
00000140: 0532 1abd 3ea0 b1bd 6540 9f3e 44e5 b0bd
00000150: 7a14 14be 00b8 87bd c638 703d 50cd 2dbe
00000160: ad5c 913d c301 fcbd f238 f4be 045c 90bd
00000170: 5e02 a7bd cd54 8bbe 86f6 b2bc b306 8abc
00000180: 33c0 773e 03f5 f03a 126c 6d3d 6ccc 30bd
00000190: c9ed 14be ec80 cabd ab8c c2bd 122f 0dbd
000001a0: 0fc4 95bc c711 393e 3b69 1b3c fa46 a7be
000001b0: 99b7 213e 1619 283d 81af 923c 6cd8 ec3d
000001c0: 688d 69be 42cb b4bd 4e8c e1bd ef74 df3d
000001d0: 7914 603e f5cf d8bc c5fc 3a3e f385 2d3e
000001e0: 6f7d bbbd a5e2 343e 20f5 8abc 8b12 d63d
000001f0: 223d 58be 5950 503e f846 433c 260f 3e3d
00000200: a096 963c 2ce4 5d3e 1aaf 2bbe 6eb5 6c3c
00000210: 8415 c93e 2743 7b3d 7424 babd 7e20 c73d
00000220: 1958 1ebe 4609 12bd 129c 52bd 2a42 b6bd
00000230: 4099 12be d288 673c b76f ffbb 430c e5bd
00000240: 8cb7 833c 0010 1fbe ec31 583d a0fd 20be
00000250: f212 da3d e61b 1e3e dc49 87bc 4e33 05bd
00000260: bb49 dc3c 7f11 c1bc eb15 fe3c 4ff2 cf3e
00000270: 389e 983d 6e17 97bd 7ad7 973d 3a99 32be
00000280: c8cb 7fbd 1007 843d 0c92 5e3e 3a4d 303c
00000290: eb5b a8bd 8dbf f4bc d5cb e43c 4177 393e
000002a0: 0105 353e f27e bdbd 5d37 80be aa4e 3c3e
000002b0: 7f4b a9bc de13 1f3e 463c 3a3e ed41 a9bd
000002c0: 1054 71bd b0f1 99bc 2834 afbd d09a c73d
000002d0: 6091 8d3d adab a0be eab0 b93d e3bc 75be
000002e0: eee3 9ebd f6d6 a8bd a1c5 fa3d 8589 82bd
000002f0: 1cfc 6cbe 0c2b 8bbe 1812 d5bd 59d4 c2bd
00000300: 0895 d1bd 6db6 92be 1214 e23c 67db 643e
00000310: d5f6 9bbd 0594 043d 5c0a 9abd 6d27 4b3d
00000320: e507 33be a9bd de3d eae5 073e f365 23be
00000330: 887e 8b3d eb16 2cbe f6f9 1c3e 0c35 54be
00000340: 51ea 4cbe 5b5b 153e ed51 2b3d c691 6fbe
00000350: 63f0 973d 60f7 903d eb91 adbd 0094 0bbe
00000360: 894d b83d fc06 013e 992d 593d abb1 8a3e
00000370: b222 923d eb8f 13bc 8be0 f0bd 9abe 483e
00000380: e4a2 0c3e 60fe e1bd 20b8 a1be 05e1 88bd
00000390: 8e8b 3fbd 0130 b4be 5e01 053e e35f b73d
000003a0: 6405 b63d b8f2 013e 895f 46bc c43a 35be
000003b0: 65ab 68be 4076 a43d 9840 653d 7028 68be
000003c0: f110 d0bc 8589 703e 50dd c33c 1869 28be
000003d0: 5174 b2bd f6b4 e3bb e889 0abe 2aa0 6f3d
000003e0: 6c2c e9bd 1433 1abd faeb 903d 0c97 9d3d
000003f0: 473d d13d 6878 a13d 7cf7 bbbd 591e b53d

bias f4 [5]
0.027987711 -0.010946672 0.06829433 0.02171322 0.040812664
00000000: 7c46 e53c ac59 33bc e6dd 8b3d ecdf b13c
00000010: 2e2b 273d

weight f4 [5, 64]
0.4776411 -0.06843412 0.49927148 0.21982408 -0.19531317 -0.09385555 0.030906517 -0.38051704
0.37150592 -0.040061396 0.48218238 0.2892672 -0.067483954 0.07672127 0.33235282 0.3990861
0.28052106 0.12061764 0.2691296 0.59517556 -0.020410946 -0.19918993 0.07849952 0.6254264
0.22774415 0.05227763 0.31834146 -0.044620346 0.011960847 0.03348134 0.6831048 0.39204133
0.31788352 0.091222376 0.41360033 -0.015559136 -0.2349324 0.26205105 -0.11891753 -0.07002831
-0.19678535 -0.28286016 0.056999665 0.15329438 0.50200236 -0.32217377 0.14914115 -0.25611028
-0.01981441 -0.4479394 0.22137225 0.7849491 -0.048939966 0.19883864 -0.13062975 -0.39541733
-0.042997114 0.37426788 0.5387856 0.37038562 -0.04955241 -0.08348133 -0.5719365 0.31550992
-0.02504885 -0.065530166 -0.04645033 -0.12553553 0.41561192 0.3475759 -0.029909097 0.33041507
-0.17739281 0.42835164 0.29449728 0.48030126 0.36600277 -0.05760485 0.075514205 0.28227028
0.088232525 -0.16520754 0.16578054 0.20980163 0.4186651 -0.20654175 -0.15763378 0.27739158
0.1555174 0.046903245 0.07072582 0.12913153 -0.04762833 0.13812514 0.18778153 0.4080552
0.17854756 -0.2902044 0.41244832 -0.09485382 0.19939354 0.019580275 0.04783539 0.32261023
0.035029124 0.26957443 -0.0918356 -0.060783006 -0.28604287 0.33745372 -0.15686816 0.076981805
-0.17083915 0.22012688 -0.028714422 -0.0065431646 -0.2769771 -0.045029398 0.35858348 0.5613372
0.1712319 0.07332236 0.33570942 -0.07228115 0.32646358 0.48213044 0.5289474 0.1419288
-0.22279587 -0.0872229 -0.7539566 -0.10449759 0.27700028 0.020688742 0.16087563 0.067816146
-0.43553743 0.29980642 -0.43365118 0.9136181 0.43382913 -0.28023896 -0.50254756 0.56778693
0.047728762 -0.5811172 -0.16550055 0.5404052 0.037191607 -0.27848738 -0.064962074 0.7589263
-0.36531305 0.2833228 0.565838 -0.054520495 -0.32514548 0.68539196 0.72312707 0.6742622
0.20602709 -0.2768491 0.5896015 0.24993087 0.75919384 -0.10475419 0.07322745 0.06009596
0.05586127 0.47178718 -0.32022595 0.22241198 -0.4992159 0.17999521 0.19263647 -0.19032803
-0.25736508 0.5982473 0.37960294 0.096680716 -0.8097311 0.4740173 0.10735412 0.7082626
-0.06236355 -0.033122275 -0.15726337 0.2577688 0.110176824 0.3004904 0.29126403 -0.07254628
-0.069443375 -0.33138007 -0.16279082 -0.09174168 0.26594698 0.592665 0.34513718 0.19022366
-0.26009986 0.21554868 -0.20315744 0.5362499 0.33430007 -0.46610683 -0.41746607 0.44789818
0.0659447 -0.28624946 -0.0836037 0.41183096 0.6923863 -0.08220551 -0.20885777 0.4473171
-0.08569691 0.36237824 0.37847736 0.0791907 0.38137886 0.09306086 0.32049546 0.5934242
0.23146664 -0.5819441 0.19765487 0.044591364 0.39545766 -0.14013802 0.061558902 0.2473367
0.10045095 0.21049544 -0.54486555 0.32357982 -0.10972545 0.37690616 -0.33095104 -0.10652153
-0.6696301 0.06982253 0.046391826 0.03832426 -0.04524406 0.4058569 0.3842018 0.4371625
0.302585 0.22857787 -0.017585812 0.5538969 0.122356795 0.17378357 0.18651392 0.1122486
00000000: 608d f43e 3027 8cbd 83a0 ff3e 9019 613e
00000010: 2d00 48be 5737 c0bd aa2f fd3c 21d3 c2be
00000020: 0636 be3e 6b17 24bd 9ce0 f63e d51a 943e
00000030: 0735 8abd 0b20 9d3d 262a aa3e 0355 cc3e
00000040: 75a0 8f3e 6206 f73d 5bcb 893e 6d5d 183f
00000050: db34 a7bc 72f8 4bbe 5bc4 a03d f21b 203f
00000060: c335 693e 1121 563d a7fd a23e d3c3 36bd
00000070: 6ef7 433c bb23 093d f5df 2e3f a4b9 c83e
00000080: a1c1 a23e ccd2 ba3d 6cc3 d33e bfeb 7ebc
00000090: 1e92 70be 8e2b 863e 098b f3bd 016b 8fbd
000000a0: 1982 49be 0cd3 90be 7b78 693d 34f9 1c3e
000000b0: 3a83 003f f6f3 a4be 75b8 183e e320 83be
000000c0: d451 a2bc 5058 e5be 68af 623e 6df2 483f
000000d0: 4675 48bd 5b9c 4b3e cec3 05be 2474 cabe
000000e0: be1d 30bd 0aa0 bf3e daed 093f 2fa3 bd3e
000000f0: 78f7 4abd 42f8 aabd 6e6a 12bf 848a a13e
00000100: 3f33 cdbc ae34 86bd b442 3ebd 638c 00be
00000110: 16cb d43e 78f5 b13e ec03 f5bc 2a2c a93e
00000120: 76a6 35be e850 db3e 59c8 963e 0cea f53e
00000130: b764 bb3e 10f3 6bbd 31a7 9a3d bb85 903e
00000140: 41b3 b43d 2a2c 29be 60c2 293e 3dd6 563e
00000150: 465b d63e ae7f 53be c06a 21be 4506 8e3e
00000160: f43f 1f3e 9e1d 403d b3d8 903d 0e3b 043e
00000170: ec15 43bd ad70 0d3e cd49 403e 9cec d03e
00000180: 2cd5 363e ac95 94be 6d2c d33e b842 c2bd
00000190: d22d 4c3e d066 a03c 0bef 433d 2b2d a53e
000001a0: b37a 0f3d a905 8a3e 4e14 bcbd 9af7 78bd
000001b0: 3674 92be bcc6 ac3e 0ca2 20be a3a8 9d3d
000001c0: 75f0 2ebe f168 613e 823a ebbc 0b68 d6bb
000001d0: f1cf 8dbe bf70 38bd 4198 b73e cbb3 0f3f
000001e0: 6a57 2f3e 092a 963d 1be2 ab3e 2408 94bd
000001f0: 3c26 a73e cdd9 f63e 1969 073f c955 113e
00000200: 9a24 64be eba1 b2bd 4d03 41bf d502 d6bd
00000210: fbd2 8d3e 707b a93c 95bc 243e 31e3 8a3d
00000220: c3fe debe 3a80 993e 8707 debe e0e2 693f
00000230: da1e de3e 7b7b 8fbe f5a6 00bf 7c5a 113f
00000240: 3c7f 433d 19c4 14bf fa78 29be ff57 0a3f
00000250: 3a56 183d e695 8ebe d60a 85bd fe48 423f
00000260: 500a bbbe b00f 913e c2da 103f e250 5fbd
00000270: 7879 a6be d975 2f3f db1e 393f 739c 2c3f
00000280: c4f8 523e 2abf 8dbe 20f0 163f e1ed 7f3e
00000290: 875a 423f 5d89 d6bd 46f8 953d 2e27 763d
000002a0: c9ce 643d 178e f13e a8f4 a3be f7bf 633e
000002b0: 3a99 ffbe aa50 383e 7f42 453e 5ae5 42be
000002c0: 5bc5 83be bc26 193f 515b c23e 8a00 c63d
000002d0: 8a4a 4fbf 65b2 f23e 7adc db3d b350 353f
000002e0: ec70 7fbd 39ab 07bd a609 21be 46fa 833e
000002f0: 63a4 e13d e1d9 993e 8f20 953e 2593 94bd
00000300: 5438 8ebd a6aa a9be a3b2 26be 10e3 bbbd
00000310: 342a 883e e5b8 173f d2b5 b03e fec9 423e
00000320: cf2b 85be cbb8 5c3e 8108 50be ac47 093f
00000330: 6129 ab3e 8ea5 eebe 1dbe d5be e952 e53e
00000340: 040e 873d 4a8f 92be 6b38 abbd 82db d23e
00000350: 3b40 313f 5d5b a8bd d0de 55be bf06 e53e
00000360: dd81 afbd a489 b93e c9c7 c13e bc2e a23d
00000370: 1744 c33e b196 be3d fb17 a43e a6ea 173f
00000380: 9705 6d3e 4afa 14bf 0a66 4a3e 6fa5 363d
00000390: 6d79 ca3e 5780 0fbe 3025 7c3d d545 7d3e
000003a0: 3ab9 cd3d 1e8c 573e 4f7c 0bbf 41ac a53e
000003b0: bdb7 e0bd d8f9 c03e 6a72 a9be f627 dabd
000003c0: e16c 2bbf 1dff 8e3d 5b05 3e3d e6f9 1c3d
000003d0: d651 39bd 7acc cf3e 19b6 c43e c3d3 df3e
000003e0: 6cec 9a3e 5110 6a3e 1f10 90bc 30cc 0d3f
000003f0: 3396 fa3d 52f4 313e 81fd 3e3e 98e2 e53d

bias f4 [5]
-0.31497103 -0.18827623 -0.37551373 -0.41235998 -0.13829242
00000000: e243 a1be 7ccb 40be 5643 c0be d920 d3be
00000010: 879c 0dbe
