model/2025021848.pth (torch, 47902 bytes, 10 tensors)

weight f4 [64, 1]
000000 b7 50 33 3f cd 45 91 bf 33 e8 f6 3f e0 c4 98 3f
       0.70045036 -1.1349427 1.9289612 1.1935081
000010 a3 0f 8c be 95 dd 15 bf a1 57 2b c0 9c 5a 29 40
       -0.2735568 -0.5854123 -2.6772234 2.6461554
000020 d0 b0 56 c0 29 7d f9 bf c1 26 43 bf 30 c9 83 3f
       -3.3545418 -1.9491321 -0.7623101 1.0295773
000030 e1 1e 9d bf 5a eb 95 3f d5 c2 31 be ad 61 04 be
       -1.2275048 1.1712449 -0.17359479 -0.12927885
000040 c9 d4 78 bf 46 26 87 bf f9 69 63 bf bf 41 c5 bf
       -0.97199684 -1.0558555 -0.88833576 -1.5410689
000050 fc c6 55 3f c5 21 1f 3f 02 2f f8 3e 3c d1 01 bf
       0.8350675 0.62160903 0.48473364 -0.5070989
000060 76 20 02 3f 68 be d4 3f ed 32 b9 3f b9 be ee bf
       0.5083078 1.6620607 1.4468666 -1.8651954
000070 d1 63 c2 3f 27 a1 09 3f 53 82 0e 40 b2 a8 02 be
       1.5186712 0.53761524 2.2267044 -0.12759665
000080 22 61 33 3f 45 09 e4 3e da 0a 4d bf bf e4 39 be
       0.7007009 0.44538322 -0.80094683 -0.18153666
000090 04 cf dc be 8b c9 13 3f 9e 83 25 3f 22 fd 67 bf
       -0.4312669 0.57729405 0.64653957 -0.90620625
0000a0 5d 43 c0 be db 3e 97 3f 67 0e 91 bf c6 76 49 bf
       -0.37551394 1.1816057 -1.133252 -0.7869686
0000b0 b5 44 be bd 05 fd 1b 40 c5 4a d7 be bf 95 1e c0
       -0.092904486 2.437318 -0.42049232 -2.4778898
0000c0 6f 15 16 bf f0 bd ce 3d 1c 92 31 c0 a2 1f 2d bd
       -0.58626455 0.100948215 -2.7745428 -0.042266496
0000d0 36 b9 4c c0 14 3e 20 3f 39 c2 2f 3f 76 9f 02 40
       -3.1988044 0.62594724 0.68655735 2.0409827
0000e0 f3 c2 1b 3f 0c 82 da bf 5b 86 d0 3f 58 a4 c5 3e
       0.60844344 -1.7070937 1.6291002 0.38601947
0000f0 2f 1d c7 3e 9f a9 fb 3f 78 9e 16 bd 06 54 15 3b
       0.38889453 1.9661139 -0.03677222 0.0022785678

bias f4 [64]
000000 a6 ca 64 bd d0 c4 e3 bd 3c 9a 1a bd f1 01 40 bd
       -0.055857323 -0.111215234 -0.037744746 -0.04687685
000010 10 08 1a bd e7 35 0d be 36 11 14 3e 5c d7 0f bd
       -0.037605345 -0.13790093 0.1445969 -0.035117492
000020 65 f0 36 3e 38 74 f4 3d 99 c2 1b 3d 1e 63 5b bd
       0.1786514 0.119362295 0.03802738 -0.053561322
000030 c0 14 14 bc 28 20 bc bb c5 91 ba bd a4 ac 41 be
       -0.00903815 -0.005741138 -0.091098346 -0.18913513
000040 64 b0 d3 bc fa 00 3e be 0d d0 50 bd 29 f4 3a be
       -0.025840946 -0.1855506 -0.050979663 -0.18257202
000050 b5 ae 43 bd 87 6f 11 3d d3 04 3a 3c 88 9c c7 bb
       -0.047774035 0.03550675 0.011353689 -0.006091658
000060 18 f8 60 bd 79 d2 dc bc 7b e1 b0 3c 45 6e 90 3b
       -0.0549241 -0.02695583 0.021591892 0.0044076764
000070 11 84 93 3d b8 eb b9 3c f3 ba ae 3d 9e 88 24 be
       0.07202924 0.022695407 0.085317515 -0.1606774
000080 05 d0 55 3c bc e2 dd 3d c7 a0 86 3a 3d 51 91 be
       0.013050084 0.10834262 0.0010271304 -0.28382292
000090 62 a2 52 be d3 40 b4 bc ef 45 9b bc 56 39 9a bd
       -0.20569757 -0.022003567 -0.018954245 -0.07530467
0000a0 6c e9 1d be e8 12 cb bc a3 31 1c be 52 de f5 bd
       -0.15421075 -0.024789289 -0.1525331 -0.12005295
0000b0 ca 1d 89 3e b1 11 6a 3d 16 6f b3 be 62 3d 0b ba
       0.2678054 0.057145778 -0.3504569 -0.0005311576
0000c0 34 b4 bc be da a5 48 3c 37 28 f4 3d e7 a3 85 3e
       -0.36856234 0.012246573 0.11921733 0.2610161
0000d0 db f4 41 3d 6e 5d cb bd 92 27 41 bd 14 1e 1c 3d
       0.047352653 -0.0992993 -0.047156878 0.038114622
0000e0 3c 86 82 be f3 e6 94 3d 65 11 1b 3c f1 69 c3 bc
       -0.25493038 0.072706126 0.009464596 -0.023854228
0000f0 6c e1 d2 3a 6b a2 a7 3c c8 3d 4b be 76 f1 48 be
       0.001608891 0.02046319 -0.19847786 -0.1962336

weight f4 [64, 64]
000000 31 ef d9 ba 5e 6b cc 3c 46 4d 3b 3d 61 6c 07 3e
       -0.0016627071 0.02495354 0.04572799 0.13224937
000010 c9 8e 3b be 7a ae 5a be 9a e0 4e 3c f9 a7 48 3d
       -0.18316187 -0.2135562 0.012626791 0.048988316
000020 e1 f9 48 3e 93 bf bf bd 30 4e a3 bd fd 1e da bd
       0.19626571 -0.09362712 -0.079738975 -0.10650442
000030 b2 c3 6b 3e 49 58 45 3e 89 b4 07 3e 91 b6 e1 3c
       0.2302387 0.1927196 0.13252462 0.027552875
000040 da 89 cf bd 56 77 90 bc 15 39 8f bd a6 84 33 bc
       -0.10133715 -0.017635029 -0.069933094 -0.010956919
000050 38 8f 28 be 3d d4 8b bd 8e ad 0f be 97 40 89 3d
       -0.16460884 -0.068275906 -0.1403105 0.06701773
000060 8f 5c 21 bd 6f 86 1b be fa cd 02 bb 19 8a cd 3d
       -0.03939491 -0.15188001 -0.0019959197 0.10036106
000070 be f3 ad bd a4 f9 73 bd 0c b8 d8 3d 18 7d 5f 3d
       -0.08493756 -0.059564248 0.10581979 0.054562658
000080 dc 04 69 bd 72 df ae 3d fa 3a ee bd 13 a8 ae bb
       -0.0568894 0.085387126 -0.11632343 -0.0053300946
000090 3f cd 28 be 31 1c 5e 3d f7 06 0f 3e 0a e9 06 3e
       -0.16484545 0.054226104 0.139675 0.13174835
0000a0 72 11 e6 3d ac 5d 82 bd 12 11 3e bd 0d a8 51 be
       0.11233796 -0.06365523 -0.046403 -0.20474263
0000b0 38 1a d8 be f4 4e 6a be e9 f5 21 be 1d 0a 4e 3e
       -0.42207503 -0.2288168 -0.15816464 0.20121045
0000c0 39 d7 a8 bd f0 52 32 bc e1 2c e0 3d 5b d3 a5 bc
       -0.082441755 -0.010884032 0.1094606 -0.020242384
0000d0 fc ea 00 3c 27 c0 00 3e 22 11 9e 3e 3b ac 82 3e
       0.007868525 0.125733 0.30872446 0.25522026
0000e0 02 6b 98 3d 48 02 31 3e df 9a 76 be 28 41 07 3e
       0.07442285 0.17286026 -0.24082516 0.13208449
0000f0 cb 1b 06 bc 72 66 a8 3d c7 6f 81 3d cf 13 75 3e
       -0.008185337 0.08222665 0.06320148 0.23933338
000100 31 a1 53 3e 09 cc 86 3e b3 58 cf 3d d6 0e 08 be
       0.20666958 0.2632754 0.1012434 -0.1328691
000110 c2 a0 46 3e d4 04 11 3e 70 75 63 3e d2 43 f7 be
       0.19397262 0.14161998 0.22212768 -0.4829393
000120 88 9d 50 be 11 29 e5 bd 83 b4 b0 be c2 51 34 3b
       -0.20372593 -0.111894734 -0.3451272 0.0027514552
000130 79 6e d0 3e b4 3d 79 3e c8 d4 90 3d d2 cf 9e 3e
       0.40709284 0.24339944 0.07071835 0.3101793
000140 2b 7b 43 be 23 1d 01 be 5c cf e0 bd e2 c9 2d 3e
       -0.19089954 -0.12608771 -0.10977051 0.16971543
000150 71 ad 9c 3e f0 f3 2f be 21 2c 23 3e cf 40 3e 3e
       0.30601075 -0.17182899 0.15934803 0.1857941
000160 96 58 c1 bd dc 61 2e 3e 41 21 52 be ca 0b c3 3d
       -0.094407246 0.17029518 -0.20520498 0.09523733
000170 b1 fe b0 bc 01 b5 b4 bd 94 93 5a bc d1 fd cd 3d
       -0.021605821 -0.08823586 -0.013340849 0.10058177
000180 91 73 20 bc 86 5c a7 3d 79 da b1 3d f5 31 22 3e
       -0.009793178 0.08171944 0.086842485 0.1583937
000190 b2 4d c2 3b c7 ea b4 3e 75 1e e8 bb 67 9d de 3e
       0.005929672 0.3533537 -0.007083709 0.43479463
0001a0 cc 1c 99 3d ca d4 4f 3d 5a 6b c6 3d 01 69 20 3e
       0.07476196 0.05074004 0.096884444 0.15665056
0001b0 57 1c a1 3d a4 cb 45 3d 5b 00 51 3e 92 85 dc bd
       0.078667335 0.04828991 0.20410292 -0.10767664
0001c0 80 3a b2 bd ee 62 70 bb c1 96 22 bd 78 69 a7 bd
       -0.08702564 -0.003668006 -0.03969455 -0.081744134
0001d0 4b 09 7b bd c2 cc 90 3c fa ed 0b 3e d2 3e ce bb
       -0.06128816 0.017675761 0.13665 -0.00629411
0001e0 56 f9 52 3e c4 53 56 3e ca e6 12 3c 24 85 8f 3e
       0.20602927 0.20930392 0.008966157 0.28031266
0001f0 84 98 b4 3d 0f 8a 0f be ae 2c 19 3d f5 d7 73 3e
       0.088181525 -0.14017509 0.037396125 0.2381285
000200 0e 75 f9 3d 28 99 a9 bd 92 39 1f be 61 bc ac 3d
       0.121805295 -0.08281165 -0.15549305 0.08434368
000210 96 fa 17 bb e6 d7 08 bd 36 5b f2 bd a0 ce 44 3c
       -0.0023190132 -0.03340902 -0.11833803 0.012012154
000220 5b b9 10 3e a0 ee 4c 3d 9c b2 7d bd 1f 2c a6 3d
       0.14133207 0.050032258 -0.061937913 0.08113884
000230 15 92 9d 3d 25 22 88 bb 24 82 49 3c cf e2 69 3e
       0.076938786 -0.004154461 0.012299094 0.22840427
000240 5a 1b b5 3c ca 69 95 bc 30 61 97 3d cb fe 56 3e
       0.022107769 -0.01823892 0.07391584 0.20995633
000250 18 b2 b1 be 91 b1 22 be c7 9b 68 bd 8d 66 37 3d
       -0.34706187 -0.15888049 -0.056789186 0.044775534
000260 82 bd 38 be e0 ee d0 3d d6 fc 00 be 85 e2 f9 bd
       -0.18041041 0.10201812 -0.1259645 -0.12201408
000270 41 f1 bb 3d 9b a7 7a 3e ab 88 14 bd f4 4b 92 3e
       0.09176875 0.24477999 -0.03626315 0.28573573
000280 87 e5 22 3e 37 69 f0 3d 1c f8 cd 3d 34 1e a3 bb
       0.1590787 0.11738818 0.10057089 -0.0049779657
000290 2d 6f 28 3e 65 6a 7c bd 99 88 cc bd 18 18 fc bd
       0.1644866 -0.061624903 -0.099869914 -0.12309283
0002a0 6a de 3c be 90 a6 6f bd 8f 2f 9c 3b 23 44 22 3d
       -0.18444219 -0.058508456 0.0047664116 0.03961576
0002b0 fd c8 59 be f2 31 04 bd c2 3d 99 3d 82 98 e3 be
       -0.21268077 -0.032274194 0.074824825 -0.44452292
0002c0 4c 02 df bc d4 82 2e be 11 a6 36 3c 2d 7a 9c 3c
       -0.027222775 -0.17042094 0.011147992 0.019101227
0002d0 c8 a7 53 3d 6c a9 d4 bd af 91 08 bb f4 96 f5 bc
       0.05167368 -0.10383877 -0.0020838787 -0.029979207
0002e0 c6 23 8b bd 15 f5 74 bd a7 99 e3 3d 73 24 96 3c
       -0.067939326 -0.05980404 0.11113291 0.018327927
0002f0 8e 30 5c be 2c c9 66 bc 3d 17 54 3d 7a b7 50 3e
       -0.21502897 -0.014086049 0.051779974 0.20382491
000300 7d ee 82 be ae 43 28 bd 7e 03 19 be d6 28 42 3e
       -0.25572577 -0.04108017 -0.14942738 0.1896089
000310 ac 7e cd 3e b7 6d 24 3b 3c d0 1d be 4d 7f 30 be
       0.40135705 0.002508981 -0.15411466 -0.17236061
000320 8a bf 9a be 3d a8 b5 3d 0a 9a f8 3d 36 c2 4b 3e
       -0.30224258 0.088699795 0.121387556 0.19898304
000330 e4 41 eb 3c 72 de b9 be f6 ec b6 3e d5 1a 96 3c
       0.028717943 -0.36302525 0.35727662 0.018323341
000340 9a 0a 63 bd ab 08 6f bd 19 c1 92 3c 74 a0 39 be
       -0.055430032 -0.058357876 0.017914342 -0.18127614
000350 88 b1 e2 bd e9 62 19 be 90 d0 16 be 9c 4b 55 bb
       -0.11069018 -0.14979137 -0.14727998 -0.0032546287
000360 7a 67 f7 bd 59 f3 e9 be 84 d8 ce be e0 db 2f be
       -0.120802835 -0.45693472 -0.40399563 -0.1717372
000370 e0 77 9c be c0 b4 b6 be f3 bd fc 3d 9e ad 59 3e
       -0.30560207 -0.35684776 0.123409174 0.21257636
000380 e4 31 f9 bd cc 8c 5c 3b 42 84 ce bd 7e 3d 07 3f
       -0.12167719 0.0033653257 -0.1008382 0.52828205
000390 c9 fb db 3c 29 83 46 be 1e cb b0 3d 54 d6 91 bd
       0.026853459 -0.19385971 0.086324915 -0.07120958
0003a0 5d 49 24 bd 3c 78 be bc d6 6e 79 3d e1 56 d3 3d
       -0.040109027 -0.023250692 0.060896717 0.10319305
0003b0 f1 2b cb bd 40 71 9c 3e 60 f1 23 3d 2f 87 c6 be
       -0.099204905 0.30555153 0.040025115 -0.38775012
0003c0 7c 73 b6 bd 56 5b 9d 3c 6d 1f 8c 3d 40 d0 3c be
       -0.08908746 0.019208591 0.068419315 -0.18438816
0003d0 a7 16 27 3c 7b 39 08 bc 99 c8 b8 be 25 2a 0f be
       0.010198272 -0.008314486 -0.36090544 -0.1398092
0003e0 ba 16 00 3e 89 f8 09 be 40 db a0 3d ff 81 bf bd
       0.1250867 -0.13473715 0.078543186 -0.09350967
0003f0 26 41 ab be 96 9a 34 3d 45 29 c4 3e 55 3e 35 3e
       -0.33448142 0.044092737 0.38312736 0.17699559

bias f4 [64]
000000 02 82 80 3c 69 75 4d be a2 83 cb 3c f2 83 b1 be
       0.015686993 -0.2006432 0.02484304 -0.3467098
000010 a5 6b b3 3d 79 a2 fd be bc 48 3e bd 63 fc b0 be
       0.08760766 -0.4953802 -0.046456084 -0.34567556
000020 61 5c 99 be 74 7b 0c 3d bc cc 4d 3d 26 21 d9 bd
       -0.29953292 0.03429742 0.050244078 -0.10602026
000030 fe 3d 79 3e fe 6c b6 be 75 43 0d bc 6a cb ff 3d
       0.24340054 -0.3563003 -0.00862204 0.1248997
000040 cb 07 4c be 28 65 b1 3d 9d 4a 38 3e bb 26 38 bd
       -0.19924848 0.08661872 0.17997213 -0.04495881
000050 85 3e 81 3e f5 34 62 3c b3 22 1b bd ff 8f b1 3d
       0.2524301 0.013806571 -0.03787489 0.08670043
000060 cd a2 d4 bd cd 55 58 bc 48 e7 81 be 4d 36 34 bd
       -0.10382614 -0.01320405 -0.25371766 -0.043997098
000070 a7 c4 1a 3e 7e a6 f3 bd a9 4c 03 3e 9f 7b 0c 3e
       0.1511408 -0.1189699 0.12822212 0.13719033
000080 aa 71 31 3d 3e 14 89 bd 3b b3 6c bc 63 2b ca 3d
       0.04332129 -0.06693314 -0.014447029 0.098715566
000090 f3 f5 15 be cd e7 89 be 76 20 20 3e 78 d0 93 3e
       -0.14644603 -0.26934662 0.15637383 0.28869987
0000a0 d5 8a 1b 3e 0b 56 8e 3e 5f 33 0d bd 71 cc 98 be
       0.15189679 0.2780002 -0.03447282 -0.29843476
0000b0 d5 d2 87 bd c9 e5 b7 be b4 71 f0 bc 80 a3 0e 3e
       -0.0663201 -0.359175 -0.029351093 0.13929558
0000c0 79 fd a7 be da ff b9 3c 97 96 d3 3d f5 f5 83 bd
       -0.32810572 0.022705007 0.10331457 -0.06443397
0000d0 41 c0 8a bc 92 7a d8 bd 16 9a c6 bc 05 fe 42 3d
       -0.016937377 -0.105702534 -0.024243396 0.047605533
0000e0 0d f1 8b 3b 77 98 b2 be a8 69 9e 3c c0 6c 32 3b
       0.004270679 -0.34881946 0.01933749 0.0027225465
0000f0 9e 66 86 3d 1f ad 83 be cd 21 fc 3c 15 16 3c be
       0.065625414 -0.25718018 0.030777836 -0.18367799

weight f4 [5, 64]
000000 e0 1a 9f bd 48 36 44 3e 2c 1e 89 be 47 41 9a 3d
       -0.07768798 0.19161332 -0.26780832 0.07531982
000010 a5 d6 f8 bd 25 f6 4b 3d c2 27 ea 3d 4a b8 8e 3e
       -0.12150315 0.04979529 0.114333645 0.27874976
000020 9c 41 01 3e a9 f6 2c 3d b5 da c3 bc 61 14 ce 3d
       0.12622684 0.04222742 -0.023907999 0.10062481
000030 3c 8f 98 3d 96 c7 a6 3e 66 b0 73 3e 0e 95 02 bf
       0.07449195 0.32574147 0.2379776 -0.5100869
000040 70 a0 1b 3e de e6 40 3c 95 b2 b5 3d 76 18 81 3c
       0.15197921 0.011773793 0.088719524 0.015758734
000050 df ab 87 be 74 01 b2 3d cb dd 06 be 52 97 a0 3c
       -0.26498315 0.086916834 -0.13170545 0.019603405
000060 55 92 3e bd 90 92 91 bd 3c 5c 40 3e f1 6b 80 3d
       -0.04652627 -0.07108033 0.18785185 0.06270588
000070 11 dd ca be 57 53 d7 3d 02 9f ac bd fd f4 9e 3e
       -0.39621785 0.10513943 -0.08428766 0.31046286
000080 1c 9b 05 be 72 af 6a 3e 61 f7 b1 bc bd 1a 3d be
       -0.13047451 0.2291849 -0.021724405 -0.18467231
000090 c0 85 87 be 86 7e b5 3e fc 36 98 3e 4a c7 84 3e
       -0.2646923 0.35448092 0.2972945 0.25933295
0000a0 fd 78 e7 bd 81 cb 9d 3e 94 b5 9c 3e 89 c9 3e 3e
       -0.113023736 0.30819324 0.30607283 0.18631567
0000b0 45 9e e5 bc be 4c 63 bc 26 a0 5e 3e 4d 9a 02 3e
       -0.02802957 -0.013873277 0.2174078 0.12754174
0000c0 82 29 0f bd 2e 87 80 3e f2 74 5b be d4 99 02 bd
       -0.034951694 0.25103134 -0.2143133 -0.031884983
0000d0 f1 ca 47 bd 04 7d 8d 3d 84 02 0a 3e 5d 09 0a 3d
       -0.048777524 0.069086105 0.13477522 0.033700336
0000e0 0f 38 1a 3e 1b e1 9b 3e 51 c3 14 3e 97 17 84 3d
       0.15060447 0.3044518 0.14527632 0.06449812
0000f0 64 f8 7b 3e c7 f2 00 3d b8 62 b1 bd bf 4e 8c 3d
       0.24606472 0.03148153 -0.08661407 0.06850957
000100 49 35 9d be a9 ae 63 3d d9 5a c5 3e 1e e2 9a 3d
       -0.30704716 0.05558649 0.38545874 0.0756266
000110 c3 18 f0 bd 69 75 2c be 47 e1 66 be 9e 20 af be
       -0.11723473 -0.16841663 -0.22546874 -0.34204572
000120 c4 a6 4e be 0f 6a 94 3b 1b 9b 55 3e 07 9c 06 3e
       -0.20180804 0.0045292447 0.2085995 0.13145457
000130 97 8f 23 bc 8f 62 94 bd 75 70 b1 ba 68 50 e8 3d
       -0.009982965 -0.07245361 -0.0013537543 0.11343461
000140 6b cd e7 bd 36 7c 5f bd 90 cc a9 3e 7f c2 c4 3d
       -0.11318477 -0.054561816 0.3316388 0.0960741
000150 c0 72 e2 bc 21 3c 50 3c 69 b6 88 3e a4 3f 96 3e
       -0.027642608 0.012709648 0.26701668 0.2934543
000160 ff a6 d6 be 17 bc 7c 3d 70 00 15 3e 28 18 a5 3d
       -0.41924283 0.061702814 0.14550948 0.08061248
000170 f8 1a 9f 3e 19 ae 35 3e cc b1 9c 3c 86 2f c7 3e
       0.31075263 0.17742194 0.019127749 0.38903445
000180 7e 13 7a 3c b7 c6 f7 bb 94 24 e5 3d f7 64 42 3e
       0.015263436 -0.0075615305 0.11188617 0.18983828
000190 01 77 aa bd e7 f2 83 bd 88 81 93 3e fe 3b 94 be
       -0.083234794 -0.06442814 0.28809762 -0.2895202
0001a0 c5 5e 9f 3e 38 e2 14 be 44 95 9d bc 7c d3 9b be
       0.3112699 -0.1453942 -0.019236214 -0.30434787
0001b0 27 1e 47 3e 3f a4 75 3e 7b 03 82 3e b1 94 88 be
       0.19445096 0.23988436 0.2539328 -0.26675943
0001c0 33 3e 74 3e 01 6e 97 3d 0b 8f 86 3e 17 53 7f 3e
       0.23851852 0.073940285 0.26281008 0.2493404
0001d0 93 a9 1e 3e 83 e2 e1 3d 91 ab 02 3e 20 f4 5c 3c
       0.15494375 0.11029532 0.1276076 0.013485938
0001e0 5f 2a b6 3d e6 af 59 3e e7 f3 ef bd 45 90 ea 3b
       0.088948004 0.21258506 -0.117164426 0.0071583115
0001f0 ea 04 24 be b0 e2 4b be 75 23 80 3e 6b 48 a5 3d
       -0.160175 -0.19910693 0.25027052 0.08070453
000200 ad 59 cc bc 29 d9 ec bd 88 b7 23 3e 7c 2f 56 be
       -0.024945104 -0.115648575 0.1598798 -0.20916551
000210 37 29 4d be 0c e6 bf be a3 59 a9 bd 29 27 2c bc
       -0.20035253 -0.374802 -0.0826905 -0.010507383
000220 0f 29 10 bf 2e 2d c2 be 1c 0d 57 be 75 c8 bd be
       -0.5631265 -0.37925094 -0.21001095 -0.37067
000230 cb 23 e1 be 38 21 f4 bc 37 8b 68 bc 10 08 73 be
       -0.4397262 -0.029800996 -0.014193348 -0.23733544
000240 de 19 09 3d 29 17 b4 bd c1 84 75 3d 8d e3 71 be
       0.033471934 -0.0879348 0.059941057 -0.2362196
000250 90 cb 7e 3e b1 f0 c1 be 59 ec d1 3d 08 14 80 be
       0.2488234 -0.37878945 0.10250158 -0.25015283
000260 40 5e d1 bd a6 75 58 be d1 31 0e be b2 34 41 3e
       -0.10223055 -0.2113863 -0.13886191 0.18867758
000270 29 8c a3 be 64 85 01 be 98 94 fe bd 80 4d de be
       -0.3194287 -0.1264854 -0.12430686 -0.43418503
000280 25 7b 3b be 21 2d 0d 3e c3 80 69 3d c8 19 9f be
       -0.18308695 0.13786747 0.057007562 -0.31074357
000290 06 a2 cc be 54 0b 1c 3c 9d 3c 3c 3e 0f 63 2f 3f
       -0.39967364 0.009524185 0.18382497 0.68510526
0002a0 de a7 20 3c d6 c8 20 3e cd cc 1c be 79 b4 a4 3e
       0.009805648 0.15701613 -0.153125 0.3216894
0002b0 76 c2 8d be 3c 29 ac bd cb 75 26 be 77 41 e2 be
       -0.27687424 -0.08406302 -0.16255872 -0.4419057
0002c0 20 bc a7 3d aa 8f 6b 3d 0a ff 03 bf 0a 54 d9 3d
       0.08190179 0.057510056 -0.51561034 0.10611732
0002d0 fc 0a 1e 3e c7 fc 48 bd 6d d7 39 3e 03 3b 64 3e
       0.15433878 -0.049069192 0.18148585 0.22288136
0002e0 36 88 a1 bd 8a e8 b8 be b1 77 97 bd 01 49 96 be
       -0.07887308 -0.36114913 -0.07395876 -0.29352573
0002f0 4d 21 31 be 9d 42 43 3e 4b 38 3c 3e b4 cf 79 be
       -0.1729786 0.1906838 0.18380849 -0.24395639
000300 f7 12 91 be aa 15 19 be b1 3c 45 3d d4 6b 83 be
       -0.28334782 -0.1494967 0.048153583 -0.25668204
000310 e3 03 06 3e 1a 6e 7d be b2 70 1c be 76 8f e3 be
       0.1308742 -0.24749032 -0.15277365 -0.4444539
000320 64 f5 3d bd e7 c3 d0 be 0e 2c 50 3e 9f bc 16 3e
       -0.0463766 -0.40774462 0.20329306 0.1472039
000330 04 94 0e bd 3e 4b 41 be 5f 2f da 3d 33 21 5d 3e
       -0.034809127 -0.18876359 0.106535666 0.21594696
000340 a0 1b ec bd fb b9 10 3e 61 e0 ba bb e8 08 8c be
       -0.115287066 0.14133446 -0.0057030176 -0.27350545
000350 51 6b 4a 3f f4 da 1f be 07 37 c2 be 7b 30 8b 3e
       0.7907 -0.15610868 -0.37932608 0.27185425
000360 ab 94 b9 bd a0 e3 f6 be a7 ce b7 bd 45 33 aa be
       -0.09061559 -0.4822054 -0.08974963 -0.3324224
000370 d2 1e 9d be df ff 27 3d 87 77 b5 bd 03 b5 ba bd
       -0.30687577 0.041015502 -0.08860689 -0.091165565
000380 1e 72 5e bd 22 29 7f be da 3b c4 3d ed 8e 17 be
       -0.05430805 -0.24918035 0.09581728 -0.14800616
000390 2b 8a f8 3c 24 47 10 3c b5 16 a2 3d b1 d0 71 3d
       0.030339321 0.008806024 0.07914487 0.059036914
0003a0 46 d0 8e be 4b 79 28 3e 03 ff 88 be 2e b0 5a be
       -0.27893275 0.1645252 -0.26757059 -0.2135627
0003b0 6b 00 1e be 81 ac ea bc 52 7a a3 bd 9d d8 d2 3e
       -0.15429847 -0.02864671 -0.07982315 0.41180888
0003c0 58 74 af be 24 5c 1b 3e 70 6d 28 bf 76 e6 34 be
       -0.3426845 0.15171868 -0.6579199 -0.17666039
0003d0 10 89 d8 3e ff e9 c5 be 7f cf 8c be 3c fc 66 be
       0.4229207 -0.38655087 -0.27502057 -0.22557157
0003e0 6d ba 1a bc 2d 96 da bd 8f 28 ca be 9c af 90 be
       -0.009443861 -0.10673175 -0.3948407 -0.2825898
0003f0 80 7a bf bd 90 a6 be be 82 ec 04 3e 8b 01 78 3d
       -0.09349537 -0.37236452 0.12980846 0.060548346

bias f4 [5]
000000 62 5b 30 be 55 b7 90 3c 93 b1 79 bd 81 49 18 3e
       -0.1722236 0.017665545 -0.060960364 0.1487179
000010 26 c4 3b 3e
       0.18336543

weight f4 [5, 64]
000000 14 b5 77 3d 45 c7 dc 3c 48 af 63 3e 0a cc 13 3e
       0.060475424 0.026950488 0.22234833 0.14433303
000010 69 f7 16 3e 0b a6 1a 3b 16 b8 71 be 98 6a 3b 3e
       0.14742817 0.0023597504 -0.2360538 0.18302381
000020 b6 a6 e4 3d a4 40 ab bd b4 99 06 3d f3 eb bf bd
       0.1116461 -0.083619386 0.032861426 -0.093711756
000030 46 cf 8b bd 59 5a 8b bd 5c 0e 10 be 86 c6 5f 3e
       -0.06826644 -0.06804342 -0.14067978 0.21853074
000040 36 13 a5 3e ab 83 32 bd 64 01 87 3c 7a 72 dc 3c
       0.3224122 -0.0435826 0.016480155 0.026910055
000050 3f 7a 83 3c 09 4f 3f be f4 cb 57 3d 39 44 ee 3d
       0.016049502 -0.18682493 0.05268474 0.11634106
000060 55 82 45 3d 16 37 ae bc bd c9 0b bd e0 c9 a7 3e
       0.048219997 -0.021266501 -0.03412794 0.32771206
000070 16 c0 f9 bd fd 6a 5f 3e bd 2f af bc ed 88 02 3e
       -0.121948406 0.21818157 -0.021385068 0.12747546
000080 d5 0b 32 3d 1b 7a b4 bc 57 65 d1 bd 4b d5 23 3d
       0.043468315 -0.02203088 -0.10224407 0.039998334
000090 57 df 2f 3e c1 f0 c5 bb 7a 37 90 3c dc 78 05 3d
       0.17175041 -0.006040663 0.017604578 0.032585964
0000a0 64 a5 4d bd f5 39 b4 bc b9 f8 33 3e ce 7e f4 bc
       -0.050206557 -0.022000292 0.17575349 -0.029845621
0000b0 47 8c b2 be 66 14 fe 3d bd 0f 48 3e 44 1b 3c be
       -0.34872648 0.124062344 0.19537254 -0.18369776
0000c0 82 ff af 3e e4 15 49 3c b6 50 d8 bc 1e af 61 3e
       0.34374624 0.012273286 -0.026405673 0.22039458
0000d0 71 87 03 be e1 29 4a 3e 99 af ee bd a2 bd 0f 3e
       -0.12844636 0.19742538 -0.11654586 0.14037183
0000e0 77 8b 6d 3e ff 66 97 bd 20 c3 8e bd b0 6e d9 3e
       0.23197733 -0.07392692 -0.06970811 0.4246726
0000f0 53 25 d7 be 8e 7d ee bd 2f b2 ef bd ef 77 76 be
       -0.42020664 -0.116450414 -0.11703908 -0.24069189
000100 20 59 4f 3d de f4 f6 bc c1 7f 5b be b6 4e 3a be
       0.050622106 -0.030146059 -0.21435453 -0.18194088
000110 c2 60 be 3c dc f2 1f 3e ab 15 7e bd 4b 2e 41 3e
       0.023239497 0.15619987 -0.062032383 0.18865316
000120 28 b4 41 3d e5 33 5e be 43 54 d3 3d 17 b1 14 3c
       0.04729095 -0.21699484 0.10318806 0.009075425
000130 d7 a8 e6 bd 52 2b 46 bc a0 ab 82 3c 8e 4c 65 3c
       -0.112626724 -0.012095289 0.015950978 0.013995303
000140 09 cd 18 3e 43 10 9a 3d ec 43 93 3e c2 88 b1 3d
       0.14921965 0.07522633 0.28762758 0.086686626
000150 e5 aa 67 bd 2b b9 be 3c bd d3 e1 bc 5d 29 aa 3d
       -0.056559462 0.023281654 -0.027566785 0.08308671
000160 01 2e ab 3d ee 41 4d be ef ad e0 3d 4a b2 88 3d
       0.08358384 -0.20044681 0.10970675 0.06674631
000170 5a 67 2a be 06 85 75 be ec e4 67 be 73 f4 cd 3d
       -0.16640988 -0.23976526 -0.2264592 0.100563906
000180 a1 06 3f bd 4f 18 18 3e 0d c6 79 3c f8 88 ee bc
       -0.04663718 0.14853023 0.015244973 -0.029118046
000190 a7 80 51 3d 34 8a ac bc 56 ec c8 3c 3d 2c 3d bd
       0.051148083 -0.021061994 0.024526756 -0.046184767
0001a0 06 c2 46 3e 03 4a c0 bd 21 1c 74 3d 13 db 64 bb
       0.19409952 -0.093891166 0.05959714 -0.0034920617
0001b0 21 a6 a8 3d a7 6b b6 3d f1 f7 56 3d e3 60 15 bd
       0.082348116 0.08907252 0.05248255 -0.03646935
0001c0 f0 b3 f2 bd a1 5d 0d 3e 73 03 25 3e e8 eb b6 3d
       -0.118507266 0.13805248 0.16114597 0.08931714
0001d0 31 4a 6c 3e 06 7e 8f bd 07 28 2f 3e 6a b3 66 be
       0.23075177 -0.07006459 0.17105113 -0.22529379
0001e0 8c 91 78 be 58 f1 25 3e 2d e9 87 3d 78 e4 fd bd
       -0.24274272 0.16205347 0.066362716 -0.123970926
0001f0 f7 a4 55 bd 3e 63 cd 3e 79 ee 31 be ec 77 9f bc
       -0.052159276 0.40114778 -0.17376126 -0.019466363
000200 60 14 08 3e 24 af cb 3d 1d cf 9f be 4d 59 b0 3e
       0.13289022 0.09945515 -0.31212702 0.3444313
000210 8a 63 1a be 26 ff a5 3e ac 1a dc 3d 2b 78 a2 3d
       -0.15077034 0.32421225 0.10747275 0.079330765
000220 28 1c ad bd 95 8c f1 3e a0 1f 48 3e d9 27 bf 3e
       -0.08452636 0.47177568 0.19543314 0.3733509
000230 de 35 bf bd 06 9c 84 3d 88 bd 16 be 18 00 6e 3e
       -0.09336446 0.064750716 -0.14720738 0.23242223
000240 3c 3f 95 3e 17 31 ac bd 18 e8 19 be 01 27 8b bd
       0.29149806 -0.08407801 -0.15029943 -0.06794549
000250 1b 83 9a bd 97 00 5e bd a9 c9 e2 bd 09 4c 52 bd
       -0.07544538 -0.05419978 -0.1107362 -0.051342044
000260 3d 55 02 be 9a ec 01 bc ee 4f 65 bd 4c c3 ab 3e
       -0.12727828 -0.007929945 -0.05598443 0.33547437
000270 d2 bd 22 be 6b 81 dc 3d 9b 62 81 3c fc e5 be 3e
       -0.15892723 0.10766872 0.015794089 0.3728484
000280 de 49 d3 3d 27 5b 05 3e 27 f2 54 3e c0 5a de 3e
       0.103168234 0.13023053 0.20795499 0.43428612
000290 e6 df a9 bc 9f df 07 bd d3 73 3a 3d 62 94 50 3c
       -0.020736646 -0.033172246 0.045520615 0.01273069
0002a0 97 30 53 3d b1 68 03 be 4f 01 ab be f7 69 1c 3e
       0.05156001 -0.12832905 -0.33399436 0.15274797
0002b0 9d 60 0c 3f 6c 61 e6 3d 46 8b 8e bd b9 d0 f7 bd
       0.5483492 0.112490505 -0.06960158 -0.121003576
0002c0 fe 8f 92 3e 63 5b 44 3d 4c 2f 54 3f 47 b5 bc bd
       0.28625482 0.047938716 0.8288467 -0.092142634
0002d0 58 45 65 be 86 60 38 3e 14 d4 84 bd 27 4b 2a 3e
       -0.22389734 0.18005571 -0.06485763 0.16630231
0002e0 b1 3e 03 3f e1 e6 4e 3e 5c a8 aa 3d 6b 29 5b be
       0.51267534 0.20205261 0.08332893 -0.21402518
0002f0 66 08 0b bf 27 1e 15 3e e3 73 20 3e 23 00 c9 3e
       -0.5430969 0.14562283 0.15669207 0.39257917
000300 e8 73 b6 3e 1d e8 79 bd e7 77 55 3d 32 93 3d be
       0.35635304 -0.061012376 0.0521163 -0.18513182
000310 20 ef b4 bc ff 87 88 be 12 2d 62 3b 4a 02 14 3c
       -0.02208668 -0.26666257 0.0034511727 0.009033749
000320 f5 22 a4 3e f9 87 99 3e 88 42 5d 3d f2 d9 37 3d
       0.3205792 0.2998655 0.054018527 0.044885583
000330 a4 79 2b 3d 1f 53 b5 3d 77 f8 9c 3d d9 91 ba 3c
       0.041864052 0.08853745 0.076645784 0.022774624
000340 61 d9 11 bd 68 97 21 bd 7d 0a 05 3e bd 99 49 be
       -0.0356077 -0.039451033 0.12992282 -0.19687553
000350 0c 09 80 be be 83 1e bd ab da 54 3e 64 3b c8 3c
       -0.25006902 -0.038699858 0.2078654 0.024442382
000360 11 8d b9 be 7a 7b 8c be 06 72 ea bd 48 32 aa 3b
       -0.36240438 -0.27437955 -0.114475295 0.0051939823
000370 f5 f3 57 3e 18 3b f4 3d 82 77 37 3c ca 53 7f 3e
       0.21089156 0.11925334 0.0111979265 0.24934307
000380 1b 4a 09 3d 8a 2b 4b be 7f ac c7 3d 8d 63 22 3e
       0.033517938 -0.19840828 0.09749698 0.15858288
000390 47 54 5e be 8e 05 32 be 58 b5 0f be c2 77 c2 3d
       -0.21711837 -0.17384931 -0.14034021 0.09495498
0003a0 91 53 32 3e bd 0e 9e be 0b da 0e be b3 4d 6d be
       0.1741469 -0.3087062 -0.13950364 -0.23174171
0003b0 e0 9e 3e 3d fd ef 8c bd 40 dd be 3d 96 f2 85 bd
       0.046538234 -0.06881712 0.09319544 -0.0654041
0003c0 8a 5d 14 3e 6a ca 1d 3e 5e 42 dc 3e 3d 86 d9 bb
       0.14488807 0.15409246 0.43019384 -0.006638317
0003d0 8b 6c 61 be 0d b2 ab 3a a0 c8 94 bd 88 c3 da 3d
       -0.22014062 0.0013099328 -0.07264829 0.10681826
0003e0 48 56 6b be 8e bc 2d 3e cc fe 3e bd 99 12 84 3d
       -0.22982132 0.16966459 -0.046629712 0.0644886
0003f0 36 b6 4b be 0e 21 02 3f a5 9b 3b 3d 6e 9e 3e bd
       -0.19893727 0.5083169 0.04580273 -0.04653781

bias f4 [5]
000000 58 cc 65 3b 22 fb ea bc 61 9f e3 bd c3 24 4f 3c
       0.0035064425 -0.028684203 -0.111143835 0.012643042
000010 e0 57 a7 3c
       0.020427644

weight f4 [5, 64]
000000 10 5d e4 be 0c 37 62 bd 23 a3 11 be e1 94 98 3e
       -0.4460225 -0.055228278 -0.14222388 0.29801086
000010 f1 f6 d0 be 33 21 d0 3e 75 83 44 bb e7 d6 d3 3e
       -0.408134 0.4065033 -0.002998558 0.41374895
000020 c4 6d cf bd 6e 62 b7 bd 0f f7 48 be e8 37 d3 3d
       -0.10128358 -0.08954321 -0.19625495 0.10313398
000030 b8 b7 b4 be 53 f4 f7 bc b8 20 8b bd d9 d5 17 be
       -0.35296416 -0.03026787 -0.0679335 -0.1482767
000040 fa c6 ec 3d 69 ff 0f be 69 16 5b be 78 f8 25 be
       0.11561389 -0.14062275 -0.21395268 -0.16208065
000050 32 93 28 3d 0f 14 75 be f4 9b d5 3d 6b 8a b9 bc
       0.041156 -0.23933433 0.10430136 -0.02264901
000060 80 92 39 3e 3c 74 ff 3a 90 cb a8 bc 4a 62 1b be
       0.18122292 0.0019489597 -0.020604879 -0.15174213
000070 80 8a 3d be f7 84 5e bd 81 2e 92 bd fc b1 4e be
       -0.18509865 -0.054326024 -0.07137776 -0.20185083
000080 4f 0f 0f 3e 82 c0 0f bc 52 ae 8b be 7c df 58 3e
       0.13970684 -0.008773925 -0.27281433 0.21179003
000090 04 1b 3c b8 36 35 24 3e ec fc 08 be 4e e4 5b 3d
       -4.4847853e-05 0.16035923 -0.13377732 0.053684525
0000a0 cd 0a 9b be f4 a8 27 be d7 12 f3 bd 03 56 ab 3e
       -0.30281678 -0.16373044 -0.11868828 0.3346406
0000b0 ac cf 58 bd cc 39 0b 3e 83 c3 9f bb 78 6f 25 be
       -0.052932426 0.13596267 -0.0048756017 -0.16155803
0000c0 2b de 68 3e 04 88 96 bd f0 10 8d bd 75 bf b5 3e
       0.22741 -0.07350162 -0.06887996 0.35497633
0000d0 fb 25 e6 bd 7e 97 59 3d 9f 55 af bd 7d b3 5d 3d
       -0.11237713 0.05312299 -0.08561253 0.05412625
0000e0 5a 31 98 3e 29 2c 57 bd b6 f4 3f 3d 92 04 90 bb
       0.29725152 -0.05253235 0.046864234 -0.004395076
0000f0 17 cd 30 bd 6b a3 34 3d a7 c9 02 3b 12 6e da bb
       -0.04316434 0.04410116 0.001995662 -0.0066659534
000100 c2 d4 f5 3d 13 5b e9 3d 14 3c 83 3b 66 9c 45 3f
       0.12003471 0.11394324 0.0040049646 0.7719177
000110 c5 e1 97 bd df bd 2b 3e a4 14 7b bd fc d1 87 3d
       -0.07416109 0.16771649 -0.06129898 0.06631848
000120 ed 6b 28 3f 5a a5 2f be c1 96 31 be 19 94 0c 3f
       0.6578968 -0.1715292 -0.17342664 0.5491348
000130 d9 15 cf be db d0 42 3f b3 85 c7 bc bc f1 90 3e
       -0.40446356 0.7609994 -0.024355745 0.2830943
000140 4e a6 5d 3d 74 13 f5 be 39 6a 01 be 04 10 90 3d
       0.05411368 -0.47866404 -0.12638177 0.07034305
000150 ee 0c c3 3c 1c 80 f7 3b ba f2 57 3d 4b 32 bf 3e
       0.023809876 0.0075531136 0.052721716 0.37343058
000160 3e f7 df 3c 67 87 00 3e d8 de 24 3f 88 f2 8d 3d
       0.027339574 0.12551652 0.6440253 0.06931025
000170 8a a3 82 be 7a 30 0d 3e df 65 4f be c3 28 92 3e
       -0.25515395 0.13788024 -0.20253704 0.28546724
000180 3f da b5 39 a8 62 59 3e a4 12 6e 3d b1 24 c5 3d
       0.00034685616 0.2122904 0.058123246 0.09626139
000190 21 08 af 3e b3 49 88 3d 00 c7 58 be 65 39 c9 be
       0.3418589 0.06654682 -0.21169662 -0.393016
0001a0 ed f0 62 be bc 16 83 be 5d 3a 11 3e 97 35 85 bd
       -0.22162218 -0.25603282 0.1418242 -0.06504362
0001b0 81 72 a6 3e 79 fe 30 3f 9a 06 dc 3d 74 f9 49 be
       0.32509235 0.69138294 0.10743447 -0.19724065
0001c0 2b 4c 45 3e 77 45 72 be 66 c2 da bd bd fe d4 bd
       0.19267337 -0.23659311 -0.1068161 -0.1040015
0001d0 b8 68 93 bc 81 eb a7 3e 43 8e 13 3d cb 9a 1a be
       -0.01799427 0.32796863 0.036024343 -0.15098111
0001e0 52 50 6e 3d 2b ae 6c 3f 41 79 e0 bd 3a 5c 3c 3d
       0.05818207 0.9245326 -0.10960627 0.04598639
0001f0 76 1e 36 be 3e 23 d5 3e ab 7c 6b be f5 63 28 3f
       -0.17785057 0.4162845 -0.22996776 0.6577752
000200 7d 28 2f 3e fb 8c e2 3d f3 75 ba 3e 45 05 0f 3e
       0.17105289 0.11062046 0.36418113 0.13966854
000210 c4 93 7c 3e 79 15 75 3e 58 b4 fa 3d 2b 14 8f 3e
       0.24665743 0.23933972 0.12241429 0.27945074
000220 4a c3 b6 3e 60 86 50 be 0d ac ad bc df e3 e8 3d
       0.3569587 -0.2036376 -0.021200204 0.11371588
000230 ba 65 66 3d 15 91 b8 3d c3 28 1f 3e bc 5c fd bc
       0.056249358 0.09012047 0.15542893 -0.030928008
000240 c6 f5 12 bd ce eb 06 3e 50 66 3f be d0 d9 ba 3d
       -0.03587892 0.1317589 -0.18691373 0.09123576
000250 b6 b6 93 be 9c ef a6 be d0 3c 62 3d 55 98 71 be
       -0.28850335 -0.32604682 0.055233777 -0.23593266
000260 d8 04 68 3e f6 56 a5 3d 74 38 4d bc 77 a4 d1 bd
       0.22658098 0.08073227 -0.0125256665 -0.10236447
000270 d1 e2 bd be 22 24 d8 3d ef 9a 80 be 71 cb b5 3e
       -0.3708711 0.10553767 -0.25118205 0.35506776
000280 4e 7d a5 bd 16 58 26 3e a7 86 38 be 7a 2b 8d 3e
       -0.080805406 0.1624454 -0.18020116 0.27572232
000290 a8 f1 ee 3d a2 27 13 be 84 7a e9 bd 43 9a 29 3c
       0.11667186 -0.14370587 -0.11400321 0.01035172
0002a0 b8 71 c1 be 14 a4 67 3d 27 97 fd 3b c1 8b 0f 3f
       -0.37782073 0.05655296 0.007738966 0.5607262
0002b0 4d 6b d7 3d 09 1f 5c 3e de e1 9e bd 17 f8 01 bf
       0.10518513 0.21496214 -0.077579245 -0.5076918
0002c0 6f 6f 0e 3e cb a6 aa 3c 59 1c 77 3e 89 79 93 3e
       0.13909696 0.020831486 0.24131908 0.2880366
0002d0 f6 e9 1c 3d 07 cb f9 bd f1 71 af be 4d e7 df bd
       0.03830906 -0.121969275 -0.34266618 -0.10932789
0002e0 4d d6 81 3c 4d d2 1a 3f eb 2a 9f be c2 bc 54 3e
       0.015849257 0.60477144 -0.3108743 0.2077513
0002f0 f8 61 cd bc 6c 56 d7 3e b6 e5 d8 bd 95 da 22 3e
       -0.02507113 0.42058122 -0.10590689 0.15903695
000300 5b ee a8 bd aa d8 a7 3e 22 c7 87 3e a0 16 17 3f
       -0.08248588 0.3278249 0.26519114 0.590189
000310 41 32 88 be 50 27 8c 3f 2e e8 c4 3b 6d 27 81 3f
       -0.2660084 1.0949497 0.0060091233 1.0090157
000320 62 e5 2e 3f 00 79 ef 3d 14 a0 cd be 7a 2d 2c 3f
       0.6831876 0.11693001 -0.40161192 0.6725689
000330 76 81 46 be dc 8b 10 3f 99 e7 fe bd 18 75 4b 3e
       -0.19385323 0.5646341 -0.124465175 0.19868886
000340 39 13 18 3f 62 e4 67 ba 7d e5 ed be 25 b1 ad be
       0.5940433 -0.00088459824 -0.46464148 -0.33924213
000350 f3 49 68 bf e5 e6 02 bf 52 f5 73 bd 04 5b 37 bd
       -0.9073784 -0.5113357 -0.059560128 -0.044764534
000360 98 cd ce 3d 1d e3 04 3f d8 1b a8 3e 3e 72 e9 bd
       0.10097808 0.5190905 0.32833743 -0.11398743
000370 d1 82 64 be 65 7d ae 3d 6c ee 24 be 90 bb 90 3e
       -0.22315527 0.08520011 -0.16106576 0.282681
000380 92 0c da bd f5 c8 06 3f aa db d3 be 83 8a 58 3e
       -0.10646929 0.52650386 -0.41378528 0.21146588
000390 81 3c 23 3f 32 8b 8f 3e 80 84 51 be 4e 8b 3a be
       0.63764197 0.28035885 -0.20460701 -0.18217203
0003a0 93 9f 8e be 72 1d ed be 99 66 b1 bd 18 02 e5 3e
       -0.2785612 -0.46311527 -0.08662147 0.4472816
0003b0 14 89 86 3e b1 e7 f0 3e 2d d9 49 be 6e 20 f7 bd
       0.26276457 0.47051767 -0.19711752 -0.12066732
0003c0 27 46 30 3f d4 1c ee be a8 54 82 3e 49 11 71 bd
       0.68857044 -0.4650637 0.25455213 -0.058854375
0003d0 f6 7b 43 be 16 fe 9f be 9b 73 08 be fc 77 fc be
       -0.19090256 -0.3124854 -0.1332535 -0.4931029
0003e0 3d 8f af bd 85 e0 43 3f c6 70 c1 bd e9 62 5c be
       -0.085722424 0.76514465 -0.09445338 -0.21522106
0003f0 9d b0 bf be 05 23 d3 3e 9b 73 50 bc 20 04 78 3f
       -0.37439433 0.41237655 -0.012722875 0.96881294

bias f4 [5]
000000 96 ec 08 be 02 95 84 be d4 2b 86 be d8 47 0d bf
       -0.133715 -0.25894934 -0.26205313 -0.5518775
000010 ea a0 91 be
       -0.2844308
