model/best_weights_dataset2.pt (torch, 25829 bytes, 10 tensors)

net.linear_00.weight f4 [64, 1]
00000000: 8413 313f 0218 8ebf 0ed5 f83f b860 953f
00000010: 1c2f 9dbe 2986 10bf e487 2bc0 0176 2b40
00000020: a002 58c0 5caa fcbf 031a 3fbf d70e 833f
00000030: 2aa5 9bbf bc9d 933f e35b 14be d911 40be
00000040: fff4 7bbf 22bc 82bf e151 67bf 1892 c2bf
00000050: 1ef8 513f 2357 1b3f 239a 053f 38b2 02bf
00000060: 7f9d 053f c9d1 d03f 0a81 b73f 1d8e ebbf
00000070: 80cc c03f 9b45 053f cd1d 0d40 f27a 04be
00000080: 9180 3a3f 0317 d13e 4700 49bf a8d2 4dbe
00000090: 8f76 e9be be30 113f 8359 223f 37ab 74bf
000000a0: 0f63 c3be 2d0b 913f da88 8ebf a2b4 51bf
000000b0: 6589 a3bd 82b5 1b40 cc08 ddbe 3fb2 1fc0
000000c0: f018 15bf 8e60 c93d 71a7 32c0 7cb7 cfbd
000000d0: 072a 4cc0 fb36 273f 26d3 393f c813 0440
000000e0: 5f29 1e3f 094d d7bf b10a d03f 216e cb3e
000000f0: e3ea c73e 462f ff3f 003e f6bc ef46 aa3c
0.69170403 -1.1101077 1.9440019 1.1670141 -0.30700004 -0.5645471 -2.680169 2.6790774
-3.3751602 -1.973949 -0.74649066 1.0238904 -1.2159779 1.1532512 -0.14488177 -0.18756808
-0.9842071 -1.0213664 -0.9035931 -1.5200834 0.8201922 0.60679835 0.5218832 -0.5105319
0.52193445 1.6314021 1.4336255 -1.8402745 1.5062408 0.52059335 2.204944 -0.12937525
0.72852427 0.4083787 -0.7851605 -0.2009989 -0.45598266 0.56715 0.63417834 -0.95573753
-0.38161513 1.1331536 -1.1135514 -0.8191625 -0.0798519 2.4329534 -0.43170774 -2.4952543
-0.58241177 0.098328695 -2.7914698 -0.10142419 -3.1900651 0.6531827 0.7258781 2.0637074
0.6178188 -1.6820384 1.6253263 0.3973246 0.39046392 1.9936302 -0.03005886 0.020785777

net.linear_00.bias f4 [64]
00000000: 3b3e 09bd 0712 09be 8a16 e2bc de53 c0bd
00000010: 8c19 5a3c ad3e edbd 9788 9b3d 525c 9c3d
00000020: c5be 8f3d d726 063e 6b1e da3d 7f05 0abd
00000030: f98f 2fbd ff4f b03d 4319 cdbc cd5a 3cbe
00000040: 36ad d8bc 3567 adbd a50f 073d c5ef 28be
00000050: 16b0 1a3d ea8c 643d be9e 123d 2cac 82be
00000060: 8434 18bd 7daf debd e2b7 17bd 298d 12bd
00000070: b094 703d ab73 783d dc70 e93d 3ac2 f0bd
00000080: e2c8 973d 96a8 cebb 15c0 8a3c 9294 eebd
00000090: 5fc4 00be f22b a53b 5125 35bd 8a2a 9f3d
000000a0: a39c f6bd 747d 10be 50ba a5bc efde 6fbd
000000b0: c937 2a3e 5571 233e 1d02 6ebe 360b 143e
000000c0: 5924 6fbe 8fd2 d83d 7a1d 963d 363f 7f3d
000000d0: 7b33 833c 1d1b 34bd 7872 1db9 e80e d63d
000000e0: 3bba b6bd b246 15bb e44e 95bd 0051 2ebd
000000f0: 861c bd3c 8cf5 343d 2c8b 16be 9607 5bbe
-0.033506613 -0.13385783 -0.027598638 -0.093909964 0.013311755 -0.1158422 0.07594412 0.07634796
0.07018808 0.13100754 0.10650333 -0.033696648 -0.042861912 0.08609008 -0.02503646 -0.18394013
-0.02644978 -0.08466951 0.032973904 -0.16497715 0.037765585 0.05579845 0.03579592 -0.25521982
-0.037159458 -0.108733155 -0.0370406 -0.035779152 0.05873555 0.060657185 0.11398479 -0.11755796
0.07411362 -0.006306718 0.016937295 -0.11649431 -0.1257491 0.005040639 -0.04422504 0.077717856
-0.12041595 -0.14110357 -0.020230442 -0.058562215 0.16622843 0.15961201 -0.23242994 0.14457402
-0.2335371 0.10587036 0.07329841 0.062316142 0.016015759 -0.04397117 -0.0001501533 0.10452062
-0.089222394 -0.0022777733 -0.07290438 -0.042557716 0.02308489 0.044179484 -0.14701527 -0.21389613

net.linear_03.weight f4 [64, 64]
00000000: 1d18 8ab9 c493 f43c 26c7 543d 669f 0f3e
00000010: 6c5e 3abe 7cde 57be f476 533c 0c6d 5a3d
00000020: 016b 493e 81e2 bbbd 4233 9bbd e2c4 ccbd
00000030: 8adf 703e c5ab 4c3e 3887 043e 1931 ce3c
00000040: 4175 c6bd ea58 52bc 4693 86bd 4a48 09bc
00000050: 4c39 24be 00b4 8abd 12c8 11be c335 923d
00000060: f542 29bd cf4a 14be fa12 b13b f8f3 d13d
00000070: 5b15 9fbd 27fc 76bd 9ec4 e23d 26ce 573d
00000080: 1adb 5fbd 6958 aa3d 5b96 e5bd 12ae 1ebc
00000090: 00d5 25be a8ac 5c3d 3f4b 0f3e 1684 0b3e
000000a0: 127c e93d fdbe 64bd 22cc 2abd 8dd9 4dbe
000000b0: 1552 d6be 0f9e 65be 7784 1ebe 5262 4e3e
000000c0: 3000 a2bd 5bf0 68bc eea5 e03d 300a 02bc
000000d0: bc12 ff3b 898a 003e 4342 9f3e ae83 853e
000000e0: 8229 943d 5f4a 343e cf4e 6fbe 4ac1 033e
000000f0: 71a2 3fbc 830c b43d 854a 6e3d a06a 773e
00000100: fbf0 513e 1fdb 833e 2748 073d 9421 28be
00000110: a2f2 3e3e faf9 0f3e 1077 5e3e 82f3 0dbf
00000120: d90c 54be 9f88 f3bd 84fa b1be aa1b b6bc
00000130: 4967 cd3e 3cac 563e bd3a 843d 247d 903e
00000140: c01c 48be 4b58 07be c02e e9bd 8f5c 243e
00000150: f015 963e a721 2bbe e2c6 283e db0e 423e
00000160: ee14 babd 70c7 ee3d 42f1 7fbe 9496 b43d
00000170: 7db4 90bd 47ef a7bd 1694 aabd 11d8 963d
00000180: 09c0 80bc 086e d73d 1d75 af3d 4695 fc3d
00000190: 4945 d4ba 8e58 b73e 8aa7 92bb 2b54 dc3e
000001a0: 9ce8 913d 5ea4 f03c 5a50 b93d 3974 1c3e
000001b0: d5a7 f23d 8c7e cbbc 108b 423e cb3a eabd
000001c0: adfa c4bd 2d98 53bc 638c 37bd 14df 0bbc
000001d0: 486c 86bd 0ab9 403c 0b09 053e 4ba9 9fbd
000001e0: 99c6 423e 8b06 503e d8ec 37bd 19e6 953e
000001f0: b70b b93d d858 55be a547 76bd 830e 203e
00000200: 132e c43d 9d03 afbd 85fd 44be ae52 583d
00000210: b106 f43b 3746 b0bc 3f5a 08be 9964 b9bc
00000220: 71f8 023e 6790 0c3d ffc3 89bd 6ad6 4d3d
00000230: 4d03 8e3d c6c2 1cbd 5b43 c63c 6498 873e
00000240: 636d 8b3c 7b16 aabc fd46 8b3d ee6f 533e
00000250: 8d03 c2be 6a44 41be cd46 adbd 3c2b 8d3d
00000260: efa7 53be 4850 8a3d 11b0 24be f2c6 07be
00000270: 95b6 693d ed6b 5f3e 966c 8fbd f9d5 a63e
00000280: 59ac 033e b8e1 c43d c762 ca3d ae7f 9a3c
00000290: 26ba 3c3e 664e b7bd 726d 02be 8eb8 09be
000002a0: b51e 27be 653e b7bd e43e 1fbb d6e9 213d
000002b0: 4f43 83be 37a8 88bd 9e81 d13d 527e ecbe
000002c0: ccc5 0ebc 7c0a 59be 8c1f 3bbb 83c1 c93c
000002d0: 484c 233d bdc0 05be f444 01bd c248 86bd
000002e0: 6696 c1bd 89d3 91bd 6a78 9c3d 7cad 8dbb
000002f0: e38b 77be 7bdc 49bd a68b 183e 4a6e bc3e
00000300: ed9c 7cbe 4893 de3b 8264 f0bd 574a 5f3e
00000310: 8413 bf3e 99ae e53c d5f7 29be c64d 0cbe
00000320: 4fcb a4be e2de ab3d 15ac 013e 4a87 623e
00000330: 871a 5f3d 1a78 aebe a70c af3e d237 51bc
00000340: 9808 1cbd 76ed 89bc 08ab c23c 6581 04be
00000350: f435 d1bd 9d26 0fbe bb13 13be 31ac 783d
00000360: 66d3 e0bd 9c99 d8be 68a8 bebe d3e1 17be
00000370: 43a0 8bbe 5ac4 b3be 979c 253e 2e3d 4b3e
00000380: 0f81 f3bd 17cf ec3c 6657 a3bd b247 fc3e
00000390: 0440 ab3c 4bb7 40be 338e cc3d 8524 b5bd
000003a0: 74b2 20bd 9485 2e3c d969 a73d a98d ee3d
000003b0: 1836 00be 7d2b af3e 48ae cf3c 3727 cfbe
000003c0: fd60 8ebd 69cf 0fbc bf10 613d 80ae 79bd
000003d0: 966a 66bb 9e2e 0dbb 97ac b8be de0d d9bd
000003e0: 2fcc ff3d a3f1 e6bd 1f6c e63d 497d a2bd
000003f0: 76ee abbe 8ca9 a23d 921d e73e b1ef 483e
-0.00026339377 0.029855616 0.051947735 0.1402565 -0.18200082 -0.21080965 0.012906779 0.05332665
0.19669725 -0.091740616 -0.07578136 -0.0999849 0.23522773 0.199874 0.12942207 0.025169896
-0.09690333 -0.012838582 -0.06571059 -0.008379051 -0.16037482 -0.067726135 -0.14236477 0.071391605
-0.04132362 -0.14481662 0.0054038735 0.102516115 -0.07767745 -0.060299065 0.11072658 0.052686833
-0.05465231 0.08317644 -0.11210319 -0.009685056 -0.16194534 0.053875595 0.13993548 0.13624606
0.11400618 -0.055846203 -0.041698582 -0.2010252 -0.418595 -0.22423576 -0.15480219 0.20154694
-0.07910192 -0.014217461 0.109691486 -0.007936999 0.0077842157 0.12552847 0.3110524 0.26077026
0.072344795 0.17606495 -0.23369907 0.12866703 -0.011696444 0.08791449 0.058176536 0.24161768
0.20502083 0.25753114 0.033027794 -0.16419059 0.18647245 0.14060202 0.21725106 -0.5544969
-0.20708026 -0.11891293 -0.3476144 -0.022229988 0.40117863 0.2096414 0.06456516 0.28220475
-0.19542217 -0.13217275 -0.1138587 0.16050933 0.29313612 -0.16712056 0.16482118 0.1895098
-0.09086023 0.116591334 -0.24994376 0.08817783 -0.070656754 -0.081999354 -0.083290264 0.0736543
-0.01571657 0.10519034 0.085672595 0.12333159 -0.0016194965 0.3580975 -0.0044755386 0.43032965
0.07124445 0.029375251 0.09048529 0.1527871 0.11848418 -0.024840616 0.1899836 -0.11436995
-0.09618125 -0.0129146995 -0.044811618 -0.008537073 -0.06563622 0.011762867 0.12991731 -0.07795962
0.19021071 0.20314996 -0.044903606 0.29277113 0.090354376 -0.20834672 -0.06012692 0.15630536
0.095791005 -0.08545611 -0.19237335 0.052813224 0.0074470867 -0.021517856 -0.13315676 -0.022630977
0.12790085 0.0343174 -0.067268364 0.05025331 0.06934223 -0.038271688 0.02420204 0.26483452
0.017019933 -0.020762673 0.06800649 0.20648167 -0.37893334 -0.18873754 -0.0846077 0.06893012
-0.2066953 0.06753594 -0.16082789 -0.13259485 0.05705889 0.21818514 -0.07003133 0.32585123
0.12858714 0.09613365 0.098821215 0.01885971 0.18430385 -0.089505 -0.12737063 -0.13449308
-0.16320308 -0.08947448 -0.002429896 0.039529644 -0.2563729 -0.066727094 0.10229801 -0.46190125
-0.008714151 -0.21195406 -0.002855274 0.024628406 0.03986767 -0.13061805 -0.0315599 -0.06556846
-0.09452514 -0.07120425 0.07640155 -0.0043236595 -0.24174456 -0.049282532 0.14897022 0.36802894
-0.24669237 0.0067924596 -0.1173792 0.21805702 0.37319577 0.028037356 -0.16598447 -0.13701543
-0.32186362 0.08392121 0.126633 0.22121921 0.054468658 -0.34076005 0.3418934 -0.012769656
-0.038094133 -0.016836863 0.023763195 -0.12939985 -0.10215369 -0.13979574 -0.14362995 0.06071109
-0.10977821 -0.42304695 -0.3723786 -0.14832239 -0.27270707 -0.35110742 0.16173016 0.19847557
-0.1188985 0.028907342 -0.07975654 0.4927345 0.020904548 -0.1881992 0.0998806 -0.08844856
-0.039232686 0.010651965 0.08174486 0.11648113 -0.12520635 0.34212866 0.025351658 -0.40459606
-0.06952093 -0.008777478 0.05494761 -0.06095743 -0.0035158745 -0.0021542679 -0.36069176 -0.10598348
0.12490117 -0.11276557 0.11251091 -0.079340525 -0.3358037 0.07942495 0.45139748 0.19622685

net.linear_03.bias f4 [64]
00000000: dcb0 813c bf1e 99bd 1c75 0dbe 8c98 8bbe
00000010: 567a d93d 4568 b3be 57e1 1abd 910d acbe
00000020: 74ee adbe 05a5 2a3d 7456 213e c3f5 dcbc
00000030: 8508 303e 1ab8 d2be 94cf 153b 3842 bd3d
00000040: 26f8 b0bd 0ac4 293e 9a39 9c3d 7f44 68bd
00000050: e9fc 483d 14c1 293d c27c dc3b 2e52 e53c
00000060: 4c0f 88bd bc21 983c ea69 b0be 9b0d 6bbd
00000070: 03d4 523d 304c 0ebe 7769 dc3d 01e2 303e
00000080: ca70 3ebc 1ac3 85bc 36f2 5bbc 6403 933c
00000090: 2499 08be 5f3e a0be 08d7 f23a 0a98 c53d
000000a0: 1745 383e 2324 2b3e c673 99bd b4ec aa3c
000000b0: de83 dfbd 5a7d e4be 3846 90bc 32c9 033d
000000c0: 7d06 c43d 7c1b d73d 9a9a 413e 9618 963c
000000d0: ccd7 d7ba 258d efbd fd67 dfbb 7c88 4ebc
000000e0: 00e3 37bd a05b babe e537 b23d 7b5a 593c
000000f0: e5a1 833d 6240 1dbe bdbe 7b3d 1b96 4fbe
0.015831403 -0.074765675 -0.13814205 -0.27264822 0.10619037 -0.3504049 -0.037812557 -0.336041
-0.33970988 0.04166128 0.15755635 -0.026972657 0.1719075 -0.41156083 0.0022859322 0.09241146
-0.086410806 0.16578689 0.07628174 -0.056705948 0.04906932 0.0414439 0.0067287395 0.027993288
-0.06643543 0.018570773 -0.34455806 -0.057386022 0.05147172 -0.1389625 0.10762303 0.17273714
-0.011623571 -0.016328383 -0.013424447 0.017945953 -0.13339669 -0.31297585 0.0018527219 0.0964814
0.17995106 0.16713004 -0.07492785 0.020864822 -0.109138235 -0.44626886 -0.017611608 0.032174297
0.0957155 0.10503289 0.18906632 0.01832227 -0.0016467511 -0.11696843 -0.0068178163 -0.012605783
-0.04489422 -0.3639803 0.08702067 0.013266201 0.06427363 -0.15356591 0.0614612 -0.20272104

net.mixturesofgaussianlayer_06.fc_pi.weight f4 [5, 64]
00000000: 97d6 42be 9784 c83d 50f2 5fbe 6ca0 e8bd
00000010: 44e8 27be 866b d5bd af41 0a3d 3883 6c3e
00000020: 4bf6 0a3b 0ce8 193d 1edb f5bb 57c5 1b3c
00000030: 012c b63d 6052 723e ad98 113e 2447 e5be
00000040: d978 b43c 87e2 df3c b8c7 edbd 9156 13be
00000050: 35ed babe 52dc a63d 7234 28be ee73 193e
00000060: 1074 48be 01e7 0abe 5e84 0e3e ef89 e53b
00000070: 785b edbe fe1f 1fbd 179e 68be b5f3 133f
00000080: ac90 febd 80ed 2b3e 3d1e 0ebe fd6b d8bd
00000090: 4b4c 8abe b1de 753e 2468 3a3e 152b e13d
000000a0: f46d 92be ade6 1d3e f6ec 9d3e cedb 613d
000000b0: 3876 dbbc 1f0f 45bd 688b e43d 2a7c 043e
000000c0: debc 51be 27b5 933e 7ab2 c93b 14d4 edbc
000000d0: dc45 4bbe 52b0 b23c 7583 ef3c e3d9 c5bd
000000e0: f9e4 1c3e b26f 633e 43a3 6d3d d0b3 f2b7
000000f0: b1a0 183e cfab 09be 8915 5cbe 2126 efbc
00000100: 7d91 afbe d843 6ebe ec8f 6b3e 3e26 8dbc
00000110: a5de c6bd 5993 ecbe 7987 7fbe dbf8 dfbe
00000120: 3776 a1be d799 e43d 78ac 8c3e 8468 483e
00000130: 6aae d53c 6527 9fbe 6d3a 6bbd 92df fbbb
00000140: 041d 783d c0bd 7d3c dcd7 c13e 87ff 9c3c
00000150: 164f 59bd 421b b43d 114f 8f3e 8e4c 823e
00000160: 6508 d8be 5f09 f63d c49c abbd 6716 adbd
00000170: 7ed3 7e3e 2287 863d 013a 72bd 7ebe ba3e
00000180: 7d3b 8b3d 3f41 80be edd7 f43d 3188 2a3e
00000190: b45e 1cbd 8d0e 6ebe 557f 503e 67b4 8bbd
000001a0: 24c7 943e 5d1e 4bbd c690 0f3d 9a57 0dbf
000001b0: 7a95 773e a9b8 9a3d f4e0 033e 1e2a 6ebe
000001c0: 8846 a1bc 51d1 463e 0f52 a73e 1e3f a83e
000001d0: 84ee 873e 064e ba3d 295c 023e 5c0b afbd
000001e0: 8c7d 083e 3c9d 9a3c 1fb0 bbbd 6844 98bc
000001f0: d33a eabd 2116 33be 363c 3b3e 406a ebbd
00000200: 96f7 cfbc efd4 8bbd 2b92 4e3e e588 3f3e
00000210: 23af 73be 00b3 7dbd a4c9 04bd 173c ab3d
00000220: f298 21be 5286 e8bc d9c5 8abe 8d30 a5bc
00000230: 82fd 3ebe a8a6 bf3e ad26 f6ba 1718 703e
00000240: 250c 80bd 66f4 f93b 41e1 03be 56a7 75be
00000250: d41f 663e 8909 8fbe e8aa ea3d 016e 58bd
00000260: c197 12be 1700 9abd ab74 bc3e b16b 593e
00000270: e550 a8bd 9088 f8bd e6ce 49be 01bf 343d
00000280: bdf0 97bc 5636 513e e87b 503d 5d82 d9bd
00000290: 12f1 96be aefd 3a3d 9a81 203e b6e0 bc3e
000002a0: 2956 8bbd 5ad8 b03c 2c9a 9cbd e43e 5c3e
000002b0: 1f24 02be 5eda 633e ae2b 92be fe03 4ebe
000002c0: b53b 453d 0bf1 5d3c 3b5c 91be d4d8 303e
000002d0: 87f7 af3d 5b22 a9bc 9a02 3e3e 7ba0 5d3e
000002e0: 0a44 e03d 28fc 803d 161f 87bd ba13 82be
000002f0: 15ae 48be c0fc 0e3f 8ba3 203e 0e6a 9e3e
00000300: 960b 02be cd3d 5fbb c50f 4c3d d131 943c
00000310: 2810 4b3e c46d e93d a4cd f2bc dcc8 f1bd
00000320: 9b1a 873e d2d5 1bbe d2ed 543e 1c7b a43e
00000330: 88c6 5ebd 4405 3e3e 614a c13d 3e91 463e
00000340: 8a24 9f3d 9843 2f3e 39eb 3dbd 44eb 72be
00000350: eb0b c23d 5c12 cbbd f268 6cbe bb91 05bc
00000360: fe60 1cbd 631b babe c9bb 813e 0321 62be
00000370: 6989 8abe c22a 2d3e c296 5bbd d021 5fbe
00000380: 086d 20bc 6f09 e9bd 0765 493e 0212 3cbd
00000390: 91d7 e73d 7a92 563e 068e 0a3e b7ce 75be
000003a0: 2684 69be c19a 043d be05 58be 3bca dfbd
000003b0: 3940 8abd e774 a43e 0728 903d a9f7 ad3e
000003c0: f048 6ebe f07f a93d 5946 c1be 250e 04be
000003d0: 1909 ca3e 4a94 86be c758 4fbe 5416 fabd
000003e0: 79ce 9f3d 1bab a23e 216e 9ebe df97 cabd
000003f0: 5e37 d2bc b65c 9f3d 5022 463e 655c ac3e
-0.19027172 0.097909145 -0.21869779 -0.11358723 -0.16397196 -0.10420899 0.033754047 0.23096931
0.002120393 0.037574813 -0.0075029274 0.009507499 0.08895112 0.23664236 0.14218397 -0.44780838
0.02203028 0.027329696 -0.11610359 -0.14388491 -0.365091 0.081474915 -0.16426256 0.1498563
-0.19575524 -0.13564683 0.13917682 0.0070049684 -0.46358848 -0.03884887 -0.22716556 0.5779374
-0.12429938 0.16789818 -0.13878722 -0.10567472 -0.27011332 0.24010731 0.18203789 0.10994545
-0.28599513 0.15420027 0.3084485 0.055141263 -0.02678977 -0.048110124 0.11159402 0.1293799
-0.20482203 0.28849146 0.0061553093 -0.02903179 -0.19850868 0.021812592 0.029237488 -0.09660699
0.15321721 0.22210577 0.058017027 -2.893238e-05 0.14905049 -0.13444446 -0.2149259 -0.029192986
-0.34290686 -0.23268068 0.2300412 -0.01723015 -0.09710435 -0.46206167 -0.24954022 -0.4374455
-0.31535503 0.11162155 0.27475333 0.1957112 0.026084144 -0.31084743 -0.057428766 -0.007686564
0.060574546 0.015487134 0.3786 0.019164814 -0.053053938 0.087942615 0.2799001 0.25449032
-0.42193905 0.12013506 -0.0837951 -0.084515385 0.24885365 0.06568743 -0.059137348 0.3647346
0.06798456 -0.2504978 0.11955247 0.16653515 -0.038176253 -0.23247738 0.20361073 -0.068215184
0.29058182 -0.049589504 0.035050176 -0.55211794 0.24178115 0.075547524 0.12878782 -0.23258254
-0.019686952 0.19415785 0.32679793 0.32860655 0.2654916 0.09096913 0.12730469 -0.085470885
0.13329142 0.018873803 -0.09164452 -0.018587306 -0.11437001 -0.1748891 0.18284687 -0.11494875
-0.025386613 -0.06827723 0.20172946 0.18704565 -0.23797278 -0.061938286 -0.032418862 0.083610706
-0.15781 -0.028384361 -0.2710407 -0.020164752 -0.18651393 0.37431836 -0.0018779837 0.2344669
-0.062523164 0.0076280115 -0.12878896 -0.23989615 0.22473079 -0.27936962 0.11458379 -0.052839283
-0.14315702 -0.075195484 0.3680776 0.21232487 -0.082185544 -0.12135422 -0.19707832 0.044127468
-0.01854741 0.20430884 0.050899416 -0.10620568 -0.29480797 0.045652084 0.15674439 0.3689019
-0.06803543 0.02158754 -0.076465935 0.21508366 -0.12709092 0.22251269 -0.2854895 -0.2011871
0.048152644 0.013546239 -0.2839068 0.17270213 0.08592134 -0.020646265 0.1855568 0.2164325
0.109504774 0.06298095 -0.06597726 -0.25405675 -0.19597657 0.55854416 0.15687387 0.30940288
-0.12699732 -0.0034063936 0.049819726 0.01809016 0.19830382 0.11397889 -0.029639073 -0.11805889
0.26387486 -0.15218285 0.20793846 0.32125175 -0.054388553 0.18556696 0.09438015 0.19391343
0.07770641 0.17115629 -0.046366904 -0.23722559 0.094749294 -0.09915611 -0.23086908 -0.008152421
-0.038178436 -0.3634902 0.2533858 -0.22082905 -0.2705796 0.16910842 -0.05361057 -0.21790242
-0.00979162 -0.113787524 0.19667445 -0.04591561 0.11320413 0.20954314 0.1353074 -0.24004637
-0.22804317 0.032374147 -0.2109594 -0.10927244 -0.06750531 0.3212044 0.070388846 0.33978012
-0.23270011 0.08276355 -0.37748984 -0.1289602 0.39460066 -0.2628501 -0.2024871 -0.1221129
0.078030534 0.31771168 -0.30943397 -0.09892248 -0.025661167 0.07781355 0.19349027 0.3366424

net.mixturesofgaussianlayer_06.fc_pi.bias f4 [5]
00000000: a8e8 c9bd 79eb 493e df5f 31be 5839 f4bd
00000010: 86bb 103e
-0.09858829 0.19718732 -0.17321728 -0.11925 0.14134035

net.mixturesofgaussianlayer_06.fc_mu.weight f4 [5, 64]
00000000: 4dea 823d 7560 013d ff8f 5d3e 0ea1 1e3e
00000010: 2ecc 1f3e 7305 573d 0740 74be 351a 443e
00000020: 9fb4 003e a85d a4bd 4367 343d a220 b8bd
00000030: b38a 55bd ed15 7ebd 113e 1abe af31 463e
00000040: e0a9 9a3e 868b e3bc e944 a03d 721c 90bc
00000050: f2be 023c 92fa 32be 32c3 973d c4fa cf3d
00000060: 7b82 b83d 15f3 f5bb 832c cabc eb62 993e
00000070: 9b62 10be d412 5a3e 0117 293c 33dc ac3d
00000080: 318b 853d cc42 a5bc a20c abbd 68eb 623d
00000090: 7bea 413e e11b 65bc ccda 2f3d dded 1bbc
000000a0: d2d7 69bc 9986 17bd 5f82 483e 59af b23c
000000b0: bef0 aabe 4a61 043e b470 383e da99 30be
000000c0: f445 e23e d545 213c f2c5 80bd 5ee8 753e
000000d0: 7261 ebbd 2bc6 5a3e 9e40 f0bd 70c8 023e
000000e0: 417a 813e fcc0 8bbd 9512 87bd 19c0 e53e
000000f0: 1ff5 d4be 62b4 1abe af43 b6bd 939c 78be
00000100: 7ef5 a03d 9d4f dcbc f119 85be 4678 22be
00000110: 3c77 2d3d 3ec8 a23e 0dbe 37bd 1ea5 7a3e
00000120: 1d71 843d 7959 43be 83ab ce3d 0ba5 9e3d
00000130: 6ab2 d8bd f84c cf3c 4566 aa3c 0588 9a3b
00000140: b6c0 023e e9ce cc3d 4038 a03e 05c6 bf3d
00000150: 64f5 b8bd 1184 ab3c 2149 92bc 1592 5d3d
00000160: 375a b23d 03df 46be a27f 053e 11b3 273d
00000170: 2521 1dbe f0b8 79be f880 71be 222c 3d3d
00000180: 3612 1dbd 1cbb 1b3e feda de3c adb4 c3bc
00000190: b43a 3a3d 5ec2 f3bc f600 143d ea2c babd
000001a0: 40dc 483e 3394 d6bd 9d4f 943d c90f 143d
000001b0: dd6b ac3d 03f2 d33d da93 623d 18dc b1bc
000001c0: a449 b0bd d278 033e c2dd 8e3d 2d5e dc3d
000001d0: 7e0a 633e e8ba 32bd 77a6 263e d22d 4dbe
000001e0: ff1a 46be 66c8 483e fd51 ab3d 4119 d1bd
000001f0: b81f febc 1060 ce3e 1037 29be 5035 cc3c
00000200: d0d0 f63d ad3e a83d 4e25 a2be 279b 1f3e
00000210: 039d 29be 1c2c 363e cbf5 9a3d d92b 3e3d
00000220: 3c3f 8bbe 0402 38be eb66 953e 85c3 f53d
00000230: 6e62 f8bd a1c9 fdbd 64cc 29be aa9c 6c3c
00000240: 85cd b33e cc9c f7bd e4bd dbbd 9204 a5bd
00000250: 2682 f8bc 912b f5bd 758b 1bbe 79db f0bd
00000260: 63c2 0fbe 93a2 b7bd 0449 87be 4981 ac3e
00000270: 4c8e 4abe fb49 b23d 1e86 9d3c 0ae2 aabd
00000280: 80bc 9db9 0f24 b33d f45f 423e b5cf 1a3e
00000290: ec69 d6bd 65ba 77bd 6be2 303d d334 f93d
000002a0: e34e 753d 6026 c3bd 310c c7be 4564 3b3e
000002b0: 0e20 d83e a77b 31bd 1bb8 68bd e82b c5bd
000002c0: d920 543e 9f5b e13d 4194 9f3d 8b97 46be
000002d0: 891e 66be 4b3f 183e 4325 abbd 737d 233e
000002e0: ee5a 8a3e c3ec 36bd 9872 873d 333b 80be
000002f0: ebf7 0fbf 9286 8cbe f9ce 253e 509f 263e
00000300: 4566 c33e 2c2b 7bbd ffdf 823d d552 61be
00000310: 57c3 c3ba b72c 87be 3064 0d3d c8f5 773d
00000320: c28b 783e 4283 253e ddf5 cc3d 072e 5f3b
00000330: 3cc7 253e 8c87 6b3d 4906 073e 1c20 46bd
00000340: 0fd6 bfbd e455 703d c25c 3d3e dae2 3abe
00000350: 9ba9 60be 82e4 08bd 4ba6 913e 4c0a 623d
00000360: d933 a5be 4855 8fbe c307 4abe 3436 1fb6
00000370: db96 a23e f355 f03d a574 ed3c 5dfd f93c
00000380: 8aa8 ee3d dce9 40be f3e1 fe3d ce37 d13d
00000390: 25c1 4bbe 92d2 59be 31c8 f9bd 36f9 363e
000003a0: 51e1 4b3e a15a 99be 3ac5 dabd 762e 73be
000003b0: b722 b53d b80c 93bd ddd5 723d 04ae 073d
000003c0: 33bb 1c3e b251 4e3e 6234 a93a 5c0c 943d
000003d0: 36d0 54be 99a5 623c 96d3 2fbd ca0d ed3d
000003e0: 1f87 32be 8933 c03d 6773 c4bc cab5 9e3d
000003f0: be5f 30be a65e af3e b1d2 693d 237e c6bd
0.063923456 0.03158613 0.21636961 0.15491125 0.15605232 0.05249543 -0.2385255 0.19150622
0.12568901 -0.08025676 0.04404379 -0.08990599 -0.052134227 -0.06203263 -0.15062739 0.1935489
0.3020773 -0.02777649 0.078256436 -0.017591689 0.007980095 -0.17478397 0.074102774 0.101552516
0.09009262 -0.0075057843 -0.024679428 0.2995828 -0.14100115 0.21296245 0.010320426 0.08440437
0.06520689 -0.020173453 -0.08352019 0.055400282 0.18937103 -0.013983698 0.04293327 -0.00951716
-0.014272647 -0.036993597 0.19580983 0.021812128 -0.33386797 0.12927738 0.18011743 -0.1724619
0.44193995 0.009843309 -0.06287755 0.24014422 -0.114931956 0.21364658 -0.11731075 0.12771773
0.25288585 -0.06823918 -0.06595341 0.4487312 -0.41593263 -0.15107873 -0.08899628 -0.24278478
0.07859324 -0.026893431 -0.25996354 -0.15866193 0.04235004 0.31793398 -0.04485898 0.2447705
0.06466887 -0.190771 0.10091307 0.07746323 -0.10580905 0.025305256 0.020800719 0.004715922
0.12768826 0.100004025 0.31292915 0.09363941 -0.090311795 0.020936998 -0.017857136 0.054094393
0.08708613 -0.1942101 0.1303697 0.040942255 -0.15344675 -0.24386954 -0.23584354 0.046184666
-0.038347445 0.15208095 0.027204033 -0.023889864 0.04546614 -0.029755767 0.03613373 -0.09090598
0.19615269 -0.104774855 0.072417475 0.036147866 0.08419011 0.103488944 0.055316783 -0.021711394
-0.08607796 0.12839058 0.06975891 0.1076015 0.22171971 -0.04363528 0.16274439 -0.2003701
-0.19346236 0.19607696 0.083652474 -0.10209895 -0.031020984 0.40307665 -0.16524911 0.024927765
0.120515466 0.082150795 -0.31669086 0.1558653 -0.16563801 0.17790264 0.075664125 0.046428535
-0.27196681 -0.17969519 0.29180083 0.12000183 -0.12128149 -0.12391973 -0.16581875 0.0144416485
0.35117736 -0.120904535 -0.10729578 -0.08057512 -0.030335497 -0.119712 -0.15189917 -0.11760611
-0.14038996 -0.089665554 -0.26422894 0.33692387 -0.19780844 0.08705517 0.019228991 -0.08343895
-0.00030085817 0.08747112 0.18981916 0.15118296 -0.10469422 -0.060480494 0.04318468 0.121682785
0.059889685 -0.09528804 -0.3887649 0.18299969 0.42211956 -0.043330815 -0.0568162 -0.09627515
0.20715655 0.110038035 0.07791949 -0.19393747 -0.22472586 0.14867894 -0.083567165 0.15965824
0.270225 -0.044659387 0.06613654 -0.25045165 -0.5623767 -0.2744642 0.16192235 0.1627171
0.38163963 -0.06132047 0.0639038 -0.22004254 -0.0014935535 -0.26401302 0.034519374 0.06053713
0.24272063 0.16163352 0.10007832 0.0034054534 0.16189283 0.057502314 0.13185991 -0.048370466
-0.09367 0.05867566 0.18492416 -0.182506 -0.219397 -0.033421047 0.28447184 0.0551856
-0.3226612 -0.27994752 -0.19729523 -2.3724397e-06 0.3175572 0.117351435 0.028986285 0.03051632
0.1165324 -0.1883921 0.1244544 0.10215722 -0.19897898 -0.21271732 -0.121963866 0.17868504
0.1991017 -0.29951957 -0.10682149 -0.23748192 0.08844512 -0.0718016 0.059285987 0.03312494
0.15305786 0.20148352 0.0012909288 0.0722892 -0.20782551 0.013833427 -0.042926393 0.11574896
-0.17434357 0.093848296 -0.02398081 0.07749517 -0.17224023 0.342519 0.057085697 -0.096920274

net.mixturesofgaussianlayer_06.fc_mu.bias f4 [5]
00000000: 7486 133c 1436 5abc a9e2 41bc 42bb a63d
00000010: 34d2 853c
0.009004224 -0.013318557 -0.011833825 0.08141185 0.016335584

net.mixturesofgaussianlayer_06.fc_sigma.weight f4 [5, 64]
00000000: cfed cdbe 7833 f43c 6e2b 07be 3277 783e
00000010: a0d6 d9be 5169 b53e 6556 873d 0503 b33e
00000020: a88f 5abe bf13 97bd 0f9e 72be 68aa 633d
00000030: 98b5 bbbe 06d9 6cbd 11a5 04bc 8d3a 46be
00000040: c566 ca3c 6fcb 27be 280e 8abd 4deb 4abd
00000050: 38b7 fd3d 94b7 81be 0e4d 973d ab9d 3dbe
00000060: ccfa 8d3e f724 1bbd e51c 27bc ccb7 16be
00000070: 4772 ee3c 0569 ce3d 2079 fc3d d813 82be
00000080: 378d f93d 1619 bdbc 68f7 5bbe 206b 5b3e
00000090: e071 20bd 9472 783e 9201 843c 378a 6dbd
000000a0: f65a 4abe e494 32bd e687 10be 3b3f 8d3e
000000b0: 7cbd 88bd 818b d53d d117 623d 0832 20be
000000c0: 6142 353e 0b94 c9bd be5b 6cbd 4143 a63e
000000d0: 118c dabd dd35 1f3d 66be 03bd e945 273e
000000e0: 0864 903e ca7f 3dbd 26f8 ba3d a608 e2bc
000000f0: 9262 173b 4ab4 363d 5f1a 0f3e a220 2ebd
00000100: 57bf 7a3d 7bb9 b83e c4af a83e b936 133f
00000110: 6dbb ebbd 1c7e 223e 1e4a 86bd 4d33 c23e
00000120: 73bd f33e abdd 30be dee2 13be 6c08 a43d
00000130: 1692 9cbe 2e6b 313f 3fb4 a9bb d847 febc
00000140: 4993 b2bd 484f e1be 3561 00be b213 303e
00000150: 1ff1 bc3e 9949 7a3d 5817 163d e60f c43d
00000160: 80f1 943d 2ba6 643d 0225 fa3e e4d8 e23d
00000170: 095c 1e3e bb56 ae3e d5f5 34be bc4d 22be
00000180: 6167 113d 6718 6d3e 3689 313b da3d 353c
00000190: 3a28 913e f91c c93e 559d ecbd 2d67 9ebe
000001a0: e7e5 93be 59db 8cbe ab5e 4c3e 6371 573e
000001b0: 4907 ac3e 7e6c 253f c35b 0d3e 62e3 98bd
000001c0: 1b34 173e a7f0 acbe 454b 0dbf e17a b7bd
000001d0: 4a93 8bbd 01c7 8b3e 6a88 dcbc 2961 73bd
000001e0: efe3 e93d 6fee 483f 60f2 61be 435e 493d
000001f0: a819 80be 7d0a 853e acfd 8bbd c5c3 bf3e
00000200: 0193 263e 062c e93d c3ed f43e cfde 513e
00000210: 4059 7e3e 17b1 873e 8ed0 0b3e 2f63 b73e
00000220: 81dc e63e 62ab c0be 59a2 42be 0d92 113e
00000230: 1c29 be3d ea19 403e dad1 353e 6a3f 563c
00000240: f99a 5ebd 018b 3dbd 30c5 49be fd36 f93d
00000250: cb8e a4be 50fe e2be 0714 273c 5766 89be
00000260: da4e 683e 0719 f83d b53a 693d a988 d5bd
00000270: 0b29 48be e7b7 f13d cbad 80be acc5 8a3e
00000280: bc68 28be eb6b 0a3e 0245 33be e354 153e
00000290: ace6 7a3d e004 89bd ea3c c9bd dc1f f3bc
000002a0: 0be6 c6be a3f7 953d 920c 99bd b399 ca3e
000002b0: 68df 9bbc de6a af3e 2b4a c03b fecf 87be
000002c0: 539e 21be 2086 d3bc dfe3 edbe 0dbb 5d3d
000002d0: 20bc 433d a276 01be 6928 a9be a9c2 c6bd
000002e0: b7fe 96bd 7802 293f f0d7 9bbe 3a41 433e
000002f0: 708b 86bc e6f4 de3e 9b25 c2bd a88f 6a3e
00000300: e0d4 9ebb 5c21 423e 2efd 793e 0d41 903e
00000310: 7ec2 81bd 4b36 513f 687d 033c c702 293f
00000320: 3fd7 a73e b259 193d 9e51 1dbe e9dd 983e
00000330: 19c9 e83d a417 9d3e aebf babd a853 a13d
00000340: 1c70 3f3e 1692 793d 947b 84be 5c55 44be
00000350: a0de b8be 25a3 e2be 8a12 bbbc a96d 57be
00000360: 23fd 27be 8d4a a8ba 4281 d63d 4c93 72bd
00000370: e77f 2b3e b1f8 563e d104 25bc 2734 973d
00000380: 9139 d3bd 0355 9f3d 0c86 a3be cf66 f83d
00000390: 7e48 833e a293 9e3e 4104 d8ba 0b33 243e
000003a0: ca05 06be bc49 3dbe ed9b 85bd 3bc2 f83d
000003b0: 630f 0c3e b5f5 793e d37e 03be 9ed9 793e
000003c0: 0ca8 133e 1996 32be e4df e2bd f43f 48be
000003d0: e44d 3bbe 74da 79be 20f1 0bbd bac4 98be
000003e0: deaf 9fbd 1bd2 eb3e 7ef5 c03b a04a 81be
000003f0: 426c 82be b7cf b63d cd50 e33d 8063 1f3f
-0.40220496 0.029809698 -0.13200161 0.2426422 -0.42546558 0.35431913 0.06608275 0.3496324
-0.21343863 -0.07376813 -0.23693107 0.055582434 -0.36661983 -0.057824157 -0.0080959955 -0.19358273
0.024707207 -0.16386198 -0.06740981 -0.049540807 0.12388462 -0.25335371 0.07387744 -0.18517177
0.27730405 -0.03787705 -0.01019976 -0.1471855 0.029107226 0.10078625 0.1232779 -0.25405765
0.12185138 -0.023083251 -0.21481097 0.21427584 -0.0391711 0.24262458 0.01611403 -0.05799314
-0.19761261 -0.043599024 -0.14114341 0.27587304 -0.06676766 0.10426999 0.055198494 -0.15644085
0.17701103 -0.0984269 -0.05770468 0.32473186 -0.10671247 0.038869727 -0.032164 0.16335262
0.28201318 -0.046264447 0.09129362 -0.027592015 0.0023099524 0.04460553 0.13974904 -0.04251159
0.061217632 0.3607901 0.329466 0.57505375 -0.11510358 0.1586842 -0.065571055 0.37929764
0.47605476 -0.1727206 -0.14442012 0.08009419 -0.30580205 0.6930417 -0.0051789577 -0.031040117
-0.08719499 -0.440058 -0.12537082 0.17195013 0.3690271 0.061105344 0.036643356 0.09573345
0.07272625 0.055822533 0.4885636 0.11076525 0.15464796 0.34050545 -0.17671902 -0.15849966
0.03549898 0.2315384 0.002708984 0.01106211 0.28351003 0.39279917 -0.11553446 -0.30938092
-0.2888634 -0.275111 0.19957988 0.21039347 0.33599308 0.6461867 0.13804536 -0.07465245
0.1476597 -0.33777353 -0.5519298 -0.08958984 -0.068152025 0.27300265 -0.026920516 -0.05941883
0.11420428 0.7848882 -0.22065115 0.04916216 -0.25019574 0.25984564 -0.068354934 0.37454048
0.16267015 0.1138535 0.47837648 0.20495151 0.24838734 0.26502296 0.13653776 0.3581786
0.45090106 -0.37630755 -0.19007243 0.1421587 0.09285185 0.18759885 0.17755833 0.0130766425
-0.054347012 -0.046275143 -0.19704127 0.12168691 -0.32140192 -0.4433465 0.010197646 -0.26835892
0.2268633 0.121141486 0.056940753 -0.104264565 -0.19546907 0.11802655 -0.25132594 0.27103937
-0.16446203 0.1351773 -0.17506793 0.14583163 0.061255142 -0.06690383 -0.098260716 -0.029678278
-0.38847384 0.073226236 -0.07473101 0.39570388 -0.019027427 0.3426122 0.0058682165 -0.26525873
-0.15783052 -0.025820792 -0.46462914 0.054133464 0.04778683 -0.12642911 -0.33038643 -0.09705097
-0.07372802 0.6601939 -0.30438185 0.1906785 -0.01642391 0.43546218 -0.09479829 0.22906363
-0.004847154 0.18958038 0.24412987 0.2817463 -0.063359246 0.8172347 0.008025505 0.6601986
0.32781407 0.037439056 -0.15363166 0.29856804 0.11366481 0.306821 -0.09118591 0.07877284
0.1869511 0.060930334 -0.25875533 -0.19173187 -0.3610735 -0.44265094 -0.022835989 -0.21037926
-0.16405158 -0.0012839601 0.10473873 -0.059222504 0.1674801 0.20993306 -0.010071949 0.07382994
-0.10313714 0.077798866 -0.31938207 0.12128984 0.25641245 0.3097201 -0.001648076 0.16035096
-0.13088146 -0.18485159 -0.06523881 0.121464215 0.13677745 0.24410136 -0.12841348 0.2439942
0.14419574 -0.1744007 -0.1107786 -0.19555646 -0.18291432 -0.2439974 -0.0341655 -0.2983759
-0.07797216 0.46058735 0.00588864 -0.25252247 -0.2547322 0.08926337 0.11099396 0.622612

net.mixturesofgaussianlayer_06.fc_sigma.bias f4 [5]
00000000: 0b76 07be 6c8e 93be 247a 89be ea54 7dbe
00000010: 39d1 1fbe
-0.13228624 -0.28819597 -0.26850998 -0.24739423 -0.15607156
