model/best_weights.pt (torch, 25685 bytes, 10 tensors)

net.linear_00.weight f4 [64, 1]
-1.6219358 -0.36531758 -2.563842 -0.004643998 1.1192896 0.49615452 0.23911554 -1.0074047
0.6568876 2.0031548 0.68798965 -0.32591408 0.35945138 0.98193336 -0.86665475 -1.6019661
0.39301953 -1.020061 -1.4077553 -2.8709147 1.165584 1.398771 1.625332 -1.837605
1.6334826 -0.75823414 -1.3113679 -0.7011548 -0.049696766 0.7678406 -0.6670015 -0.91094184
-1.2409803 -0.8954121 0.48013914 -1.1530441 1.3318841 0.5321989 -0.20832548 1.883303
0.9023845 0.6874687 -0.7022675 -0.40270835 0.63504016 -1.1436137 0.48463818 -1.0727261
-2.2404277 -0.36203018 1.6174513 -2.9008205 -2.4515057 0.19609125 -1.2096478 -0.38202268
0.520562 0.7228718 -0.43480924 0.11523496 -1.434315 -0.42894632 0.5039414 0.44743505
00000000: 989b cfbf e80a bbbe fd15 24c0 ae2c 98bb
00000010: e244 8f3f f707 fe3e b4da 743e a3f2 80bf
00000020: c929 283f b033 0040 1720 303f 36de a6be
00000030: 030a b83e fc5f 7b3f 16dd 5dbf 3a0d cdbf
00000040: db39 c93e 5c91 82bf 5331 b4bf 11bd 37c0
00000050: db31 953f ee0a b33f e10a d03f a436 ebbf
00000060: f515 d13f a21b 42bf e7da a7bf e27e 33bf
00000070: d68e 4bbd 3491 443f 9cc0 2abf 7c33 69bf
00000080: 71d8 9ebf ba39 65bf ccd4 f53e f396 93bf
00000090: 2e7b aa3f 303e 083f 4653 55be 1310 f13f
000000a0: ac02 673f f3fd 2f3f cec7 33bf ca2f cebe
000000b0: fe91 223f ef61 92bf 7f22 f83e 174f 89bf
000000c0: 2b63 0fc0 055c b9be a508 cf3f 0ba7 39c0
000000d0: 78e5 1cc0 25cc 483e bdd5 9abf 7a98 c3be
000000e0: 8d43 053f 200e 393f 519f debe 4f00 ec3d
000000f0: a297 b7bf da9e dbbe 4e02 013f 3516 e53e

net.linear_00.bias f4 [64]
-0.0011952643 -0.099368975 0.03104664 -0.15036312 0.11553706 0.01779664 0.046794716 -0.0034621544
0.09723855 0.053032897 0.066439465 -0.043232474 -0.025438366 0.11368594 -0.1497354 -0.019287389
-0.08825046 -0.08334645 -0.052695706 0.046685677 0.03453039 0.1527511 -0.1034772 0.008502677
0.16819306 -0.098622225 0.079851545 -0.09464329 -0.005588139 -0.04341863 -0.10788758 -0.07767228
-0.18110688 -0.10189968 -0.13400851 -0.19371049 -0.028382739 -0.042522624 -0.19316019 -0.11469557
-0.11223781 0.032080572 -0.07754018 0.07837787 -0.15760018 -0.031233916 0.039829925 -0.17268273
0.07286485 0.19400088 0.022903908 0.16858421 -0.21903704 0.025013348 0.035265427 0.11037582
0.04303676 0.08990809 0.034336217 -0.030410102 -0.006069036 0.029198641 -0.048691448 0.012831917
00000000: 6aaa 9cba f681 cbbd 8655 fe3c caf8 19be
00000010: b29e ec3d 42ca 913c d1ab 3f3d 50e5 62bb
00000020: 0125 c73d 0639 593d 6a11 883d 8914 31bd
00000030: 1f64 d0bc 2dd4 e83d 3d54 19be 9600 9ebc
00000040: a8bc b4bd 8bb1 aabd 74d7 57bd 7b39 3f3d
00000050: bd6f 0d3d c96a 1c3e dbeb d3bd d04e 0b3c
00000060: cd3a 2c3e 73fa c9bd 3589 a33d 57d4 c1bd
00000070: b51c b7bb bcd7 31bd 2af4 dcbd a512 9fbd
00000080: 1574 39be c8b0 d0bd 8739 09be 0b5c 46be
00000090: eb82 e8bc 342c 2ebd c9cb 45be 83e5 eabd
000000a0: f0dc e5bd eb66 033d 63cd 9ebd 9484 a03d
000000b0: f161 21be 45de ffbc b424 233d bed3 30be
000000c0: 2b3a 953d 2ba8 463e faa0 bb3c 57a1 2c3e
000000d0: 3f4b 60be cbe8 cc3c 7b72 103d b80c e23d
000000e0: 5047 303d bc21 b83d 22a4 0c3d 9b1e f9bc
000000f0: c4de c6bb fd31 ef3c af70 47bd f63c 523c

net.linear_03.weight f4 [64, 64]
0.4285905 0.028632173 0.23694938 -0.031714212 -0.40855885 0.16160628 0.30486798 0.27181166
-0.4242757 0.1607874 -0.38542894 0.045878842 0.08185266 -0.065940805 -0.1496807 0.19003142
0.015797127 0.059113003 -0.281481 0.005074748 0.16366826 0.10413022 0.28375152 -0.01757833
0.03488679 0.00959954 0.015333652 0.017510228 0.0011841164 0.14030336 0.27964166 0.21304579
0.1633154 -0.05840617 0.2660325 0.2450666 -0.04182015 0.28873158 -0.34500104 -0.29173586
-0.07710506 0.103706874 0.4356921 0.1320707 -0.044755235 0.3702538 0.21657988 -0.15658198
0.0005708989 -0.13697611 -0.20639579 -0.08956183 -0.20026152 0.12981975 -0.110445835 -0.03231997
0.07820144 0.15192756 0.16409767 0.046779767 -0.0696537 -0.36466244 -0.122265086 0.036897726
-0.27613267 -0.00039503115 0.13946998 0.011232963 0.20248604 0.2686068 0.15469107 -0.014631339
0.052465405 -0.1266174 0.25449368 -0.05820857 0.05293798 -0.17637646 -0.073073536 -0.1229195
-0.3115513 0.01829382 0.08434922 -0.40690815 -0.20768693 0.010415559 -0.14530641 -0.15232943
-0.10199373 0.20965461 0.17841718 -0.25947624 0.12676944 -0.11433367 -0.11345397 -0.21567528
-0.17968452 0.13465653 0.09450636 0.14166118 0.0805477 0.18856426 0.097890794 0.15555364
0.009485134 0.3352248 0.099843875 0.056664407 0.10811591 -0.19562623 -0.08903052 0.056451917
0.2041531 0.17408341 -0.12386138 -0.17193486 0.42783538 0.043498028 -0.11161809 0.11067631
-0.048180543 -0.014865318 0.0073352116 0.008656411 0.15415052 -0.10751596 -0.12962057 -0.04751471
0.18371154 0.16858561 -0.12331852 0.16266654 -0.14521217 0.26139596 0.12629512 -0.119706035
-0.075122826 0.27573147 -0.05444455 -0.16568609 -0.1891708 0.15071614 -0.014036532 0.103548214
-0.13249113 -0.17151569 0.35677296 -0.17320968 0.06995639 0.024006654 -0.029371848 0.024784472
-0.08224753 -0.14495134 0.159359 0.055943154 -0.0069833007 -0.28169343 0.058704678 -0.22806579
-0.15647738 0.44716153 -0.032026827 0.3002437 -0.20057064 -0.15058649 0.034683608 0.26447383
0.10432592 0.1469429 0.055146273 0.047736652 -0.06394418 -0.16278036 0.08332156 0.059763588
-0.044825394 0.05269032 -0.057971522 0.08478378 -0.12940657 -0.073745154 -0.01041114 0.018090704
0.0040469286 -0.003964404 0.09523451 -0.11493506 -0.36455342 0.13255383 -0.04061223 0.03585554
0.566834 0.23256451 -0.11391405 -0.06177238 -0.03806796 -0.08090703 -0.020400034 0.095811784
-0.21144465 -0.18840456 -0.42873177 -0.35319626 0.096697174 0.08440345 0.16884096 0.26660958
0.06922786 -0.106926985 0.3724542 0.011525833 0.10142821 0.024697812 0.14410661 -0.20193645
-0.13814805 0.1929267 -0.1930881 0.37471476 -0.26615578 0.21989748 -0.06589527 0.080513
-0.050833218 0.0002333655 -0.26788107 0.251611 0.008189348 -0.0043609785 0.34813094 -0.001984807
0.07824047 -0.36166793 -0.20868817 0.2951657 -0.029159278 -0.25948521 0.1202107 -0.13944048
-0.006907446 -0.07162628 0.19715685 0.2163717 0.16394363 0.085157774 0.12204228 0.24189508
0.16692205 0.0067257215 -0.031169416 -0.11956125 -0.12235463 0.037642095 0.0054108794 -0.1371345
00000000: 3770 db3e 058e ea3c dca2 723e c3e6 01bd
00000010: a02e d1be 1e7c 253e a817 9c3e e62a 8b3e
00000020: aa3a d9be 74a5 243e f156 c5be 74eb 3b3d
00000030: 5ea2 a73d f90b 87bd e645 19be 9997 423e
00000040: fa68 813c 7a20 723d 471e 90be 124a a63b
00000050: a798 273e 3a42 d53d e147 913e 6e00 90bc
00000060: 73e5 0e3d 6447 1d3c ff39 7b3c 9c71 8f3c
00000070: 5a34 9b3a afab 0f3e 312d 8f3e ad28 5a3e
00000080: 273c 273e 4f3b 6fbd 6935 883e bdf2 7a3e
00000090: 9b4b 2bbd a0d4 933e faa3 b0be 675e 95be
000000a0: 42e9 9dbd 4564 d43d 0913 df3e 8b3d 073e
000000b0: 4451 37bd e891 bd3e 1ec7 5d3e 0757 20be
000000c0: 60a8 153a 7743 0cbe 6b59 53be 316c b7bd
000000d0: 5b11 4dbe 78ef 043e 6d31 e2bd f261 04bd
000000e0: 1428 a03d e692 1b3e 3809 283e 249c 3f3d
000000f0: 99a6 8ebd 09b5 babe 1e66 fabd 1222 173d
00000100: 4361 8dbe 2f1c cfb9 38d1 0e3e 760a 383c
00000110: 8058 4f3e d586 893e 5667 1e3e 49b8 6fbc
00000120: f7e5 563d fea7 01be ff4c 823e 1c6c 6ebd
00000130: 7fd5 583d 089c 34be 94a7 95bd 38bd fbbd
00000140: a783 9fbe ecdc 953c 49bf ac3d 4456 d0be
00000150: e2ab 54be 05a6 2a3c 34cb 14be 3ffc 1bbe
00000160: 17e2 d0bd b3af 563e feb2 363e 12da 84be
00000170: d9cf 013e c527 eabd 8e5a e8bd fbd9 5cbe
00000180: 38ff 37be 67e3 093e 8d8c c13d a10f 113e
00000190: 31f6 a43d fd16 413e f87a c83d 7449 1f3e
000001a0: 8967 1b3c 96a2 ab3e f27a cc3d f018 683d
000001b0: e06b dd3d 3e52 48be a255 b6bd 203a 673d
000001c0: 830d 513e ec42 323e 09ab fdbd b10f 30be
000001d0: 3d0d db3e fd2a 323d 0698 e4bd 43aa e23d
000001e0: f658 45bd aa8d 73bc 375c f03b 9fd3 0d3c
000001f0: a2d9 1d3e 5431 dcbd 41bb 04be c99e 42bd
00000200: e11e 3c3e b5a1 2c3e 6c8e fcbd 0f92 263e
00000210: 80b2 14be b1d5 853e 8253 013e 7028 f5bd
00000220: ffd9 99bd ad2c 8d3e 4001 5fbd 9da9 29be
00000230: fdb5 41be 5555 1a3e 7bf9 65bc 1611 d43d
00000240: c1ab 07be cfa1 2fbe f2aa b63e e15d 31be
00000250: 4c45 8f3d 9aa9 c43c 3b9d f0bc ce08 cb3c
00000260: 6571 a8bd 206e 14be 012f 233e a624 653d
00000270: 2cd4 e4bb 1f3a 90be 5174 703d 148a 69be
00000280: 9b3b 20be 5bf2 e43e 902e 03bd 8bb9 993e
00000290: 6462 4dbe 5833 1abe 6610 0e3d 1d69 873e
000002a0: d4a8 d53d 3378 163e 0fe1 613d 8287 433d
000002b0: 2bf5 82bd e5af 26be 7ea4 aa3d aaca 743d
000002c0: d59a 37bd ced1 573d 8c73 6dbd 1ea3 ad3d
000002d0: 2883 04be b307 97bd 7c93 2abc f532 943c
000002e0: 199c 843b d5e7 81bb 500a c33d 1363 ebbd
000002f0: bfa6 babe 31bc 073e 0259 26bd 42dd 123d
00000300: 081c 113f 6425 6e3e c54b e9bd 0905 7dbd
00000310: 26ed 1bbd 96b2 a5bd f91d a7bc f838 c43d
00000320: f284 58be 20ed 40be bb82 dbbe 24d6 b4be
00000330: 2b09 c63d b7db ac3d a5e4 2c3e 0d81 883e
00000340: 56c7 8d3d 89fc dabd 51b2 be3e d9d6 3c3c
00000350: 98b9 cf3d 1153 ca3c af90 133e 6ec8 4ebe
00000360: af76 0dbe 948e 453e e3b8 45be 9dda bf3e
00000370: 9245 88be ce2c 613e 19f4 86bd 00e4 a43d
00000380: 7e36 50bd 93b3 7439 b527 89be 28d3 803e
00000390: 9d2c 063c 8ae6 8ebb 383e b23e 8913 02bb
000003a0: 8a3c a03d 8a2c b9be 5ab2 55be f51f 973e
000003b0: 70df eebc 3fdb 84be 0731 f63d 7cc9 0ebe
000003c0: db57 e2bb cdb0 92bd 7ce3 493e 8b90 5d3e
000003d0: d7e0 273e 3367 ae3d 4ef1 f93d 58b3 773e
000003e0: 9ded 2a3e 7163 dc3b 0157 ffbc 87dc f4bd
000003f0: 1095 fabd 992e 1a3d bf4d b13b fd6c 0cbe

net.linear_03.bias f4 [64]
0.04916739 -0.008497179 -0.022358185 -0.07611269 0.05106428 0.044507097 -0.08173731 0.02727208
0.018227223 -0.26065066 0.084834896 0.006367254 0.01983604 0.09217059 0.08471393 0.045315366
0.18612513 -0.21934788 -0.06010229 -0.054480087 -0.27343857 0.05591342 0.04687268 -0.0137777515
-0.38570073 0.015716536 -0.32828242 -0.5892501 0.033346716 -0.063788354 0.06961828 0.17430408
-0.17139408 0.004666744 -0.3336169 0.11206037 -0.09273923 -0.088667944 -0.15531613 -0.030370994
0.13884069 -0.4379192 0.1180022 0.029654918 -0.2784434 -0.3894887 0.16533592 -0.09778937
-0.049962357 0.08435073 -0.19853511 -0.4061053 -0.3070807 0.07744093 -0.029854791 -0.13098554
0.040972725 -0.207277 0.30062488 0.045650214 -0.12778215 -0.008027827 -0.021981625 -0.010121001
00000000: bf63 493d c037 0bbc 8328 b7bc f8e0 9bbd
00000010: c728 513d 134d 363d e465 a7bd b269 df3c
00000020: 4251 953c 0174 85be ebbd ad3d 66a4 d03b
00000030: 317f a23c efc3 bc3d 7f7e ad3d 9b9c 393d
00000040: 9697 3e3e bb9c 60be d22d 76bd 8326 5fbd
00000050: 2400 8cbe 7805 653d 91fd 3f3d 14bc 61bc
00000060: 917a c5be f7bf 803c a214 a8be 18d9 16bf
00000070: 9196 083d 78a3 82bd 0794 8e3d c57c 323e
00000080: ee81 2fbe 7ceb 983b d6cf aabe e87f e53d
00000090: 11ee bdbd 8a97 b5bd 310b 1fbe 97cc f8bc
000000a0: 412c 0e3e f236 e0be 23ab f13d dfee f23c
000000b0: 2290 8ebe 106b c7be d24d 293e cb45 c8bd
000000c0: 54a5 4cbd 13c0 ac3d ca4c 4bbe 09ed cfbe
000000d0: ae39 9dbe 5a99 9e3d 0992 f4bc 1321 06be
000000e0: 04d3 273d 6c40 54be 81eb 993e b8fb 3a3d
000000f0: 53d9 02be 2687 03bc cf12 b4bc 8ed2 25bc

net.mixturesofgaussianlayer_06.fc_pi.weight f4 [5, 64]
-0.16272257 0.15404408 -0.20010364 0.04183716 -0.20378284 0.2601565 0.23553057 -0.22798279
-0.046428733 -0.15216358 -0.018604582 -0.10161715 0.10447734 0.037536353 0.03866313 -0.050048944
-0.0009974451 -0.32096714 0.19309925 -0.21210885 0.043067314 0.017308734 0.15264513 -0.07422675
0.24104042 -0.017109146 -0.108185776 0.09265375 0.22287625 -0.34613302 0.102437265 -0.16768551
0.39557892 -0.18018049 0.16366012 0.16114582 -0.30972192 0.24127461 -0.16655444 0.20877391
0.0096318815 -0.32555917 0.12027085 0.20729738 -0.1460765 0.044126607 0.05567145 -0.2609114
-0.14811069 -0.14840089 -0.177306 -0.24330892 -0.12473057 -0.0043625664 0.069737755 -0.14034939
-0.25859594 -0.356845 -0.09182257 -0.15131412 -0.38192877 -0.2776457 -0.06701273 -0.118692696
-0.3201283 0.056057572 0.11593727 -0.26784387 -0.52174175 0.080203556 -0.06762056 -0.75282955
0.07253452 -0.047897555 -0.22661968 0.15835291 -0.8207084 0.48760173 -0.09949651 -0.3035908
0.7604523 -0.1616174 -0.34297523 0.70801646 0.047757775 0.24029578 0.23964056 -0.26267675
-0.085881256 -0.14422558 0.22207138 -0.7933048 0.26651713 -0.3649659 -0.22027045 -0.49846503
-0.20895374 -0.7396568 -0.25290647 0.5465418 0.14559822 -0.8341602 -0.3846393 0.15065658
-0.4929068 -0.41740704 -0.4182682 0.05331559 -0.05734597 -0.45764557 0.4238125 -0.08866437
-0.13401635 0.35802028 -0.45711145 -0.58155954 -0.50842553 -0.06632614 0.44492152 0.09658143
-0.027637752 -0.50597095 -0.86054796 -0.23468365 0.49543852 -0.25765955 -0.28142336 -0.21578194
-0.08575245 -0.24515545 -0.071986265 -0.24336575 -0.08995889 0.15805878 0.2663774 -0.030816969
-0.16145223 0.15894194 -0.3209034 -0.07377456 -0.31030688 -0.0529605 -0.032879747 -0.32211033
0.076421425 0.22824511 -0.12640119 0.4153782 0.58767015 0.06445776 -0.09281622 -0.17735066
0.3055045 -0.19977376 0.20584215 0.57622945 -0.24443163 0.034493417 -0.08333385 -0.22096854
0.55328536 -0.15187217 0.16378649 -0.18040174 -0.08524718 0.19020124 -0.002543628 0.11536219
0.11202262 0.35594323 -0.19971405 -0.11138624 0.3579477 0.3076332 -0.077875964 -0.09661183
0.22236373 -0.073464565 0.5541591 0.3684798 0.54680973 -0.25770783 -0.11664089 -0.14503397
0.22617708 -0.2723665 -0.5338904 -0.053355597 0.2515646 -0.26171643 -0.023482034 -0.02331897
0.16149762 -0.21316443 -0.17957622 0.34397423 0.25627095 -0.10120057 -0.18090998 0.16691966
-0.33867154 0.32614332 -0.043792956 -0.15006858 0.16801465 -0.16706726 0.26390406 0.044248905
-0.3657277 0.28893864 0.2617445 0.44193426 -0.08662455 -0.1041111 -0.20207383 -0.003197165
0.5691941 0.2549768 0.094659895 0.8463024 0.03868352 0.11960168 0.0920114 0.010292703
-0.26012427 0.033806223 -0.00844661 -0.3265869 0.22804384 0.24799746 -0.19777967 0.1717079
-0.47333878 0.23575687 -0.23496906 -0.06728833 0.3320975 0.010787252 0.37823278 0.08092184
0.2023977 -0.4211789 -0.18658884 -0.2962954 0.24098183 0.33991864 -0.06454909 0.18347774
0.21308023 0.40309128 0.52607167 0.022442698 0.028410533 0.17807789 -0.089505896 -0.053339813
00000000: bfa0 26be bbbd 1d3e f8e7 4cbe 715d 2b3d
00000010: 73ac 50be 3c33 853e ed2e 713e 5274 69be
00000020: 0e2c 3ebd c5d0 1bbe a368 98bc a71c d0bd
00000030: 37f8 d53d b8bf 193d 3b5d 1e3d 1f00 4dbd
00000040: b4bc 82ba ce55 a4be cfbb 453e 1033 59be
00000050: 5a67 303d 0ccb 8d3c 014f 1c3e 3204 98bd
00000060: 4dd3 763e 7b28 8cbc 8190 ddbd 40c1 bd3d
00000070: ac39 643e 5938 b1be a1ca d13d c0b5 2bbe
00000080: 5289 ca3e 3c81 38be 8596 273e 6903 253e
00000090: df93 9ebe b110 773e 3f8d 2abe d4c8 553e
000000a0: 0acf 1d3c b1af a6be 9050 f63d c445 543e
000000b0: 1495 15be 1abe 343d bf07 643d 2e96 85be
000000c0: 54aa 17be 67f6 17be b48f 35be f925 79be
000000d0: be72 ffbd dcf3 8ebb abd2 8e3d c0b7 0fbe
000000e0: b066 84be 63b4 b6be 790d bcbd 17f2 1abe
000000f0: 2b8c c3be 9427 8ebe f83d 89bd 2815 f3bd
00000100: dbe7 a3be a09c 653d 8570 ed3d d522 89be
00000110: de90 05bf c341 a43d a67c 8abd 70b9 40bf
00000120: fa8c 943d 3a30 44bd fd0e 68be 4427 223e
00000130: f219 52bf efa6 f93e d4c4 cbbd 4170 9bbe
00000140: 00ad 423f 087f 25be 739a afbe 9140 353f
00000150: a89d 433d 1910 763e 5664 753e 917d 86be
00000160: 83e2 afbd dfaf 13be ae66 633e 0616 4bbf
00000170: ef74 883e cfdc babe 948e 61be cf36 ffbe
00000180: f8f7 55be 265a 3dbf f57c 81be 2aea 0b3f
00000190: b317 153e 868b 55bf 71ef c4be b845 1a3e
000001a0: 485e fcbe 60b6 d5be 4027 d6be 7361 5a3d
000001b0: 9ce3 6abd 8550 eabe f4fd d83e aa95 b5bd
000001c0: 953b 09be 6f4e b73e 830a eabe 16e1 14bf
000001d0: 2d28 02bf 00d6 87bd c1cc e33e 7ccc c53d
000001e0: 9168 e2bc 5087 01bf df4c 5cbf e950 70be
000001f0: 1eaa fd3e f4eb 83be b916 90be f1f5 5cbe
00000200: fb9e afbd 080a 7bbe 896d 93bd df34 79be
00000210: 5e3c b8bd 29da 213e 9e62 883e de73 fcbc
00000220: bc53 25be adc1 223e 734d a4be 1e17 97bd
00000230: 8be0 9ebe 1ced 58bd eaac 06bd a5eb a4be
00000240: d682 9c3d 16b9 693e 506f 01be 74ac d43e
00000250: 8d71 163f 6e02 843d 6e16 bebd 699b 35be
00000260: 166b 9c3e 7e91 4cbe 49c8 523e c683 133f
00000270: 494c 7abe f848 0d3d f0aa aabd 9445 62be
00000280: 1ca4 0d3f 6184 1bbe a5b7 273e 3cbb 38be
00000290: 1396 aebd 1dc4 423e ffb2 26bb 0343 ec3d
000002a0: 1e6c e53d 313e b63e d781 4cbe 781e e4bd
000002b0: ec44 b73e 1982 9d3e 6f7d 9fbd 6cdc c5bd
000002c0: 51b3 633e 9774 96bd 5fdd 0d3f 62a9 bc3e
000002d0: b9fb 0b3f 48f2 83be 6be1 eebd c983 14be
000002e0: f79a 673e 9f73 8bbe 0bad 08bf 668b 5abd
000002f0: 13cd 803e b2ff 85be 655d c0bc 6d07 bfbc
00000300: a25f 253e c747 5abe d4e2 37be 641d b03e
00000310: f235 833e 3f42 cfbd 7740 39be fdec 2a3e
00000320: 5b66 adbe 42fc a63e 3e60 33bd 94ab 19be
00000330: 080c 2c3e ae13 2bbe 6f1e 873e 573e 353d
00000340: a940 bbbe c4ef 933e 6003 863e 3545 e23e
00000350: 3668 b1bd 3338 d5bd 71ec 4ebe 8787 51bb
00000360: b4b6 113f 528c 823e 0cdd c13d 46a7 583f
00000370: 9c72 1e3d baf1 f43d 7970 bc3d baa2 283c
00000380: 022f 85be 6578 0a3d a663 0abc 6636 a7be
00000390: 5384 693e 0cf3 7d3e c186 4abe 32d4 2f3e
000003a0: 7659 f2be 406a 713e bb9b 70be 77ce 89bd
000003b0: af08 aa3e 04bd 303c baa7 c13e 5aba a53d
000003c0: 5841 4f3e c3a4 d7be 2511 3fbe 08b4 97be
000003d0: f1c3 763e d109 ae3e 5032 84bd 97e1 3b3e
000003e0: b431 5a3e fb61 ce3e a2ac 063f c0d9 b73c
000003f0: 35bd e83c 0d5a 363e de4e b7bd d97a 5abd

net.mixturesofgaussianlayer_06.fc_pi.bias f4 [5]
-0.035306837 0.31804875 -0.40419275 -0.14530057 0.1515073
00000000: e79d 10bd 49d7 a23e 5af2 cebe acc9 14be
00000010: bb24 1b3e

net.mixturesofgaussianlayer_06.fc_mu.weight f4 [5, 64]
-0.1517732 -0.2982981 0.30919752 0.08398641 0.35562134 0.17381333 -0.16860783 -0.0527349
-0.0151616335 -0.035965085 -0.20961142 -0.285786 -0.03768683 -0.1193047 0.18396199 0.056936637
0.042513534 -0.028478188 -0.28012303 0.027090948 -0.2451989 -0.14280552 0.09964766 0.23302817
-0.112535335 -0.118428454 -0.08785462 -0.13861579 -0.43517986 0.029593034 0.002724075 -0.375828
0.031576127 -0.3278468 -0.18974428 -0.059176877 0.2486207 -0.08415138 0.11374923 -0.039867684
0.13747637 -0.20629048 0.012083249 0.2099852 0.25020936 0.021251498 -0.034337718 -0.016523141
0.29315048 -0.05115347 0.15230145 0.039441828 -0.03769509 -0.11375082 0.19284539 -0.12776752
-0.066204935 -0.14850962 -0.19595271 0.10970464 -0.006021281 -0.07065504 0.13547781 0.15589082
-0.0002997109 0.03130926 -0.22209428 0.0607604 0.13561101 -0.09600694 0.17922275 0.05025667
-0.11148659 0.04008531 -0.29507416 -0.11467714 0.07638866 0.15020356 0.20409434 0.011399824
0.011147369 -0.28633395 0.22989792 0.010016983 -0.18534113 0.049504437 -0.102351524 -0.04412983
-0.16800176 -0.11080921 -0.08512086 0.087909795 0.08440647 -0.17643799 0.27039456 0.318316
0.027913276 -0.37181583 0.10582232 -0.22480415 0.14986113 -0.32834902 -0.093542464 0.08799427
-0.0089038415 0.08257349 -0.54586923 -0.17371719 0.1611779 0.017068526 -0.1113732 0.30655736
0.092766166 -0.18174455 -0.039507695 -0.25594842 0.18838198 -0.16642262 -0.22641282 -0.03847409
0.10085779 0.076003686 0.18747728 0.002151926 -0.025594227 0.042286016 0.0039518173 -0.23212978
0.050747845 -0.006814375 -0.015068574 -0.20448743 0.13447237 0.12405041 0.07947036 0.4058482
0.2580532 -0.07344242 0.11484827 -0.36190754 0.13225704 0.1059603 0.117699526 -0.23751172
0.095900126 0.1790772 -0.18465973 0.034586173 0.05820582 -0.030292403 -0.17246652 0.124336496
-0.21702407 -0.021576287 -0.080344535 -0.09363679 -0.03321325 -0.35309547 -0.4879404 0.15213181
0.07726463 0.48519355 0.16336796 -0.13595009 0.35331297 -0.26516262 0.17960678 -0.16588984
0.09495595 -0.08848367 0.1044054 -0.21583275 -0.112100706 -0.020252783 0.090563886 -0.022560932
0.049226403 0.05392184 0.07560574 -0.03411441 0.14751215 0.20886959 -0.031297773 -0.18200305
0.28577527 -0.12990485 0.0025983125 0.22700739 -0.07022441 0.1638856 -0.04923077 -0.02640022
0.08447293 -0.07219878 0.3863364 0.072268784 0.17520325 0.14666589 0.033268813 0.13442297
0.0017983877 -0.009536584 0.10545823 0.09222538 0.0675026 0.08247147 0.10524437 -0.27876255
0.10263527 -0.38916183 0.042137846 -0.06896282 -0.06289745 -0.39731735 -0.2900157 0.040687375
-0.27901667 -0.120745465 -0.01576007 0.3715829 -0.527605 -0.18094596 0.1270428 -0.007641563
0.26854345 0.11856062 0.08558127 0.09608319 -0.01755797 0.104604825 -0.09620679 -0.0069814394
0.11155065 -0.14204347 0.15550593 0.19916603 -0.22359942 -0.047560275 0.08438596 -0.08401902
0.08121176 -0.18181595 -0.031391967 0.04211353 0.07587631 -0.009006341 0.13898037 0.014077083
-0.1353523 0.007183237 0.1242781 -0.17273936 0.02083645 0.033476338 -0.37308317 0.03951242
00000000: 6f6a 1bbe 87ba 98be 234f 9e3e 1101 ac3d
00000010: 0014 b63e 1ffc 313e 88a7 2cbe 8d00 58bd
00000020: 8068 78bc 2050 13bd 60a4 56be 8b52 92be
00000030: 815d 1abd 0656 f4bd 8860 3c3e 6436 693d
00000040: ac22 2e3d 174b e9bc 496c 8fbe d6ed dd3c
00000050: 6c15 7bbe 9c3b 12be 1314 cc3d f09e 6e3e
00000060: ed78 e6bd 9e8a f2bd 1fed b3bd 4cf1 0dbe
00000070: e5cf debe 176d f23c 6586 323b 876c c0be
00000080: f855 013d 89db a7be 534c 42be 7463 72bd
00000090: 6d96 7e3e 8f57 acbd 5bf5 e83d 4c4c 23bd
000000a0: 9bc6 0c3e d03d 53be d2f8 453c 5c06 573e
000000b0: 711b 803e 9f17 ae3c b5a5 0cbd 8a5b 87bc
000000c0: d217 963e 4d86 51bd e9f4 1b3e c18d 213d
000000d0: 2b66 1abd 31f6 e8bd 4379 453e 7dd5 02be
000000e0: 7496 87bd e812 18be d4a7 48be d4ac e03d
000000f0: 2a4e c5bb 97b3 90bd b2ba 0a3e d8a1 1f3e
00000100: 8422 9db9 233e 003d af6c 63be e6df 783d
00000110: 9ddd 0a3e 499f c4bd 2b86 373e f0d9 4d3d
00000120: 1553 e4bd 7e30 243d f613 97be d9db eabd
00000130: a871 9c3d f6ce 193e 1bfe 503e 54c6 3a3c
00000140: 74a3 363c 5d9a 92be 5c6a 6b3e 461e 243c
00000150: 11ca 3dbe 2ac5 4a3d ad9d d1bd 7bc1 34bd
00000160: a708 2cbe f0ef e2bd d853 aebd 0d0a b43d
00000170: 4ddd ac3d 29ac 34be 2871 8a3e 51fa a23e
00000180: 62aa e43c a55e bebe 5fb9 d83d 0f33 66be
00000190: 3275 193e 5d1d a8be 3193 bfbd 5736 b43d
000001a0: 6be1 11bc 4a1c a93d 16be 0bbf ebe2 31be
000001b0: d20b 253e 4bd3 8b3c a217 e4bd 16f5 9c3e
000001c0: 30fc bd3d 3e1b 3abe d2d2 21bd ac0b 83be
000001d0: 35e7 403e b16a 2abe c3d8 67be 0297 1dbd
000001e0: 878e ce3d d2a7 9b3d 0bfa 3f3e 5407 0d3b
000001f0: fcaa d1bc 1a34 2d3d 3f7e 813b 6eb3 6dbe
00000200: f9dc 4f3d 1f4b dfbb 2ee2 76bc 2765 51be
00000210: 20b3 093e 240e fe3d 5bc1 a23d 56cb cf3e
00000220: 8d1f 843e fb68 96bd 9235 eb3d f24b b9be
00000230: 646e 073e b701 d93d 730c f13d 4636 73be
00000240: 4967 c43d 0360 373e 7117 3dbe 3baa 0d3d
00000250: 3a69 6e3d c627 f8bc 109b 30be 22a4 fe3d
00000260: 8f3b 5ebe c1c0 b0bc ad8b a4bd a5c4 bfbd
00000270: 9e0a 08bd eec8 b4be 53d3 f9be 71c8 1b3e
00000280: eb3c 9e3d 4a6b f83e ee49 273e 8036 0bbe
00000290: 70e5 b43e 65c3 87be d7ea 373e 07df 29be
000002a0: 4478 c23d ed36 b5bd 80d2 d53d 4303 5dbe
000002b0: 0e95 e5bd 2ae9 a5bc 8f79 b93d b4d1 b8bc
000002c0: a0a1 493d 26dd 5c3d 2fd7 9a3d 8dbb 0bbd
000002d0: 6d0d 173e e9e1 553e 1832 00bd 025f 3abe
000002e0: 2351 923e c705 05be 7348 2a3b a074 683e
000002f0: d1d1 8fbd a0d1 273e 34a6 49bd 4645 d8bc
00000300: 2500 ad3d f4dc 93bd e2cd c53e a801 943d
00000310: 7b68 333e 952f 163e e144 083d 2da6 093e
00000320: e1b7 eb3a 553f 1cbc 7cfa d73d a9e0 bc3d
00000330: ce3e 8a3d cde6 a83d 5c8a d73d f7b9 8ebe
00000340: 7132 d23d 3840 c7be bc98 2c3d 613c 8dbd
00000350: 61d0 80bd 2e6d cbbe f07c 94be cea7 263d
00000360: 46db 8ebe 6649 f7bd 431b 81bc 1d40 be3e
00000370: 1f11 07bf e649 39be 8217 023e 1466 fabb
00000380: 877e 893e e9cf f23d 3c45 af3d 43c7 c43d
00000390: bbd5 8fbc 0e3b d63d 1108 c5bd 8fc4 e4bb
000003a0: ab74 e43d d873 11be f23c 1f3e 2ef2 4b3e
000003b0: 3ff7 64be 90ce 42bd 8cd2 ac3d 2a12 acbd
000003c0: 5a52 a63d f62d 3abe dd94 00bd 3d7f 2c3d
000003d0: 0a65 9b3d 558f 13bc df50 0e3e 91a3 663c
000003e0: cb99 0abe 5c61 eb3b 8485 fe3d 96e2 30be
000003f0: 34b1 aa3c 7c1e 093d c204 bfbe c6d7 213d

net.mixturesofgaussianlayer_06.fc_mu.bias f4 [5]
-0.0029409206 0.0456673 0.05195374 0.024886454 -0.0052963425
00000000: 76bc 40bb a20d 3b3d 72cd 543d adde cb3c
00000010: f18c adbb

net.mixturesofgaussianlayer_06.fc_sigma.weight f4 [5, 64]
-0.086806 0.06808154 -0.31707108 -0.3174169 -0.27810383 -0.07782527 0.52946186 -0.0040913997
0.056267835 0.5535689 -0.3507911 -0.3239963 -0.046406716 -0.2517652 -0.4854647 0.099148616
-0.35745907 0.57713884 -0.22071844 -0.004219158 0.5174589 -0.45311806 -0.026749568 -0.08607035
0.5193606 -0.3241623 0.7529937 0.37337905 -0.24614619 -0.03216541 0.06258114 0.020493418
0.44830683 -0.06520574 0.6267447 -0.3178283 0.048390802 0.073535964 0.5351975 -0.10755632
-0.020197853 0.32717082 -0.31632403 0.00036492766 0.34346074 0.6909492 -0.31889504 -0.22996873
0.0497763 -0.076856814 0.065767534 0.64076304 0.4775036 -0.1892306 0.18470469 -0.30345073
-0.29551312 -0.06989657 -0.2102211 -0.14373897 0.09952347 -0.05690136 0.012435689 0.02390247
0.0062877554 0.049958114 0.20359732 0.07744086 0.04176314 -0.48263487 0.23933244 0.08369503
-0.18961756 0.24749726 0.51268816 0.07102962 0.36771175 -0.15685698 0.00633757 0.13700208
-0.3740734 0.607996 0.34330544 -0.14758 0.111286186 -0.5361309 -0.26569435 0.25864425
0.21232012 0.12504561 0.17163785 0.611669 -0.12401517 0.028574131 0.3294089 0.20526306
0.13703611 0.19881096 0.4709882 -0.26969627 0.08121263 0.1125338 0.03210032 -0.03883973
-0.09781899 0.09970813 0.36836296 -0.3921643 0.2432492 0.8094349 -0.12215503 0.020907436
0.0900436 -0.33928245 -0.05634453 0.27698138 0.44889206 -0.45124552 -0.10006602 -0.16159366
0.122642346 0.13399437 0.19077796 -0.13698332 0.08640314 0.054294914 -0.011349811 0.4026916
-0.15651903 0.042089183 0.2715319 0.06411242 0.23503473 0.011164597 0.14419614 -0.4440046
0.09276631 0.03394583 -0.2781162 -0.10694683 0.10986997 0.03989991 -0.09560646 -0.112530254
-0.041948635 0.1789222 -0.23425968 0.38507617 0.22422884 -0.19264974 -0.062044233 -0.28757265
0.1098829 0.049070887 0.43700796 0.07838389 -0.06865631 0.26806274 0.048245106 -0.15224634
0.34358037 -0.15240315 0.36554402 -0.291547 0.15865365 0.033143245 -0.06065544 -0.13001905
-0.014273108 0.7786297 -0.05207686 -0.42326814 0.19243643 0.34184185 0.045262378 0.04975176
-0.12090471 0.08994458 0.2696657 0.3918738 0.43768436 -0.26800525 0.27362615 -0.2998533
-0.16729404 0.05644128 -0.06753991 -0.0010553655 0.3358675 0.2057552 -0.14082918 -0.064802796
0.061965294 -0.15718764 -0.060042772 0.23467304 0.27239853 0.0121978475 0.17936267 0.056121636
-0.033938356 0.116610125 0.029565927 -0.23133063 0.104704864 -0.28184032 -0.2745948 -0.18780845
-0.2264819 0.33142158 0.14558594 -0.04145726 0.52138495 -0.23098676 -0.33292907 -0.07130058
0.09278134 -0.23331417 -0.018678702 0.52735543 0.01086783 -0.06051147 -0.19774292 0.50285304
0.082299255 -0.20522666 0.4351895 -0.01633685 0.33506992 0.5456893 -0.03963791 0.17170724
0.3144632 0.76980907 -0.07197457 -0.24253708 0.28315502 0.48100522 -0.29881793 0.23327011
-0.17298552 -0.356641 0.19101727 0.37816855 0.5398322 -0.03214446 0.065102756 0.006454805
-0.0036240588 0.06488869 -0.1673205 -0.03931073 -0.019122198 -0.09768102 -0.024850685 -0.05573944
00000000: 58c7 b1bd 566e 8b3d 2457 a2be 7884 a2be
00000010: a063 8ebe db62 9fbd d08a 073f 2611 86bb
00000020: 1a79 663d b1b6 0d3f e49a b3be d8e2 a5be
00000030: f814 3ebd 5ee7 80be d48e f8be 6e0e cb3d
00000040: e004 b7be 5fbf 133f 0404 62be dd40 8abb
00000050: 3078 043f 17ff e7be e921 dbbc a745 b0bd
00000060: d1f4 043f 9af8 a5be 32c4 403f 8a2b bf3e
00000070: bf0d 7cbe e1bf 03bd 8a2a 803d d0e1 a73c
00000080: 7988 e53e 968a 85bd 5772 203f 64ba a2be
00000090: 6f35 463d 069a 963d b402 093f 7d46 dcbd
000000a0: f875 a5bc ef82 a73e 39f5 a1be c353 bf39
000000b0: 16da af3e 0ce2 303f 3646 a3be ec7c 6bbe
000000c0: 3ce2 4b3d 1b67 9dbd 21b1 863d 0c09 243f
000000d0: 5a7b f43e abc5 41be 3a23 3d3e e55d 9bbe
000000e0: 7f4d 97be ef25 8fbd 3344 57be 4f30 13be
000000f0: f6d2 cb3d 6711 69bd 0fbf 4b3c 1dcf c33c
00000100: 8409 ce3b e1a0 4c3d d17b 503e 5099 9e3d
00000110: d40f 2b3d eb1b f7be 9013 753e 4d68 ab3d
00000120: 1b2b 42be ec6f 7d3e 883f 033f fa77 913d
00000130: b744 bc3e 1e9f 20be 64ab cf3b 464a 0c3e
00000140: 8c86 bfbe a0a5 1b3f bbc5 af3e 361f 17be
00000150: 03ea e33d e03f 09bf 1709 88be 056d 843e
00000160: 726a 593e f50b 003e d5c1 2f3e 5796 1c3f
00000170: aafb fdbd 4c14 ea3c 49a8 a83e 7b30 523e
00000180: 3253 0c3e 1a95 4b3e 5e25 f13e a115 8abe
00000190: cf52 a63d 1f78 e63d a07b 033d 6916 1fbd
000001a0: 5355 c8bd c733 cc3d 129a bc3e c2c9 c8be
000001b0: 5116 793e 2037 4f3f 6b2c fabd 1246 ab3c
000001c0: c768 b83d 6eb6 adbe 86c9 66bd 81d0 8d3e
000001d0: 2ed5 e53e a709 e7be 6aef ccbd cf78 25be
000001e0: e92b fb3d d235 093e 4c5b 433e 5b45 0cbe
000001f0: 21f4 b03d 5864 5e3d 8ff4 39bc 982d ce3e
00000200: 8646 20be b565 2c3d 3b06 8b3e 5f4d 833d
00000210: f2ac 703e b7eb 363c 27a8 133e 9254 e3be
00000220: 43fc bd3d c80a 0b3d 3f65 8ebe f106 dbbd
00000230: 8203 e13d 176e 233d 52cd c3bd 4376 e6bd
00000240: 55d2 2bbd 6237 373e c5e1 6fbe b428 c53e
00000250: 3f9c 653e f945 45be 1822 7ebd b93c 93be
00000260: 490a e13d 8efe 483d 82bf df3e bc87 a03d
00000270: ae9b 8cbd 853f 893e a99c 453d 77e6 1bbe
00000280: c4e9 af3e 920f 1cbe 9628 bb3e a645 95be
00000290: 1a76 223e 36c1 073d d771 78bd b723 05be
000002a0: c1d9 69bc 4754 473f 8c4e 55bd 9ab6 d8be
000002b0: 0e0e 453e e505 af3e 0b65 393d 80c8 4b3d
000002c0: e39c f7bd dd34 b83d 9f11 8a3e afa3 c83e
000002d0: 2a18 e03e fc37 89be ba18 8c3e 5f86 99be
000002e0: 214f 2bbe f92e 673d 5d52 8abd 3154 8aba
000002f0: d3f6 ab3e 7eb1 523e 8635 10be 54b7 84bd
00000300: 52cf 7d3d ccf5 20be 69ef 75bd 214e 703e
00000310: d277 8b3e 7bd9 473c d9aa 373e cddf 653d
00000320: f202 0bbd 4ad1 ee3d 3e34 f23c f0e1 6cbe
00000330: 816f d63d 604d 90be b197 8cbe dc50 40be
00000340: dfea 67be 17b0 a93e 7b14 153e 16cf 29bd
00000350: 7c79 053f cb87 6cbe ae75 aabe 0a06 92bd
00000360: 2504 be3d e9e9 6ebe 1404 99bc c400 073f
00000370: fc0e 323c e0da 77bd 1f7d 4abe faba 003f
00000380: 838c a83d f026 52be 28d1 de3e dcd4 85bc
00000390: 498e ab3e 4bb2 0b3f 5c5b 22bd 06d4 2f3e
000003a0: 5201 a13e 3512 453f 6767 93bd a45b 78be
000003b0: b2f9 903e 5146 f63e aafe 98be 5cde 6e3e
000003c0: 1e23 31be a699 b6be 089a 433e 4f9f c13e
000003d0: 7132 0a3f e9a9 03bd 9854 853d d482 d33b
000003e0: 9e81 6dbb 5de4 843d 1156 2bbe 4a04 21bd
000003f0: 28a6 9cbc fd0c c8bd aa93 cbbc 0a4f 64bd

net.mixturesofgaussianlayer_06.fc_sigma.bias f4 [5]
-0.40492424 -0.40381226 -0.25632927 -0.15331827 -0.31455147
00000000: 3b52 cfbe 7bc0 cebe 973d 83be 77ff 1cbe
00000010: e40c a1be
