model/best_model_jit.pth (torch, 48274 bytes, 10 tensors)

weight f4 [64, 1]
00000000: 266d 333f a969 91bf 7871 f63f 5419 993f
00000010: 9307 94be 8cd9 0ebf 6faa 2bc0 8bd6 2940
00000020: b9e1 57c0 1eba f9bf 62be 42bf cce2 833f
00000030: 5b7a 9dbf 3027 953f 368b 34be e9fb 09be
00000040: 2977 78bf cc8a 85bf e044 62bf 7ed5 c4bf
00000050: 670c 563f 7752 1e3f 755c f73e 40f9 04bf
00000060: 0a97 003f b528 d43f 93ed b93f 4bc3 eebf
00000070: a78a c23f e096 093f bfc5 0e40 48d1 04be
00000080: f6ab 343f fa13 e53e 4ae3 4cbf 9892 38be
00000090: 5e76 dabe 91dc 143f 46ab 253f a9f0 66bf
000000a0: 89c1 b6be 08b0 953f c489 8fbf 6d8a 45bf
000000b0: fc4f cabd 12f5 1b40 57ba d0be 1b0e 1fc0
000000c0: 16cb 15bf 20cd d53d 8607 32c0 7744 33bd
000000d0: 66d5 4dc0 838b 213f 34d5 2f3f 6f94 0240
000000e0: 6e7d 193f 8fc2 d8bf b413 d13f 8c42 c23e
000000f0: ba33 ca3e ae10 fc3f cf29 e9bc 9fa6 623b
0.7008842 -1.136037 1.9253378 1.1960855 -0.2891203 -0.558007 -2.6822774 2.6537197
-3.373152 -1.9509923 -0.7607175 1.0303588 -1.2302965 1.1652584 -0.1763123 -0.13475002
-0.97056824 -1.0432982 -0.88386345 -1.5377653 0.83612674 0.6184458 0.48312727 -0.51942825
0.5023047 1.6574923 1.4525627 -1.8653349 1.5198563 0.5374584 2.2308195 -0.1297046
0.7057489 0.44741803 -0.80034316 -0.18024671 -0.42668432 0.5814906 0.6471447 -0.9021097
-0.3569453 1.1694345 -1.1213918 -0.77164346 -0.09878537 2.436833 -0.40767166 -2.485236
-0.5851301 0.10439515 -2.7817092 -0.043766465 -3.2161498 0.63103503 0.686847 2.0403097
0.59957016 -1.6934375 1.6334138 0.37941396 0.3949259 1.969259 -0.028462319 0.0034584177

bias f4 [64]
00000000: deb6 d8bc 1641 9bbd 42c0 4dbd 9216 f8bc
00000010: 995a a1bd f3ea ffbc 49de e73d 3f3b 9c3b
00000020: 0360 bb3d 9c55 a23d 7b03 163d d4fa 15bd
00000030: b48c 7cbc bb6b b93c 6a12 26bd 5de9 efbd
00000040: 360a 6cbc 093f c8bd f4c0 debc 059f 08be
00000050: 8c1d 06bd e09c 213d 0f69 883c 8281 38bc
00000060: d45d 443a fd26 183c d804 433d a35b 3e3d
00000070: 092a bd3d cbd8 d03c 0296 d93d 9930 cabd
00000080: df71 843b 107c 673d 2a38 863c dcdb 29be
00000090: 83f9 08be 0afa 8fbb 9700 bd3a 12a9 e3bc
000000a0: 0f54 cebd b912 143d 4d63 9cbd d1d2 babd
000000b0: 27ef 023e a077 983d 0f25 8abe 6ee8 0f3d
000000c0: bfa3 85be 704a a2ba 2ae5 8d3d 3f14 f03d
000000d0: d932 cc3c 962a 55bd e21e 32bd 50ee 5b3d
000000e0: 06a5 06be 8c2d ba3d a845 863c 362d a33c
000000f0: 4296 92bc 57e8 633d 96ee 99bd 7da7 06be
-0.026454385 -0.075807735 -0.05023218 -0.0302842 -0.07878608 -0.031239962 0.113216944 0.004767805
0.09149172 0.07926485 0.036624413 -0.03661616 -0.015414406 0.022634378 -0.040544905 -0.117144324
-0.014406731 -0.09777648 -0.027191617 -0.13341911 -0.03274302 0.03945625 0.016651658 -0.011261346
0.0007490788 0.009286639 0.04761204 0.04647411 0.09236533 0.025494 0.10624315 -0.098725505
0.004041895 0.0565148 0.016384203 -0.16587776 -0.13376431 -0.0043938207 0.0014419731 -0.02779058
-0.10074627 0.036150668 -0.076361276 -0.09122241 0.12786542 0.07444692 -0.26981398 0.03513377
-0.2610149 -0.0012381803 0.06928475 0.11722612 0.02492659 -0.052042566 -0.043486483 0.05369407
-0.13148889 0.090907186 0.016390637 0.01991902 -0.017893914 0.0556415 -0.0751621 -0.13149829

weight f4 [64, 64]
00000000: 85b4 1dba 6aed bf3c 6b71 3e3d 12ba 083e
00000010: efa4 3fbe b422 5ebe a74f 363c 2bb2 4b3d
00000020: 9c7c 483e 5ff9 c2bd b7f5 a5bd 711a d8bd
00000030: 1c99 6a3e f9d0 463e b23f 033e 7f61 943c
00000040: 4365 d2bd a8ca 9fbc 8841 92bd 4421 5bbc
00000050: 6361 27be 6068 88bd a56a 0ebe b717 863d
00000060: 35b9 1ebd e691 1abe 244f 52ba 2fcb c93d
00000070: 0052 abbd d4cb 6cbd f44a da3d dd0a 3d3d
00000080: f3d2 63bd 5755 b43d 99a5 f0bd e6e7 80bc
00000090: 32fc 2dbe 6c43 633d c908 103e dc49 053e
000000a0: c65a dd3d a26f 7fbd 1055 45bd de08 54be
000000b0: 26d6 d2be 6492 69be 0a14 29be f4fa 4b3e
000000c0: 2ee3 b2bd 7de9 0fbc df43 dd3d f152 14bb
000000d0: ccbb db3b c32b 013e 74ba 9e3e ee1b 833e
000000e0: 6154 963d 7ba9 2f3e 2e95 75be 6256 083e
000000f0: 79c7 e0bb 0ff1 a93d 0908 403d ddad 673e
00000100: 85ba 5a3e f444 873e 7bb0 ae3d b908 0dbe
00000110: cd11 473e 3a2a 153e d171 623e 99f2 ffbe
00000120: 566f 51be 9b23 e7bd 1cb0 aebe 217f e83a
00000130: 36f7 d03e d36e 793e 7382 8c3d 6f17 943e
00000140: 8127 41be 1119 00be d72c dbbd 172e 2c3e
00000150: 145d 9f3e b553 22be d994 2f3e 1b8f 433e
00000160: 0447 b3bd 9392 223e 9ac4 58be 43a8 c03d
00000170: bfac d9bc f082 9bbd cffb d9bc 4879 a73d
00000180: 426d 1f39 2262 cc3d b667 ba3d cc48 0c3e
00000190: 2aff c73b 3788 ba3e df7f ff3a 9e29 e03e
000001a0: 0be8 983d 0da8 4e3d 196e c83d a752 233e
000001b0: 2147 ed3d 3dec 093d ce52 4b3e 9d1d e0bd
000001c0: cff3 b4bd 0a83 1fbb d2ac 27bd d66f 04bd
000001d0: 3662 80bd baba ab3c d822 123e 4568 a4bc
000001e0: f373 4d3e 450a 563e 55ec d9ba d4ca 943e
000001f0: b3c9 c23d d98c 1dbe e029 bcbd 6499 2a3e
00000200: 9b03 f83d c518 9cbd fdcc 24be 6cfa a73d
00000210: baf9 8d3b d211 d7bc 267c e5bd 0e7d e93b
00000220: 908f 173e dec9 673d 24dd 5abd 2c8f a23d
00000230: 547b ac3d 23ea e7bb b936 8d3c 1ddf 6b3e
00000240: a6af f63c 80c5 3fbc 1ed1 a73d 6c0e 5d3e
00000250: 78e8 b2be 491b 25be deb1 73bd 907a 593d
00000260: 14f5 3cbe c46a c73d e3d0 05be bc59 edbd
00000270: 5041 b23d 5446 7a3e 00dd 2abd cc83 943e
00000280: cde0 213e 8325 ef3d 43ae df3d 5cde dcbb
00000290: 5ccf 2e3e 087e 82bd 45d2 d1bd 36c8 ecbd
000002a0: d318 38be d231 7dbd cbf2 3b3c 84aa 403d
000002b0: aaee 4abe 47e5 18bd 83e0 9f3d 9c9a e0be
000002c0: 276a bbbc 8403 37be b96f 8f3c 2767 223d
000002d0: 397d 6e3d 6d91 d9bd 2a6e 4abb 920a 11bd
000002e0: 9564 91bd 7ec8 59bd 2e4d da3d f887 703c
000002f0: e219 60be e978 a0bc ab93 2e3d f36b 483e
00000300: 24c2 6ebe 9d15 ffbc b9ce f9bd ce17 5d3e
00000310: eb06 c93e f46b 03ba 789d 10be 3e50 14be
00000320: e38d 94be 1fdd d03d 7987 003e 8c36 663e
00000330: cf37 213d a81c acbe 3486 b03e 7207 97bc
00000340: ba95 45bd 3219 4abd 8618 c33c f8cd 2bbe
00000350: bda1 b1bd 28b8 febd ea31 00be 683a f7bb
00000360: 89c4 c9bd 3be2 dbbe b4b1 c0be bc8f 22be
00000370: 8290 8dbe 5760 abbe 5aa1 1c3e eadf 3f3e
00000380: 62c6 c9bd bde7 f13c 7656 c7bd d2ad 013f
00000390: eb2f 6e3c a80d 31be 799a e23d 0061 85bd
000003a0: 144d 62bd 59e6 9b3b 2f27 923d 1069 db3d
000003b0: 3580 a7bd af3c ab3e dda6 a53c eb0c c0be
000003c0: 72ac c6bd 2ab0 143d 25e9 a63d 9066 1cbe
000003d0: 0257 b83c e792 563c 276f aebe bc67 e3bd
000003e0: 91d3 123e cfd0 fabd 7d71 da3d bf37 92bd
000003f0: 1fb2 a1be eb5f 953d a185 aa3e 0edf 023e
-0.0006015974 0.023428638 0.046494883 0.1335223 -0.18715261 -0.21692926 0.011127389 0.04973046
0.19578785 -0.0952022 -0.08103507 -0.10551918 0.22909969 0.19415654 0.12817267 0.018112896
-0.102732204 -0.019505814 -0.07141405 -0.01337463 -0.16345744 -0.06660533 -0.13907869 0.06547492
-0.038750846 -0.15094718 -0.0008022657 0.09853207 -0.0836525 -0.057811573 0.106588274 0.04615294
-0.0556211 0.0880534 -0.11750335 -0.015735578 -0.16990736 0.05548422 0.14065851 0.13016456
0.10808329 -0.06236232 -0.048176825 -0.20706508 -0.41179007 -0.2280975 -0.1651155 0.1991995
-0.08734737 -0.008783695 0.10803961 -0.0022632445 0.0067057367 0.1261435 0.31001627 0.25607246
0.07340313 0.17154495 -0.23982689 0.13314202 -0.0068597165 0.082979314 0.046882663 0.22624917
0.21360214 0.26419795 0.08529755 -0.13772859 0.19440384 0.1456689 0.2211373 -0.49989775
-0.20452628 -0.11286088 -0.34118736 0.0017738083 0.40813607 0.24358682 0.06860819 0.28924128
-0.18862726 -0.12509562 -0.10701912 0.16814457 0.311257 -0.15852244 0.17146625 0.19097559
-0.087537795 0.15876226 -0.21168748 0.094070934 -0.02657163 -0.07593334 -0.02660933 0.081774294
0.00015204123 0.09979655 0.091018125 0.13699645 0.006103416 0.3643205 0.0019493065 0.4378175
0.07466134 0.050453234 0.097866245 0.15949498 0.115858324 0.03367256 0.19855806 -0.10943148
-0.08835565 -0.002433958 -0.0409363 -0.032333218 -0.06268732 0.020963062 0.14271104 -0.02006925
0.20063762 0.20902355 -0.0016626219 0.29060996 0.09511127 -0.1538576 -0.091876745 0.16660076
0.12110063 -0.07621912 -0.16093822 0.08202061 0.0043327482 -0.026253615 -0.1120532 0.0071255034
0.14800858 0.056589 -0.053433552 0.07937464 0.084219605 -0.007077472 0.017238008 0.2303433
0.030113053 -0.0117048025 0.08194183 0.21587533 -0.34942985 -0.1612369 -0.0594958 0.0530954
-0.18452865 0.09737161 -0.13067965 -0.11589381 0.087038636 0.2444089 -0.04171467 0.29006803
0.15808411 0.11677077 0.1092191 -0.0067403745 0.17071289 -0.06371695 -0.10245184 -0.11561625
-0.1797822 -0.06181509 0.011471461 0.047037616 -0.19817606 -0.03732803 0.07806494 -0.43867958
-0.022877766 -0.17872435 0.017509328 0.039649155 0.05822489 -0.10623441 -0.0030888417 -0.03541047
-0.070992626 -0.05316972 0.10659252 0.014680855 -0.21884874 -0.019588904 0.042621296 0.1957243
-0.23316246 -0.031138236 -0.12197632 0.21591112 0.3926309 -0.00050133397 -0.1412257 -0.14483735
-0.290145 0.101984255 0.12551679 0.22481745 0.039359864 -0.33615613 0.3447739 -0.018436167
-0.048238494 -0.049340434 0.023815405 -0.1677779 -0.08673427 -0.12437469 -0.1251904 -0.0075448044
-0.09851939 -0.42946038 -0.37635577 -0.15875143 -0.27649313 -0.3347194 0.15295926 0.1873776
-0.09852292 0.029529447 -0.09733288 0.50655854 0.014537792 -0.17290366 0.110646196 -0.06512642
-0.05524929 0.004757684 0.0713638 0.107133985 -0.081787504 0.33444735 0.020221168 -0.37509856
-0.0970086 0.036300816 0.081499375 -0.152735 0.022502426 0.013096548 -0.34069178 -0.1110377
0.14338519 -0.12246858 0.106661774 -0.07139539 -0.31581208 0.072936855 0.33305076 0.12780401

bias f4 [64]
00000000: 118a ec3c dc79 11be 1315 123d 8113 a0be
00000010: 4fc4 8b3d a1ff ddbe e0fb 25bd 5293 a2be
00000020: 5fa9 85be 63f6 d43c 1598 013d 193c e3bd
00000030: 9212 3e3e 6df8 9bbe 13e0 93b9 3854 f43d
00000040: 60fb 44be 933a 2e3d 40d1 ae3d 1550 3dbd
00000050: d0d3 353d 2e47 01bc 8d8c 953b bed0 51bd
00000060: 11f9 1abe e78c 0c3c d4e0 34be 3181 dabc
00000070: 1809 da3d 28ec b7bd 210e c13d 7966 f33d
00000080: 877b f33c 143b 353c 6fee d4bc 514e be3d
00000090: 074f fabd b8fc 58be 5ca2 ec3d f158 fe3d
000000a0: 2cc1 fa3d ef88 e93d 920e bbbc 696b 63be
000000b0: feb0 7ebd 5046 8cbe e926 1ebd 9609 c33d
000000c0: 67ca 34be 3097 51bb 834d 4b3d 6b48 6ebd
000000d0: 1048 33bd 2a2a 9cbd 6499 24bc f6a7 033d
000000e0: f1c0 423c 13d0 9ebe e8d9 903c c7bc 383c
000000f0: a46c 413d 4630 53be 2113 063c b49e 0cbe
0.028874429 -0.14206642 0.03566463 -0.3126488 0.06824552 -0.43359092 -0.04052341 -0.3175302
-0.26105782 0.025996393 0.031639177 -0.11095447 0.18561772 -0.3046297 -0.00028204973 0.11930126
-0.19236517 0.04253633 0.08536005 -0.04621895 0.044391453 -0.007890506 0.004563874 -0.051224463
-0.15134074 0.008578516 -0.1766389 -0.026672931 0.10646266 -0.0898059 0.09426523 0.118847795
0.029721988 0.011061449 -0.0259926 0.092922814 -0.122221045 -0.21190155 0.11554405 0.12419308
0.12243876 0.11403071 -0.022834096 -0.22208942 -0.06218051 -0.27397394 -0.038611326 0.09523313
-0.17655335 -0.0031980984 0.049634468 -0.058174532 -0.043769896 -0.0762523 -0.010046337 0.032142602
0.011886821 -0.31018123 0.01768203 0.011275477 0.04722275 -0.20623884 0.008183272 -0.13732415

weight f4 [5, 64]
00000000: 2f0e d6bd 76c0 2d3e 24eb 83be 3e87 2ebd
00000010: 524f 07be e71d 00be 51f2 e53d cdc9 2b3e
00000020: 593c 6b3c 1552 2f3d 470b c9bc fc8c 1f3d
00000030: 0760 a93d ea23 513e 1380 743e 6efc fbbe
00000040: 1b09 0a3d b7ff 853c 28e1 4d3d fec1 033b
00000050: 7629 52be 43dc ad3d b2df 17be 7004 8d3d
00000060: 3103 9fbd 27c0 a0bd 151e a03d 7be0 873c
00000070: 3ed2 c5be df39 813d dcb4 eabd 6b69 dd3e
00000080: f5b1 03be fbdd 633e 44e5 4fbd 9b4e 17be
00000090: 4180 8abe b24d 9a3e 6bc1 873e 0647 563e
000000a0: a8a5 14be fd67 963e a5a8 9c3e f5a5 943c
000000b0: ed42 ddbc 97c6 f0bd 3e7a 2e3e f3de 0d3e
000000c0: d46e 19be 79b8 8b3e 3578 a5bd 6b1c 07bd
000000d0: 30f4 94bd 8cf9 273d 3d01 e53d 8bd0 1bbc
000000e0: b618 1c3e 876b 363e 83da 0c3e dffa 5c3d
000000f0: edbb 7c3e 50e3 f2bd fac7 ecbd 8da8 96bc
00000100: bb5c a4be 0ed0 293d ba35 d23e 8c5a dd3d
00000110: 0159 febd 92a1 25be 99ca 68be a2b4 9cbe
00000120: f19d 32be b0fe c0bc 6529 513e 96ea 2a3e
00000130: 0765 14bd 332f 86bd 5902 763c d72b 7a3d
00000140: f8ef e2bc 21c6 92bd d429 bf3e 982f d53d
00000150: e9dd bd3c 3493 183c 03b3 803e 1856 703e
00000160: 779b c6be 219c 633d 8f45 393e 4a22 a83d
00000170: efd3 903e 1708 3c3e 600d 193d 79d4 643e
00000180: 8db1 8bba e1b9 f8bc 84c2 e23d 9bf1 073e
00000190: 8bee c0bd 1012 a9bc 6af8 9a3e 234d 41be
000001a0: 4e6f a83e 1d84 88bd cd28 debc 3e8e 40be
000001b0: 88cf 363e b0f3 8c3e fef4 7d3e 45cf 95be
000001c0: 8316 8d3e 0413 833d b986 733d cf32 803e
000001d0: 1701 633e 949f c23d 57ae 1b3e 5665 d03c
000001e0: 1ad4 913d c30b 763e c7ab 01be 1c50 83bc
000001f0: 96a9 30be 11ca c5bd 645a 8a3e 8635 763d
00000200: a3ac dbbb 3a93 d8bd d6c8 213e 802a 58be
00000210: c77c 40be 7a3c d1be 93af a0bd e1c8 c1bd
00000220: 6c24 10bf 23a9 8dbe e3be 45be 40df a8be
00000230: dd4a 9fbe 2873 debc 9582 9bbb 0a74 e1bd
00000240: b300 b2bd 6560 2fbd a73f 253d 4b8f 6cbe
00000250: 66e2 a23e 5231 aabe 71cc 053e 7320 01be
00000260: 163a f3bd f769 4bbe 0ab4 dbbd 462a 533e
00000270: e63f 2abe 1b3a f8bd 4771 0abe f4c4 6fbe
00000280: 3893 edbd 5f51 193e 17a2 863d 5ef0 56be
00000290: d572 c1be 2b17 b8bc f5e3 333e 2afb 223f
000002a0: 6d46 01bb 41eb 043e 6d43 09be d5bd 473e
000002b0: 7da1 74be 2d6d a3bd e6f9 08be f6fa 9fbe
000002c0: b921 bd3d 695a a93d 67c8 cfbe e704 e23d
000002d0: 7920 103e 312e cfbc ebe9 353e 81bf 643e
000002e0: 0304 aebc e9d0 c2be 700b 83bd 0315 84be
000002f0: 65ec 29be 589d 153e c61a 343e 80bf 6abe
00000300: 9e48 79be 30ac 69bd 4bf5 473d c5a4 22bd
00000310: cc74 e53d f34d 6eba 4d1d bebd 90c0 1abe
00000320: 5e4c 2a3e 68f3 8fbe 6d87 3d3e 1e3b 983e
00000330: f9d4 c4bd 3e06 e13c 0bf1 263d c8aa 5b3e
00000340: 072f 293e cd53 193e 56f6 61bd de23 87be
00000350: b0f2 ae3e 5f05 1fbe 8693 a1be c714 143e
00000360: c39b 28bd a81b aebe 3635 ae3d 6f7b 81be
00000370: 301e 03bf 571a be3d e520 bdbd 99c9 d5bd
00000380: 8d17 2cbd 406d d8bd f405 013e 61c5 e7bd
00000390: 5dcd f43d aa4f 303e 5fbb b43d 4e47 29be
000003a0: 14a4 8fbe 0a66 923c 238a 7dbe 3831 173d
000003b0: 4921 c5bd a7dc 353e 4993 0ebc a062 943e
000003c0: 45ef edbd 566f 203d 062b f1be c9c8 10be
000003d0: 0c16 c33e f5d7 a2be 04c4 85be cf5c 4bbe
000003e0: ad53 e73c 342c 0c3e 7e11 c9be de67 52be
000003f0: 51aa edbd 7c58 9bbd 6a8e 113e 21e7 873e
-0.10451924 0.1696795 -0.25765336 -0.042609446 -0.13213852 -0.12511407 0.11227859 0.167762
0.01435765 0.04280289 -0.02454151 0.038952813 0.08270269 0.20423856 0.23876981 -0.49216026
0.03370009 0.016357286 0.050263554 0.0020104642 -0.20523629 0.08489277 -0.14831427 0.06885612
-0.077642806 -0.0784915 0.07818238 0.016586533 -0.38636965 0.06309866 -0.114602774 0.4324449
-0.12860854 0.22252648 -0.050755754 -0.1477608 -0.27050975 0.30137402 0.26514754 0.20925531
-0.14516318 0.29376212 0.30597416 0.01814554 -0.027009452 -0.11756628 0.17038819 0.1385458
-0.14983684 0.2728918 -0.08079568 -0.032986086 -0.072731376 0.04100947 0.11181877 -0.00951017
0.15243801 0.17814456 0.1375523 0.053950187 0.24681063 -0.11859763 -0.1156158 -0.018390918
-0.32101998 0.041458182 0.41056615 0.10808286 -0.1241932 -0.16174915 -0.22733535 -0.30606562
-0.17443062 -0.023558944 0.20425947 0.1669105 -0.03622916 -0.06551971 0.015015208 0.061076965
-0.027702317 -0.07166696 0.373366 0.104094684 0.023177104 0.00931244 0.25136575 0.23470342
-0.38790485 0.055568818 0.18092941 0.08209665 0.28286693 0.18362461 0.03736627 0.22346677
-0.0010657773 -0.030362071 0.11072257 0.13275759 -0.094204985 -0.020638496 0.3026765 -0.18877082
0.3289742 -0.066658236 -0.027119065 -0.18804261 0.17852604 0.2752967 0.24800488 -0.29259697
0.27556238 0.06400111 0.059454653 0.25038764 0.22168384 0.09503093 0.15203224 0.025438946
0.07120533 0.24027924 -0.12663184 -0.01602941 -0.17252192 -0.09657682 0.27022088 0.060109638
-0.0067039295 -0.10574956 0.15799269 -0.21109962 -0.18797599 -0.40866452 -0.07845988 -0.09462143
-0.56305575 -0.27668104 -0.19311099 -0.32982826 -0.31111804 -0.02715452 -0.004745791 -0.11008461
-0.086915396 -0.04281654 0.040343907 -0.23101537 0.31813353 -0.33240753 0.1306627 -0.12610035
-0.118763134 -0.19864641 -0.10727699 0.20621595 -0.16625938 -0.12120458 -0.13519774 -0.23414975
-0.116003454 0.14972447 0.06573885 -0.2099013 -0.37782922 -0.022471985 0.17567427 0.63664496
-0.0019725815 0.12980367 -0.13404627 0.19506009 -0.23889728 -0.07979808 -0.13376579 -0.31246156
0.09234948 0.082691975 -0.40582582 0.11036091 0.14074887 -0.02529058 0.17765014 0.22338678
-0.021242147 -0.3805001 -0.06398666 -0.2579728 -0.16594084 0.14610803 0.17588338 -0.22924614
-0.24344108 -0.057048976 0.048817914 -0.039707918 0.11203918 -0.0009090595 -0.092829324 -0.1511252
0.16630694 -0.28115392 0.18508692 0.29732603 -0.09610934 0.027468797 0.04075722 0.21451867
0.16521846 0.14973374 -0.055166565 -0.26394552 0.3416953 -0.15529393 -0.31557864 0.14461051
-0.04116417 -0.34005475 0.08506243 -0.25289485 -0.5121794 0.09282368 -0.0923479 -0.10438842
-0.042014647 -0.10567713 0.12599927 -0.11316944 0.119532324 0.1721789 0.08824801 -0.16531107
-0.2805487 0.017870922 -0.24759726 0.036912173 -0.09625489 0.17759953 -0.008702108 0.28981495
-0.11617903 0.03916868 -0.47103137 -0.14139093 0.38102758 -0.31805387 -0.2612611 -0.19859622
0.028238142 0.13688737 -0.39271158 -0.20547435 -0.11604751 -0.075852364 0.14214483 0.26543525

bias f4 [5]
00000000: a13e bfbd c67c 1a3b b6d4 673a 8893 cabd
00000010: 72f6 423e
-0.093381174 0.0023572906 0.0008843647 -0.098914206 0.19039324

weight f4 [5, 64]
00000000: 22f6 833d a19b f03c b58d 653e f070 1c3e
00000010: 856f 183e d36c 3a3c 5b17 76be e005 3e3e
00000020: 5f87 fd3d a59d a9bd f355 073d 0dd9 b9bd
00000030: 26f2 8bbd 3473 68bd 35e4 12be 1821 643e
00000040: c6d6 a83e a087 31bd c44b 7a3c 8aa1 e83c
00000050: 8a61 743c 6a01 3fbe 30be 5e3d edb3 f93d
00000060: eec4 433d 527e 98bc 5d25 d2bc 63f0 aa3e
00000070: caef fabd aa79 613e 481e b2bc cbd7 f83d
00000080: c472 383d 66cf 9dbc 16e9 cebd 82a8 153d
00000090: 60cc 313e 3d3e b8bb fdc3 933c abb3 b13c
000000a0: bd42 4dbd a9ac e2bc a6e5 343e 16dc debc
000000b0: 877c b3be 7c05 083e 272e 4c3e 9a1b 3ebe
000000c0: a8b0 b53e e788 463c 198a f8bc 6d9c 653e
000000d0: 1965 07be e326 513e 8445 efbd ab90 113e
000000e0: 78c5 6e3e e0aa 87bd 1756 8fbd 8382 dd3e
000000f0: b8d1 d9be 4cd9 ebbd 46e7 efbd 054c 73be
00000100: a579 553d 9c06 1abd 16c3 5ebe 8570 28be
00000110: 99e9 cb3c 5b16 5b3e bebb 80bd bf3d 493e
00000120: c4a6 883d 512f 5ebe ce04 d83d 4887 803d
00000130: 6488 e9bd 870a f03b 0523 683c ec55 d93c
00000140: 9799 223e 57b9 983d 32a8 943e b0fd b63d
00000150: 4f6e 91bd e681 ba3c 42de f2bc 5462 bc3d
00000160: ff71 aa3d d0c4 4abe bb94 fe3d 8351 8e3d
00000170: dc37 2cbe 865c 77be bf3b 6dbe 7961 d03d
00000180: 59f0 40bd 882e 1d3e 3b1c 8c3c 4d87 edbc
00000190: 3def 593d e7b7 96bc 6d88 cc3c 975d 69bd
000001a0: 5d06 473e e5db d3bd bf50 723d ba92 ad3c
000001b0: b969 a93d 6b8a dc3d f2f3 4f3d 508d 1dbd
000001c0: 6b39 a4bd 7549 0d3e 8f41 213e 2e52 b83d
000001d0: ab14 6c3e 37b5 90bd 4327 343e 5d96 68be
000001e0: 18f7 78be 434b 3a3e 33d4 8b3d df83 04be
000001f0: 6c99 59bd 167c db3e 80b5 35be d162 073d
00000200: d24e 023e bd8b c33d 4224 a0be 1590 9a3e
00000210: 3cdb 1fbe 5562 943e da7a d03d f11f 953d
00000220: ee60 f2bd b3a1 983e 8255 4d3e d405 a23e
00000230: bb3e cbbd cd32 f53c d3cb 14be 77a7 1c3e
00000240: 82b1 a13e e019 d6bd c172 11be 66d8 90bd
00000250: c6a2 4abd e9e2 b4bd c30b f5bd f282 96bd
00000260: 44c0 fbbd 8773 bfbc 6831 b5bd 6d4f ac3e
00000270: 455d 28be eec6 cf3d a6f0 9e3c e6d3 2c3e
00000280: a3df 993d ab9d f63d 498f 4e3e 2bf5 8e3e
00000290: de76 52bd f807 05bd eb2a 463d 1cf9 f63c
000002a0: f3f1 673d d977 e3bd c490 b7be 49f0 303e
000002b0: 500f 013f 9d68 8e3d 7da6 9cbd 9343 cfbd
000002c0: 6de5 743e 9b94 a33d 2850 0b3f f9ec d1bd
000002d0: b42b 60be 6960 2d3e 4163 86bd 4361 2a3e
000002e0: acf6 e03e 3832 213e 3be4 a53d 0a8f 67be
000002f0: 0921 0cbf 977b dd3c 0cb5 263e f8b1 af3e
00000300: 5268 bc3e 3a29 86bd fa61 2b3d ef44 5cbe
00000310: 1abb 51bc dbe8 97be 8837 e9ba ffd8 a7bb
00000320: 7e7d 963e 622e 5d3e 1d48 873d 68c7 1b3c
00000330: a566 853d c75f 813d cf13 a93d aa8f 93bc
00000340: a0b0 15bd 81ea f6bc 3f86 183e 207e 47be
00000350: 7e02 6ebe 6050 ecbc 60e8 5d3e 5ed9 023b
00000360: d13c bbbe 11ef 96be 2778 14be 13a1 3e3c
00000370: 7f4f 6d3e b5bc ff3d 166e c73c b86e 363e
00000380: 1a94 e93c d73a 60be 3403 d13d cef8 c43d
00000390: e8e6 79be a7c7 39be 6bd6 02be ccb0 1a3e
000003a0: c01e 423e 6a7a 95be c88b 05be c06d 74be
000003b0: e0ec e53c 9ccb cfbd 1ba7 d83d 962f 1dbd
000003c0: 4a26 f73d 0220 333e 2d98 6d3e c97c 8bbc
000003d0: f4a7 5bbe 09f5 b23b 1283 8fbd ce77 f53d
000003e0: 7875 78be 8acc 103e c3a4 2bbd 06eb 853d
000003f0: cdac 45be 9a2a e53e 3683 673d 31c7 a1bd
0.064434305 0.029371085 0.22417338 0.15277457 0.14886291 0.011378485 -0.24032347 0.18556929
0.123793356 -0.082820214 0.033040952 -0.09074602 -0.068332955 -0.05675049 -0.14344867 0.2227825
0.3297636 -0.043342233 0.015276853 0.02839734 0.014915833 -0.18652883 0.054380596 0.12192521
0.04779523 -0.018614922 -0.025652582 0.33386526 -0.122527674 0.22019067 -0.021742955 0.12150534
0.045031324 -0.019263934 -0.10103051 0.036537655 0.17363119 -0.0056226538 0.01803779 0.021692118
-0.050112475 -0.027670221 0.17665729 -0.027204555 -0.35055944 0.13283342 0.1993948 -0.18565217
0.3548634 0.012117601 -0.030339288 0.22422953 -0.1322216 0.2042499 -0.11683181 0.14215343
0.23317516 -0.06624389 -0.06998842 0.43263635 -0.42542815 -0.115160555 -0.11714034 -0.23759468
0.052117962 -0.03760396 -0.21754107 -0.16449173 0.024891661 0.21395247 -0.06285809 0.1965246
0.06672433 -0.21697737 0.105477914 0.06275803 -0.114029676 0.0073254737 0.014168506 0.026530229
0.15878902 0.07457226 0.29034573 0.08935106 -0.07101118 0.022767019 -0.029646996 0.09198442
0.08322524 -0.1980164 0.12430712 0.06949141 -0.16818184 -0.24156389 -0.23167323 0.101748414
-0.047104213 0.15349782 0.017103305 -0.02899518 0.05320667 -0.018398238 0.024967397 -0.05697402
0.19436021 -0.10344676 0.059159037 0.021188129 0.08272118 0.10768589 0.050769754 -0.038464844
-0.08018764 0.13797553 0.15747665 0.090000495 0.23054759 -0.07065814 0.17593102 -0.22713609
-0.24313009 0.18192773 0.06827583 -0.1294093 -0.05312483 0.42868108 -0.17745018 0.033053223
0.1272538 0.09548137 -0.31277663 0.3018805 -0.15610975 0.2898127 0.10179682 0.07281483
-0.11834894 0.29810867 0.2005215 0.31645072 -0.09924074 0.02993145 -0.14530878 0.15298258
0.3158074 -0.10454154 -0.14203931 -0.07072525 -0.04947164 -0.08832342 -0.11965134 -0.073491946
-0.12292531 -0.023370517 -0.08847314 0.33654347 -0.1644183 0.10145365 0.01940186 0.16877708
0.075133584 0.120417915 0.20171846 0.27921423 -0.05138289 -0.032478303 0.048380774 0.030148081
0.056627225 -0.111068435 -0.35852635 0.17279162 0.5041399 0.06953547 -0.076489426 -0.10120311
0.23915644 0.079873286 0.54419184 -0.10250277 -0.21891671 0.16931309 -0.065619 0.16638665
0.43938196 0.15741813 0.08100172 -0.22613159 -0.5473791 0.027036471 0.16280001 0.34315467
0.3679834 -0.06550832 0.041841485 -0.21510671 -0.012800956 -0.29669842 -0.0017793039 -0.0051223035
0.29392618 0.21599725 0.066055514 0.009507991 0.065137185 0.06317096 0.08255731 -0.01801284
-0.036545396 -0.030141117 0.14894961 -0.19481707 -0.23243138 -0.02884692 0.21670675 0.0019965987
-0.36569837 -0.29479268 -0.1449896 0.011635083 0.23174857 0.12487165 0.024344485 0.17815673
0.028513003 -0.21897446 0.10205689 0.09617768 -0.2440449 -0.18142568 -0.12777106 0.15106505
0.18957043 -0.29194957 -0.13041604 -0.23869991 0.028067052 -0.10146257 0.10578748 -0.03837546
0.1206785 0.17492679 0.23202582 -0.017027276 -0.21450788 0.0054613394 -0.070074216 0.119857416
-0.24263561 0.14140525 -0.041905176 0.06538968 -0.193042 0.44759065 0.056521617 -0.07899321

bias f4 [5]
00000000: 48c3 123b 09c0 18bd 22db afbd d4cf 123d
00000010: 9b65 41bb
0.0022394229 -0.037292514 -0.08586718 0.03584273 -0.0029510024

weight f4 [5, 64]
00000000: dc95 e1be 660d 99bd e11f 24be d97f 8c3e
00000010: da65 cfbe 9bf9 ba3e 0e5e ce3b e5aa b33e
00000020: 7987 0fbe 9c23 9dbd 6d70 47be 2678 ba3d
00000030: 7120 b0be 9464 77bd 67ba 9dbd a4fe 0ebe
00000040: 0763 a13d 08b0 09be 0901 5fbe 243c 30be
00000050: 1173 373d b8c1 6fbe 3b5e d33d dbb2 babc
00000060: d712 263e 7e88 d23b 821b 36bd 7f4d 2bbe
00000070: e87d 29be 33d1 71bd 1dd1 97bd e638 2abe
00000080: ed70 163e 4d04 c0bc 7432 8bbe 17fa 643e
00000090: ab52 99ba cf5e f93d 1e2b 07be 4eda 323d
000000a0: 128b 99be 371c 2cbe dfe9 eabd 5ed3 8e3e
000000b0: 3003 48bd 1a08 d03d ea15 1abc 8049 1cbe
000000c0: d43a 463e cbb4 92bd 01ab 41bd cd68 b63e
000000d0: 090b 04be 2724 663d 2bf1 bfbd e31a 513d
000000e0: e325 9c3e 61d0 a5bd a96e 5a3d 2823 1bba
000000f0: 576d febc 9303 063c e972 d2bb 0753 bbbc
00000100: 2869 f83d 5852 073e 8255 2a3b 8988 133f
00000110: 07ec 94bd 4857 29bc 2687 88bd 20bb d13c
00000120: 6d80 ec3e 44ee 56be 2bbd 35be ad60 b53e
00000130: bef4 bdbe 14fe 0e3f e4e3 a8bc 0ba5 fa3d
00000140: d93c e13c c4f2 ecbe 1fe3 d7bd ea59 993d
00000150: eea2 ee3d 4483 7c3c c962 643d d378 7a3e
00000160: 4908 0f3d 55b3 aa3d 9136 dc3e 9f05 8f3d
00000170: ac82 58be 50e1 103e 35e7 3ebe 0c68 4d3e
00000180: a088 dfbb 54bd 153e b06b 703d d009 833d
00000190: e85c 873e 531d 613d 694f 4dbe 5a08 a0be
000001a0: ece1 53be e79e 4cbe c1c3 183e fd25 e0bd
000001b0: d7a9 983e e081 ff3e 88fb fc3d 1cee 07be
000001c0: 9540 173d 5f83 45be d116 bebd c83a eebd
000001d0: 5cfd 1f3c 08d5 a83e b88c 1a3d 1828 15be
000001e0: e479 613d c026 383f 1987 ecbd 7c71 583d
000001f0: fcdc 32be 1c1d 443e 359f 64be cd9b f63e
00000200: c005 0f3e f784 ad3d ea87 cb3e aa59 783d
00000210: 39a2 6c3e 0cf7 1b3e 3c0b ea3d e1e1 513e
00000220: 807c 943e 84d4 9cbe 38da 23bd ee53 403d
00000230: 2a9c 483e ecb1 9d3c 59b4 2b3e 3733 6ebd
00000240: 4d6a 1ebe 816d 213e 46cf 45be 959d 973d
00000250: 1037 42be 6981 a8be 3ec4 d03c 133a 63be
00000260: 5968 613e 757a 753d 4860 80bd 85ec 16be
00000270: 8103 70be d9d6 923d bce3 89be eb27 963e
00000280: 4f09 a2bd e8d0 1c3e a787 59be 8f10 4f3e
00000290: 94a4 913d 47bc 2abe ddd8 0bbe 0560 c43c
000002a0: 1815 cbbe a788 9c3d 9079 05bc 4fa3 f33e
000002b0: 2ecb 723d 4025 123e 2b2b 01be 6f33 a1be
000002c0: 6a54 8e3d 2b61 ad3d 2082 eabb 9f7f 883e
000002d0: c321 333d 1c23 2fbe be74 b6be 8d95 0dbe
000002e0: 2a9a d7bc ce6d 043f 49ac a6be b9a7 343e
000002f0: 424e c6bc 07e4 933e a519 f8bd a46e aa3d
00000300: 051e 12bd 626c 163e cb9f 513e e5f7 ae3e
00000310: 4fa4 2abe 6272 543f c08f cdbd 33ea 2d3f
00000320: 68f0 dc3e 4b93 a9bc 3bdc 94be ce9d f03e
00000330: ed3a 2abb a510 973e 5c13 f4bc 9e10 2a3e
00000340: a930 843e ee54 3f3c 006b b4be 4547 aabe
00000350: 4043 e6be 4c4e f5be 4b91 9ebd a91b 0abd
00000360: 8ef3 9cbc 0be4 953e 847a b93d cab6 22be
00000370: 6408 d7bb ca84 993d 3cf5 b8bd aa2c ae3e
00000380: 1bbd febd e820 9e3e d5ff cebe 7556 5f3e
00000390: ff17 d73e 21e9 bf3c 2a2a 0dbe 5b10 183e
000003a0: 6182 45be d782 83be 2464 d3bd 1248 2a3e
000003b0: 23c3 163e df8f 633e d55f 52be 7435 073e
000003c0: d488 c83e 0ccb 3ebe 2312 433e f2cb 15be
000003d0: ac31 1dbe aad7 aebe 127c 03be 8ff1 e1be
000003e0: cdbf efbd 3c77 f93e d467 5fbd e9f5 96be
000003f0: 06a1 a0be a2e1 f73d 38a1 893c 4c5c 393f
-0.44059646 -0.07473259 -0.16027786 0.2744129 -0.40507394 0.3651856 0.0062978333 0.3509132
-0.14016522 -0.076728076 -0.19476481 0.09104948 -0.3439975 -0.060398653 -0.07701569 -0.13964325
0.07880216 -0.13446057 -0.21777739 -0.17210442 0.04478747 -0.23413742 0.103207074 -0.022790363
0.16218124 0.0064249625 -0.044459827 -0.16728781 -0.16551936 -0.0590374 -0.07412932 -0.16623268
0.14691515 -0.02343955 -0.2718693 0.22361027 -0.0011697611 0.121762864 -0.13200042 0.043665223
-0.29988915 -0.16807638 -0.114703886 0.27895635 -0.048831165 0.10157795 -0.009404639 -0.15262413
0.19358379 -0.0716339 -0.047282223 0.35626832 -0.12894835 0.05618682 -0.09372171 0.05105103
0.30497655 -0.08096386 0.05332819 -0.00059180195 -0.031057997 0.008179563 -0.0064223898 -0.022866739
0.12129432 0.13215005 0.0025990908 0.5763021 -0.07271581 -0.010335751 -0.066664025 0.025601923
0.4619173 -0.20989329 -0.17747943 0.3542532 -0.37100786 0.5585644 -0.02061648 0.12238511
0.027494835 -0.46278965 -0.10541367 0.07487853 0.1165217 0.015412156 0.05575827 0.24460153
0.03492001 0.08334986 0.4301038 0.06983494 -0.21143597 0.1414845 -0.18642886 0.20059222
-0.006821707 0.14623004 0.05869645 0.06398356 0.2643807 0.054959606 -0.20049824 -0.31256372
-0.20691651 -0.19982491 0.14918424 -0.10944746 0.29817078 0.49903774 0.12352663 -0.13274425
0.036926825 -0.19288395 -0.09281696 -0.116323054 0.009764995 0.3297503 0.037731856 -0.14566076
0.055047885 0.7193413 -0.11549205 0.052842602 -0.17467111 0.1915173 -0.22326358 0.48165742
0.13967037 0.08472627 0.39752132 0.060632385 0.23108758 0.1523096 0.11427924 0.20496322
0.29001236 -0.30630887 -0.04000303 0.04695504 0.19590822 0.019249879 0.16768016 -0.05815431
-0.15470238 0.15764429 -0.1931735 0.07403103 -0.18966317 -0.32911232 0.0254842 -0.22190122
0.22012462 0.059931237 -0.06268364 -0.14738663 -0.23438837 0.07169885 -0.2693156 0.2932733
-0.07911932 0.15314066 -0.21243154 0.2022116 0.07111469 -0.16673385 -0.13656946 0.023971567
-0.3966453 0.07643252 -0.008146659 0.47585532 0.0592758 0.14272022 -0.12614124 -0.31484553
0.069496945 0.08465799 -0.0071566254 0.26659867 0.04373337 -0.17103237 -0.35635942 -0.1382658
-0.026318628 0.5173005 -0.32553318 0.17642106 -0.024207238 0.2888491 -0.12114266 0.08321884
-0.03567316 0.14689782 0.20471112 0.34173504 -0.16664241 0.82987034 -0.10037184 0.67935485
0.43152165 -0.020700118 -0.29074273 0.46995395 -0.0025975064 0.29504886 -0.029794388 0.16607901
0.25818375 0.011677964 -0.35237885 -0.332575 -0.44973183 -0.47911298 -0.07742556 -0.033717785
-0.019159105 0.29275545 0.09056571 -0.15890041 -0.0065622795 0.07496031 -0.0903115 0.3401845
-0.12438413 0.3088448 -0.4042956 0.21810324 0.42010495 0.023426594 -0.13785616 0.14849989
-0.19288017 -0.2568576 -0.10321835 0.16629055 0.14722876 0.22222851 -0.2054437 0.13203984
0.39166892 -0.18632144 0.19049887 -0.1462858 -0.1535098 -0.34148914 -0.12840298 -0.44129607
-0.11706505 0.4872378 -0.054542378 -0.2948449 -0.3137285 0.12103583 0.016800508 0.7240646

bias f4 [5]
00000000: e3c2 d3bd 7361 41be 5d52 39be 9f88 a8be
00000010: 9112 8cbe
-0.10339906 -0.1888483 -0.18097825 -0.32916734 -0.27357915
