model/best_weights2.pt (torch, 25701 bytes, 10 tensors)

net.linear_00.weight f4 [64, 1]
0	0x3fab4457	1.3380231
1	0x3f5beb85	0.8590625
2	0x3f2e2e4c	0.68039393
3	0xbf8a3faa	-1.0800679
4	0xbf80416e	-1.0019968
5	0x3fe519a2	1.7898448
6	0xc01195de	-2.2747722
7	0xc012e82c	-2.2954206
8	0xbfb64807	-1.4240731
9	0x3fc000cf	1.5000247
10	0xbeb81929	-0.35956696
11	0xc0087946	-2.132402
12	0x3bc84e78	0.00611287
13	0xbee5d492	-0.4488874
14	0x4022593e	2.536697
15	0xbb9d5811	-0.004801758
16	0xbe7fdcc0	-0.24986553
17	0xbe9191b6	-0.2843148
18	0xbeb58731	-0.35454705
19	0xbfaca387	-1.3487405
20	0x3f5cf522	0.86311543
21	0x3e2b3162	0.16718057
22	0xbf23c18f	-0.6396722
23	0xbfc070e7	-1.5034455
24	0xbf446aaf	-0.76725286
25	0xbfd9cf17	-1.7016324
26	0xbf60b80e	-0.87780845
27	0x3f5a5feb	0.8530261
28	0x3ebc799a	0.36811525
29	0x3f51dfb7	0.81981987
30	0xbe99d1a8	-0.30042768
31	0xbed20833	-0.4102188
32	0x3f6c9b35	0.9242433
33	0x3fa54e3b	1.2914499
34	0x3f066aea	0.5250689
35	0x4029c0a1	2.6523821
36	0xbfacd321	-1.3501931
37	0xbfda7e27	-1.7069749
38	0xbec0f7b9	-0.37688997
39	0xbfbbeae5	-1.4681059
40	0x3ef7f049	0.4842551
41	0xc08b4401	-4.3520513
42	0xb784d860	-1.5836384e-05
43	0x3f956452	1.167124
44	0xbfcf0e1d	-1.6176182
45	0x3fafa445	1.3722006
46	0x3f861350	1.0474644
47	0xbfbe78b7	-1.4880589
48	0x3faf0890	1.3674488
49	0xbfe1e403	-1.7647709
50	0x3ebe8f21	0.37218574
51	0xc037f63a	-2.8744035
52	0x3ead6f47	0.3387396
53	0x3e9dfb56	0.30855817
54	0xc00b5abf	-2.1774137
55	0x3eca2bfb	0.3948668
56	0x3fc02576	1.5011432
57	0x3db0229a	0.0860035
58	0xbfa5b266	-1.2945068
59	0x40108203	2.2579353
60	0xbf97c292	-1.1856253
61	0x3ff491a5	1.9106947
62	0x3ec096fd	0.37615195
63	0xc0141df1	-2.3143275

net.linear_00.bias f4 [64]
0	0xbd5838e4	-0.05278863
1	0x3d218a61	0.03943861
2	0x3bdd48ba	0.0067530544
3	0x3c38076a	0.011232236
4	0xbde70bf7	-0.11281579
5	0x3c184439	0.009293609
6	0x3d09f30a	0.033679046
7	0x3dfe18cf	0.124070756
8	0x3d02e81a	0.03195963
9	0x3d20dbe3	0.0392722
10	0x3d63c479	0.055607293
11	0x3d45bb89	0.04827455
12	0xbe079975	-0.13242133
13	0x3d9b1411	0.07572187
14	0xbd6cc6c9	-0.057806764
15	0x3e424583	0.18971829
16	0xbe6b57bd	-0.22982688
17	0x3cff0ac7	0.031133069
18	0xbda81727	-0.08207541
19	0x3cbaba3b	0.02279388
20	0xbd11812c	-0.03552358
21	0x3cb2f9eb	0.021847686
22	0x3d4ad338	0.04951784
23	0x3cd5488c	0.02603557
24	0xbd4bc200	-0.04974556
25	0xbdabb134	-0.08383408
26	0x3ccdd526	0.025126051
27	0x3d86b5a2	0.065776125
28	0xbc28787d	-0.010282633
29	0xbd4b4928	-0.049630314
30	0xba729301	-0.00092534727
31	0xbd91f457	-0.07126682
32	0xbc21742c	-0.009854358
33	0x3c787d86	0.015166646
34	0xbcdf4e59	-0.027259039
35	0x3d768f57	0.060195293
36	0xbd2d4d4c	-0.042310044
37	0xbdb28fe0	-0.08718848
38	0x3d53dac5	0.051722307
39	0x3ddb395a	0.10704298
40	0x3dadc892	0.084855214
41	0xbd85bca2	-0.065301195
42	0xbdc19aa9	-0.09453327
43	0x3c2c6739	0.010522657
44	0x3d877772	0.06614579
45	0x3e0a35ee	0.13497135
46	0xbd66caa2	-0.05634559
47	0x3d94c591	0.07264245
48	0x3da01823	0.07817104
49	0x3db2b4c5	0.08725885
50	0x3d92e889	0.07173259
51	0xbd3cd466	-0.046100996
52	0x3d7d7877	0.061882462
53	0xbb7b7bfc	-0.003837346
54	0xbc8a113d	-0.016853923
55	0x3d88fb87	0.066886
56	0x3d0731b6	0.033006392
57	0xbd138448	-0.036014825
58	0x3c989778	0.018626913
59	0x3d0736ab	0.03301112
60	0x3c4878cc	0.0122358315
61	0x3c982a1e	0.01857477
62	0x3bfae6a7	0.0076568904
63	0x3dea8a2f	0.11452138

net.linear_03.weight f4 [64, 64]
0	0x3e7f5a88	0.24936879
1	0xbdd3014e	-0.10302983
2	0x3e244012	0.16040066
3	0xbd6a2082	-0.057159908
4	0xbb80ab76	-0.0039266897
5	0xbd1256d7	-0.03572735
6	0x3e10b5c3	0.14131837
7	0xbe470b8d	-0.19438
8	0x3bc6761e	0.006056561
9	0xbe1223e5	-0.14271505
10	0xbea00811	-0.31256154
11	0xbd8d2c1a	-0.06893177
12	0x3e5c2eee	0.21502277
13	0xbdae78b9	-0.0851912
14	0xbda0ad82	-0.07845594
15	0xbde9f987	-0.11424547
16	0x3c4b2ec4	0.0124012865
17	0x3c84aa35	0.016194442
18	0x3d0ad551	0.03389484
19	0x3debd72a	0.11515649
20	0x3dac78f2	0.08421506
21	0xbe3153f3	-0.1731718
22	0xbe8bd9c2	-0.27314574
23	0xbe887a9b	-0.2665604
24	0xbe179b0b	-0.14805238
25	0xbde36a19	-0.11104221
26	0xbe83051c	-0.25589836
27	0xbde01021	-0.10940576
28	0x3e8ece54	0.2789179
29	0xbdd09e5b	-0.10186454
30	0xbd35ec10	-0.04441458
31	0xbdce15f3	-0.1006278
32	0xbd67ad47	-0.056561735
33	0x3de30402	0.11084749
34	0xbda149e2	-0.0787542
35	0xbe768671	-0.24074723
36	0xbeabd9c7	-0.33564588
37	0xbe374b8a	-0.1789991
38	0xbd9a2de3	-0.075282834
39	0x3dbc312c	0.09189066
40	0xbe8d5681	-0.2760506
41	0x3e1c039c	0.15235752
42	0x3e118a57	0.14212929
43	0x3e9cc738	0.30620742
44	0xbe8196a0	-0.2531023
45	0x3d977275	0.07394878
46	0x3d92e346	0.07172255
47	0x3da2f8e1	0.07957626
48	0x3cc07225	0.023491928
49	0xbc262ae6	-0.010142064
50	0x3d3f6080	0.04672289
51	0xbe892096	-0.26782674
52	0x3e278ccd	0.16362305
53	0x3dd4e0a5	0.1039441
54	0xbe8a8eb4	-0.27062
55	0xbc2573ca	-0.010098407
56	0xbc9c5891	-0.0190852
57	0xbe39a448	-0.18129075
58	0xbcb93449	-0.02260794
59	0xbe1d2d9e	-0.15349433
60	0xbe71dd70	-0.23619628
61	0x3e55a7fd	0.20864864
62	0xbe4ad882	-0.19809154
63	0xbea68f49	-0.32531193
64	0xbdb6450c	-0.088998884
65	0xbe441f45	-0.19152553
66	0xbcff4e2a	-0.031165201
67	0xbe639229	-0.22223724
68	0x3d03efd9	0.03221116
69	0xbd622eb6	-0.05522033
70	0xbe4e107e	-0.20123479
71	0x3da5223a	0.08063169
72	0xbe375642	-0.17903998
73	0xbde77532	-0.1130165
74	0x3d1e271d	0.03861152
75	0xbe12d069	-0.14337315
76	0x3e5e16f9	0.21688451
77	0xbe45212c	-0.19250935
78	0x3d219304	0.039446846
79	0xbed8a956	-0.42316693
80	0x3e52b966	0.20578536
81	0xbe56ec56	-0.20988593
82	0xbe4c6a6d	-0.19962473
83	0xbc1a9c80	-0.009436727
84	0xbebdd804	-0.3707887
85	0xbe516363	-0.2044807
86	0xbea426fa	-0.32060987
87	0x3e35a8e6	0.17740211
88	0x3dd7703e	0.105194554
89	0x3e9c381b	0.30511555
90	0xbd3e3ab9	-0.04644272
91	0xbd839c67	-0.06426316
92	0xbc94a99c	-0.018147282
93	0x3d349476	0.044086896
94	0xbe95ca5e	-0.29255956
95	0xbe8b2832	-0.27179104
96	0xbd6637d0	-0.05620557
97	0x3e91ecfc	0.28501117
98	0xbde7cf9a	-0.11318894
99	0xbe5feee8	-0.21868479
100	0x3df83f06	0.12121396
101	0xbdae191b	-0.08500882
102	0xbedc8160	-0.43067455
103	0xbe123ecf	-0.14281772
104	0xbebbe3bf	-0.36697194
105	0xbe42f259	-0.19037761
106	0x3e675f03	0.22594838
107	0x3d9a7726	0.07542257
108	0x3d3f82d3	0.046755623
109	0x3d1302bb	0.035891276
110	0xbd9cc6c0	-0.07655096
111	0x3e330de3	0.17485766
112	0x3ea88480	0.3291359
113	0x3a6603d5	0.0008774375
114	0xbd6c7048	-0.057724267
115	0xbec9ef8f	-0.3944058
116	0xbeb6aa18	-0.35676646
117	0xbdddf0e5	-0.108369626
118	0xbe274256	-0.16333899
119	0x3c9df7c8	0.01928319
120	0xbe2f7137	-0.17133032
121	0xbdd1c34f	-0.1024233
122	0xbe0edd85	-0.1395169
123	0xbec2f3a6	-0.38076514
124	0xbc530798	-0.012880228
125	0xbd6381a0	-0.055543542
126	0xbe77b7a9	-0.24191155
127	0xbd71981a	-0.058982946
128	0x3d2616f5	0.040549237
129	0xbdf2cd00	-0.11855507
130	0xbe94b92a	-0.2904752
131	0xbdd9887c	-0.106217355
132	0x3d8f9ebe	0.070126995
133	0xbe635fa8	-0.22204459
134	0x3dfa633b	0.12225958
135	0xbd1dc995	-0.03852232
136	0x3d3fd13f	0.046830412
137	0xbe011f61	-0.12609626
138	0x3dacb216	0.08432405
139	0xbbcac3eb	-0.006187906
140	0x3e0f16cf	0.13973545
141	0xbcd1c64e	-0.025607254
142	0xbecd052a	-0.40043002
143	0xbd8f76be	-0.0700507
144	0xbe84e9f4	-0.25959742
145	0xbd75877c	-0.05994366
146	0xbd4e8ad6	-0.050425373
147	0xbe1ea3df	-0.154922
148	0x3c66b6c1	0.014081658
149	0x3d3873fe	0.045032494
150	0xbd079358	-0.033099502
151	0x3e3abdec	0.18236512
152	0x3ed05d66	0.40696257
153	0xbe8f7e88	-0.28026223
154	0xbe36e63e	-0.17861268
155	0xbedad28a	-0.42738754
156	0x3e98c209	0.29835537
157	0x3ebd9240	0.37025642
158	0xbe84aad8	-0.25911593
159	0x3df99575	0.1218671
160	0x3c1e09f7	0.0096459305
161	0xbe4f12ad	-0.20221968
162	0xbea97bc3	-0.33102235
163	0xbe930451	-0.2871423
164	0x3cff14c4	0.031137832
165	0xbe50bcef	-0.20384572
166	0xbc95dd58	-0.018294021
167	0xbcfb3985	-0.030667076
168	0x3e658a82	0.22416118
169	0x3d67b266	0.05656662
170	0x3ea46181	0.3210564
171	0xbe00f2a7	-0.12592565
172	0x3e213cef	0.157459
173	0x3d0732a5	0.033007283
174	0xbe9dfeed	-0.30858555
175	0x3dcdc4b2	0.10047282
176	0xbe0f2565	-0.13979109
177	0xbe7ceaed	-0.24698992
178	0xbdcdaa06	-0.10042195
179	0xbe7d0fc3	-0.24713044
180	0xbea60690	-0.32426882
181	0xbe4ca6f4	-0.19985563
182	0xbe3aeb30	-0.1825378
183	0x3e9dce46	0.30821437
184	0xbdf89796	-0.12138288
185	0xbdb09486	-0.086220786
186	0x3de2a62d	0.11066852
187	0x3e09e0bf	0.1346464
188	0xbc958575	-0.018252114
189	0xbeb3b1ea	-0.35096675
190	0xbd4867a5	-0.048926968
191	0x3db2102d	0.086944915
192	0x3dc30b14	0.09523597
193	0x3e377f9e	0.17919776
194	0xbd89734c	-0.06711444
195	0xbdcde331	-0.10053099
196	0xbe45fb74	-0.19334203
197	0x3ba2d4d5	0.004969219
198	0x3e0cb768	0.13741839
199	0x3e2834ed	0.1642644
200	0xbe34cc75	-0.17656119
201	0xbe44065b	-0.1914305
202	0x3e07f93a	0.13278666
203	0xbd902284	-0.07037833
204	0xbe219ab9	-0.15781678
205	0xbdc6110d	-0.09671221
206	0xbe670283	-0.22559552
207	0x3e1bfd54	0.15233356
208	0xbe0f103f	-0.13971041
209	0xbf16e2fa	-0.5894009
210	0xbdcf9389	-0.10135562
211	0x3a77ee33	0.00094577967
212	0x3eb4f9ae	0.3534674
213	0x3d4f0d62	0.050549872
214	0x3dae14a8	0.085000336
215	0x3eae0679	0.33989313
216	0xbe3be00f	-0.1834719
217	0x3cdefef1	0.027221175
218	0x3ae3a57c	0.0017368044
219	0xbe0454be	-0.12922952
220	0xbc9acf1f	-0.018897591
221	0xbe5befdb	-0.21478216
222	0xbe8ca326	-0.27468222
223	0xbdf8e8db	-0.12153789
224	0xbd96cf0b	-0.07363709
225	0xbd13eda0	-0.03611529
226	0xbe8f8818	-0.2803352
227	0xbd80dd64	-0.06292227
228	0xbef04116	-0.46924657
229	0xbe0bbfc2	-0.13647369
230	0xbe04e7f2	-0.12979105
231	0xbea16b1d	-0.31527033
232	0xbdc55402	-0.09635164
233	0x3ecce04a	0.4001487
234	0x3d8d74b9	0.06907029
235	0x3ea8469f	0.3286638
236	0x3c8a19a7	0.016857935
237	0x3eafce41	0.34337047
238	0x3da2a509	0.07941634
239	0xbe33b3af	-0.17549013
240	0x3d859d70	0.065241694
241	0xbca7ae09	-0.020468729
242	0xbe3da6ff	-0.18520735
243	0xbdf31600	-0.118694305
244	0xbc1c9949	-0.00955803
245	0x3e048593	0.1294158
246	0xbd27c64e	-0.040960602
247	0xbe5c0036	-0.21484455
248	0x39e50c54	0.0004368747
249	0xbde098f4	-0.109666735
250	0xbe6852fd	-0.22687908
251	0xbe2cfc89	-0.1689321
252	0xbd8b3808	-0.067977965
253	0x3dc38216	0.09546296
254	0xbe030a1f	-0.1279683
255	0x3d18080b	0.037117045

net.linear_03.bias f4 [64]
0	0xbd7ee4d7	-0.062229957
1	0xbe9642df	-0.29347894
2	0xbe37c816	-0.1794742
3	0x3d7f1f43	0.062285673
4	0x3d3ba8f0	0.04581541
5	0xbd41ecf7	-0.047345128
6	0x3e74255f	0.23842381
7	0xbdb77105	-0.08957104
8	0x3da7f427	0.08200865
9	0xbe098b32	-0.13432005
10	0xbe874d26	-0.26426047
11	0x3d821e88	0.063534796
12	0xbc8fd919	-0.017559575
13	0x3df2b39f	0.11850666
14	0x3d274d03	0.04084493
15	0xbe87f2ca	-0.2655242
16	0xbce3fff5	-0.02783201
17	0x3d6d45e5	0.057927985
18	0x3ac71421	0.0015188494
19	0xbdf0409e	-0.11731075
20	0x3e2505ef	0.16115545
21	0xbd4d84b1	-0.050175373
22	0xbeb09849	-0.34491184
23	0x3d2d6aaa	0.04233805
24	0xbd86d845	-0.06584219
25	0xbdf750f8	-0.120759904
26	0xbd1df095	-0.038559515
27	0x3d19348d	0.037403632
28	0xbe016566	-0.12636337
29	0xbdce93f9	-0.10086817
30	0xbe0ad863	-0.13559107
31	0x3b8c48f8	0.0042811595
32	0x3d2076ea	0.039175905
33	0x3cc7f390	0.024408132
34	0x3c8fbd24	0.017546244
35	0x3c5b2a6d	0.013376814
36	0x3d4ab0d8	0.049485058
37	0xbe4ea494	-0.20179969
38	0x3e115459	0.14192332
39	0xbd7c2625	-0.061559815
40	0xbd188378	-0.037234753
41	0xbd6952a0	-0.056963563
42	0xbe31a9c3	-0.17349915
43	0xbde42b68	-0.111410916
44	0x3ddb6954	0.10713449
45	0xbd016cd8	-0.031597942
46	0x3dcab2f0	0.09897411
47	0xbd282e12	-0.04105956
48	0x3c71a4c2	0.014748754
49	0xbe20df76	-0.15710244
50	0x3d0abf8a	0.033874072
51	0xbdca8ca9	-0.0989011
52	0xbd0eef0b	-0.034895938
53	0xbc97c707	-0.01852752
54	0x3d8d45b3	0.0689806
55	0xbd9195bf	-0.0710864
56	0xbd74e176	-0.05978533
57	0x3ccaed0b	0.024771234
58	0xbcc15cc5	-0.023603806
59	0xbc952ed6	-0.01821081
60	0x3e173fc3	0.14770417
61	0x38bb666d	8.935933e-05
62	0x3cc04481	0.023470165
63	0x3d38bd6b	0.045102518

net.mixturesofgaussianlayer_06.fc_pi.weight f4 [5, 64]
0	0xbe6589a7	-0.22415791
1	0xbe5fa2c5	-0.21839435
2	0x3e974525	0.2954494
3	0x3e3e9b6c	0.18613976
4	0x3cf5849d	0.029970462
5	0xbe685342	-0.2268801
6	0xbd0320ab	-0.032013576
7	0xbceca255	-0.028886
8	0xbd6e74f7	-0.058217015
9	0xbe46308c	-0.19354457
10	0x3d0c939a	0.03432045
11	0x3c72e954	0.014826138
12	0xbdfd7ec0	-0.12377691
13	0xbe1f600c	-0.15563983
14	0x3ea040da	0.31299478
15	0x3d5d054a	0.053960122
16	0xbe042aff	-0.12907027
17	0xbd231c00	-0.039821625
18	0x3d95c6f3	0.07313337
19	0x3d5bdb15	0.05367573
20	0xbe4acd60	-0.19804907
21	0xbe3eb8e1	-0.18625213
22	0xbd77cb8b	-0.060496848
23	0x3e0cee2c	0.1376273
24	0xbe8975f6	-0.2684781
25	0x3c8bcba6	0.01706488
26	0xbde02a7f	-0.109456055
27	0x3d8bc89a	0.06825371
28	0xbc34d334	-0.011036683
29	0xbe322b3e	-0.17399308
30	0x3db391b5	0.08768026
31	0xbd20655d	-0.039159168
32	0x3dabd7b1	0.08390749
33	0xbdae9e7b	-0.085263215
34	0xbc8d1523	-0.017221993
35	0xbdb34065	-0.08752517
36	0x3d908263	0.07056119
37	0x3e52dbea	0.20591703
38	0xbd458ca2	-0.04822982
39	0xbeb03856	-0.3441798
40	0xbddaafd3	-0.10678067
41	0x3d17fff8	0.037109345
42	0xbddc618c	-0.10760793
43	0xbbf1c372	-0.007378035
44	0xbd91673c	-0.070997685
45	0xbe6030e6	-0.21893653
46	0x3e86df41	0.26342204
47	0x3b44a6a8	0.0030006561
48	0x3db63bd8	0.08898133
49	0x3e36123c	0.17780393
50	0xbeaba027	-0.33520624
51	0x3e08eaa0	0.13370752
52	0x3e85c6f8	0.26128364
53	0x3ea4eb94	0.32210982
54	0xbe6d10af	-0.23150896
55	0xba935ac0	-0.0011242256
56	0x3cd690ca	0.026192088
57	0xbf20d018	-0.62817526
58	0xbe5ab96e	-0.21359798
59	0x3c8cda6c	0.017193995
60	0x3db648e0	0.089006186
61	0xbe822848	-0.25421357
62	0x3e630884	0.22171217
63	0x3dab7e8e	0.08373748
64	0x3ca733f0	0.020410508
65	0x3efd84e2	0.49515444
66	0x3e06ab57	0.13151298
67	0xbd65ecca	-0.056134023
68	0xbdff613a	-0.12469716
69	0x3e989ba4	0.29806244
70	0x3ed72f88	0.4202845
71	0xbd47d0fb	-0.048783284
72	0x3ea8648a	0.32889205
73	0xbd12b488	-0.0358167
74	0x3ede6759	0.43438223
75	0x3ea3f4ca	0.32022697
76	0xbbf4238f	-0.007450528
77	0x3e746938	0.23868263
78	0x3e3beab3	0.1835125
79	0xbc7c5d7d	-0.015403149
80	0x3e2b225b	0.16712324
81	0x3e1d5932	0.15366057
82	0x3e69b8fd	0.22824474
83	0xbec14116	-0.3774497
84	0xbbf4e1f1	-0.0074732234
85	0xbd8066a3	-0.062695764
86	0x3d9fb7c0	0.077987194
87	0x3e91799b	0.2841309
88	0x3e68658b	0.22694986
89	0xbdc13686	-0.09434228
90	0xbd394b3c	-0.045237765
91	0x3e2df4b6	0.16987881
92	0x3e87a589	0.2649348
93	0x3ec1761c	0.37785423
94	0x3e0a9158	0.13532007
95	0x3d9bf75c	0.076155394
96	0x3e6f097a	0.23343459
97	0xbc974b60	-0.018468559
98	0xbe396f1d	-0.18108793
99	0xbd3dca63	-0.04633559
100	0x3d28e481	0.041233543
101	0x3e1f7f04	0.15575796
102	0xbe982995	-0.29719225
103	0x3c562811	0.013071076
104	0x3e0db9a4	0.13840348
105	0xbcb2f3c5	-0.021844754
106	0x3e20e66c	0.15712899
107	0xbe0362c4	-0.12830645
108	0x3e52e4d5	0.20595105
109	0x3dd1a6e3	0.10236909
110	0x3d306344	0.043063417
111	0x3e4567ac	0.19277829
112	0x3d9dca30	0.0770458
113	0xbda1aa83	-0.07893851
114	0x3e890380	0.26760483
115	0x3dff0e04	0.12453845
116	0x3ed50f6f	0.41613337
117	0xbd9d97fa	-0.07695003
118	0x3e1368e2	0.14395478
119	0xbd8e1008	-0.069366515
120	0xbdabff84	-0.08398345
121	0x3eaaccde	0.33359426
122	0x3ddb539b	0.10709306
123	0xbe0ec671	-0.13942887
124	0x3ded09d0	0.11574137
125	0x3e93808b	0.28809008
126	0xbe30a149	-0.17249025
127	0x3e106d1a	0.14104119
128	0x3e646ecd	0.22307892
129	0xbeca49ca	-0.39509422
130	0xbeb6eb1f	-0.35726258
131	0x3e460590	0.1933806
132	0xbe7194ca	-0.23591915
133	0xbea05619	-0.31315687
134	0xbdfd26a6	-0.12360887
135	0x3f0db2d6	0.55351007
136	0xbce9b4a1	-0.028528513
137	0xbe3162c3	-0.17322831
138	0xbeb9f9aa	-0.3632329
139	0xbe35b6b2	-0.17745474
140	0xbd8ccefd	-0.068754174
141	0x3e191320	0.14948702
142	0xbe87f14f	-0.2655129
143	0xbe748f51	-0.23882796
144	0x3e1de0f8	0.1541785
145	0xbe6b1465	-0.22956999
146	0xbeaf3ffe	-0.3422851
147	0x3e34d8e4	0.17660862
148	0xbeb0c555	-0.34525552
149	0x3d90ba78	0.07066816
150	0xbe45a72b	-0.19302051
151	0xbd69573e	-0.056967966
152	0xbe9f985f	-0.31170937
153	0xbea3f7f2	-0.32025105
154	0x3d340bed	0.043956686
155	0x3e97bc80	0.29636002
156	0xbee3cd04	-0.44492352
157	0xbee9cf05	-0.45665756
158	0xbe705547	-0.2347003
159	0x3e599643	0.21248727
160	0x3e177243	0.14789681
161	0xbe8ef479	-0.27920893
162	0xbf203c10	-0.6259165
163	0x3df79d96	0.12090604
164	0x3e8eefc7	0.2791731
165	0xbe86de96	-0.26341695
166	0xbeda1d24	-0.42600358
167	0xbdb37013	-0.08761611
168	0xbe6313c6	-0.22175512
169	0x3e8642dc	0.26222885
170	0xbe00fc53	-0.12596254
171	0xbbeb6000	-0.007183075
172	0xbd0c5b16	-0.034266554
173	0x3d709348	0.05873421
174	0xbeae4e48	-0.340441
175	0x3e8195fa	0.25309736
176	0x3e1a3c21	0.15062
177	0x3e958432	0.2920242
178	0xbe5ba9fb	-0.21451561
179	0xbebfbe65	-0.37449947
180	0xbe27da2f	-0.16391824
181	0xbc781fb4	-0.015144277
182	0x3c4e8292	0.012604373
183	0x3db0507c	0.08609101
184	0xbdd00ad8	-0.10158318
185	0x3d0f91eb	0.035051268
186	0xbeca0fe9	-0.39465263
187	0xbec35495	-0.38150468
188	0x3d748cb1	0.059704486
189	0x3d3255d4	0.043538883
190	0xbe8150ed	-0.25257054
191	0x3c2f1ddc	0.010688271
192	0x3dfa0a48	0.12208992
193	0x3e00472f	0.12527154
194	0x3c679c95	0.014136453
195	0xbe90a7bd	-0.28252974
196	0xbdc51590	-0.09623253
197	0xbd15a4e6	-0.036534213
198	0xbd75d101	-0.060013775
199	0xbc452328	-0.012032308
200	0xbe86d395	-0.263333
201	0x3d802c03	0.062583946
202	0x3d2f6760	0.042823195
203	0xbeb0f16d	-0.34559193
204	0xbdfab456	-0.122414276
205	0xbb53848f	-0.0032275056
206	0x3ddac7bc	0.106826276
207	0x3e3e5880	0.18588448
208	0x3eca666c	0.39531267
209	0xbd676066	-0.056488417
210	0x3de511ea	0.111850575
211	0xbe97aaf7	-0.29622623
212	0xbd875c62	-0.066094175
213	0x3e3d80cf	0.18506168
214	0x3eae6dc6	0.34068125
215	0x3eb21b55	0.34786478
216	0x3e91665f	0.28398415
217	0x3e853c53	0.26022586
218	0x3e1d8354	0.15382129
219	0x3eb04fdf	0.34435937
220	0xbe19f4bc	-0.15034765
221	0x3d78b325	0.06071772
222	0x3e011e7c	0.12609285
223	0x3d38d9ab	0.04512946
224	0x3cd3c89b	0.025852492
225	0xbed877e4	-0.4227897
226	0xbeaddad3	-0.33956012
227	0xbe0e45dc	-0.13893837
228	0xbe9bb5de	-0.3041219
229	0x3df23589	0.11826617
230	0xbd2cc1ae	-0.042176895
231	0x3d6f9b59	0.05849776
232	0x3db2a9e6	0.08723812
233	0x3d098258	0.03357157
234	0x3e97b88a	0.2963298
235	0xbd62e285	-0.055391807
236	0xbe11538f	-0.14192031
237	0xbd9e1b1e	-0.07720016
238	0x3e5d47c3	0.21609406
239	0x3da2de00	0.079524994
240	0xbc49b2e1	-0.012310714
241	0x3dbe9332	0.09305419
242	0x3d722683	0.05911876
243	0xbd4ba9bb	-0.049722414
244	0xbe816ac5	-0.2527677
245	0x3e8a9253	0.27064762
246	0xbdaee17f	-0.08539104
247	0xbc3403ba	-0.010987217
248	0xbd1df19a	-0.038560487
249	0xbe465916	-0.19369921
250	0xbe9f5e98	-0.31126857
251	0xbe22a675	-0.15883811
252	0xbeb21054	-0.34778082
253	0xbe8ae0bd	-0.27124587
254	0xbd88046c	-0.066414684
255	0xbe801532	-0.2501617

net.mixturesofgaussianlayer_06.fc_pi.bias f4 [5]
0	0xbd90333b	-0.070410214
1	0x3b989376	0.0046562506
2	0x3e44406b	0.19165199
3	0xbe3d381c	-0.18478435
4	0x3d3d4355	0.04620679

net.mixturesofgaussianlayer_06.fc_mu.weight f4 [5, 64]
0	0x3edd047d	0.43167487
1	0x3d9ccbde	0.07656072
2	0xbde555d5	-0.11198012
3	0xbe050980	-0.12991905
4	0xbec68d01	-0.38779452
5	0x3d846fc2	0.064666286
6	0x3e393bee	0.18089268
7	0x3da9aefa	0.08285327
8	0xbee86e8d	-0.45396844
9	0x3e223751	0.15841414
10	0x3d41aba0	0.047282815
11	0x3d880aab	0.0664266
12	0x3da18777	0.07887166
13	0x3d6f4e04	0.05842401
14	0xbda8c210	-0.082401395
15	0xbd4548dc	-0.048165187
16	0x3dea86de	0.11451505
17	0x3ea54cbe	0.32285112
18	0x3cc0af0e	0.023520973
19	0xbdc39b3d	-0.09551094
20	0xbdb2c38e	-0.08728705
21	0xbd40f8a6	-0.04711213
22	0xbd9995f7	-0.07499307
23	0x3dd6a7f8	0.10481256
24	0xbc77776d	-0.015104157
25	0x3e23f3c4	0.16010958
26	0xbe34b75e	-0.17648074
27	0x3eb54f3b	0.3541201
28	0xbe576b4e	-0.21037027
29	0xbe6241d9	-0.22095431
30	0xbe38636f	-0.18006681
31	0xbe2085a3	-0.15675978
32	0xbdacbbb8	-0.08434242
33	0x3e0044b6	0.12526211
34	0xbdf6482d	-0.12025485
35	0x3da61a63	0.081105016
36	0x3d89ae0d	0.06722651
37	0x3d54784d	0.05187254
38	0x3cd3be95	0.025847713
39	0x3e7e15d9	0.24813022
40	0xbcb203ac	-0.021730267
41	0x3eadaaad	0.33919278
42	0xbe58eebc	-0.2118482
43	0xbc90c7d8	-0.017673418
44	0x3e2bf3b3	0.16792183
45	0x3cc3d052	0.023903046
46	0x3de4281c	0.11140463
47	0x3d7b1cdc	0.06130682
48	0x3c103a52	0.008802967
49	0x3d85dc8f	0.06536209
50	0x3d651501	0.055928234
51	0xbd17bfd0	-0.03704816
52	0xbd8682d0	-0.06567919
53	0x3eceff11	0.40428975
54	0xbe3b615f	-0.18298863
55	0x3e77fa5b	0.24216597
56	0xbdf24403	-0.118293785
57	0x3d876cb0	0.06612527
58	0x3d9f9e25	0.077938356
59	0x3bf82d14	0.007573733
60	0xbe5f8ebe	-0.21831796
61	0x3ca5debb	0.020247808
62	0xbddbd2ec	-0.107335895
63	0x3e797ab9	0.24363221
64	0xbe0755bf	-0.13216303
65	0xbe60ab41	-0.21940328
66	0x3d173e3f	0.036924597
67	0x3d523ceb	0.051327627
68	0x3d8fce52	0.07021774
69	0xbe88aecd	-0.26695862
70	0xbcec897e	-0.028874155
71	0x3c099152	0.0083964635
72	0xbe3f653c	-0.18690962
73	0xbd94c86e	-0.072647914
74	0xbd33d082	-0.04390002
75	0xbe264d88	-0.16240513
76	0x3cfeb5d6	0.031092566
77	0x3e990e65	0.29893795
78	0xbdc0832b	-0.09400018
79	0x3b8a8ae7	0.004227984
80	0x3edefe65	0.43553463
81	0xbdb0df6e	-0.08636366
82	0x3dd3fdb4	0.103511244
83	0x3dee8a8f	0.11647522
84	0xbd83020e	-0.06396876
85	0x3d8f562f	0.0699886
86	0xbe0ce9aa	-0.13761011
87	0x3e154a39	0.14579095
88	0xbd3aa8d6	-0.04557117
89	0x3d0cfbe4	0.03441991
90	0x3dcde460	0.10053325
91	0x3e47e2ab	0.1952006
92	0x3d80d77c	0.062911004
93	0xbe36a1c8	-0.17835152
94	0xbd9c73f6	-0.07639305
95	0x3da81068	0.08206254
96	0x3b1b7727	0.0023722143
97	0x3e1caa40	0.1529932
98	0x3ecd6e00	0.40122986
99	0xbd82c708	-0.063856184
100	0x3c2fd608	0.010732181
101	0xbc4c9b23	-0.012488159
102	0xbd755960	-0.059899688
103	0x3d170baf	0.036876377
104	0x3dcc80c1	0.09985495
105	0xbe350304	-0.17676932
106	0xbcfe00d7	-0.03100626
107	0x3d5788b5	0.05262061
108	0x3d628289	0.05530027
109	0xbddf7e35	-0.10912744
110	0xbe48e4a5	-0.19618471
111	0xbddd9409	-0.10819251
112	0xbc3600fe	-0.011108635
113	0xbe441330	-0.19147944
114	0xbe435e62	-0.19078973
115	0x3e051236	0.12995228
116	0xbec21771	-0.3790851
117	0xbef8bac9	-0.48580006
118	0xbe13efd4	-0.14446956
119	0x3e9dcbd3	0.30819568
120	0x3d8ae262	0.0678146
121	0xbecaf228	-0.39637876
122	0x3d0de570	0.034642637
123	0x3d2921cb	0.041291993
124	0x3ca91c14	0.020643272
125	0x3d8cc951	0.068743356
126	0x3eac2524	0.33622086
127	0x3da5b1c2	0.08090545
128	0xbe458fb6	-0.19293103
129	0x3e495750	0.19662213
130	0xbda3622c	-0.07977709
131	0xbe5a5d31	-0.21324612
132	0xbdd9596a	-0.106127575
133	0xb9e1aed3	-0.00043045598
134	0x3d4b200b	0.049591105
135	0xbe4c4694	-0.19948798
136	0x3e085b07	0.13315974
137	0xbd1c3af1	-0.03814215
138	0x3e8740de	0.26416677
139	0x3e2e42d9	0.17017688
140	0xbe5eed25	-0.21770151
141	0xbd2b44ef	-0.041813787
142	0x3e21fda6	0.15819415
143	0xbc641d4e	-0.013923002
144	0xbd69c14e	-0.057069115
145	0xbe4bdb73	-0.19907932
146	0x3d99f1e2	0.075168386
147	0xbdffeb93	-0.12496104
148	0x3e0fe0b7	0.14050566
149	0x3eb36df7	0.35044834
150	0xbc87175a	-0.016490627
151	0x3e4dc9a0	0.20096445
152	0x3eaa6eaf	0.3328757
153	0x3e8f811c	0.2802819
154	0xbd7038df	-0.058647987
155	0xbdfc906b	-0.12332233
156	0xbd86d90c	-0.06584367
157	0x3d436743	0.0477059
158	0xbdbed1df	-0.093173735
159	0xbdc480a3	-0.09594848
160	0xbd411597	-0.04713973
161	0x3ead1929	0.33808258
162	0x3d5d91e8	0.054094225
163	0xbdeadbbf	-0.114676945
164	0xbee8b99e	-0.45454115
165	0x3d39bd87	0.045346763
166	0xbbd4dd10	-0.0064960793
167	0xbe60f403	-0.21968083
168	0xbe175b57	-0.14780937
169	0x3ea5d942	0.32392317
170	0x3cdbf47c	0.026849978
171	0xbd4a8956	-0.04944738
172	0x3e2dc0d9	0.16968097
173	0x3dae66a3	0.0851567
174	0x3d6fa9b7	0.058511462
175	0xbd02c662	-0.031927474
176	0xbe13f382	-0.1444836
177	0xbbf3ad7a	-0.0074364515
178	0x3e213626	0.15743312
179	0x3e0dd794	0.13851768
180	0xbd052550	-0.032506287
181	0xbe3b8a7c	-0.18314546
182	0x3edf75de	0.43644613
183	0xbd159afd	-0.03652476
184	0xbc6ff99a	-0.014646912
185	0x3e3ddd2f	0.18541406
186	0xbe538b79	-0.20658673
187	0xbe17a965	-0.14810713
188	0x3c3a6e53	0.011378842
189	0xbd31ebbe	-0.043437712
190	0x3e08b587	0.13350497
191	0xbc730f2a	-0.014835158
192	0xbd794817	-0.060859766
193	0xbd9a0acf	-0.07521593
194	0x3d335e78	0.043791264
195	0x3e00b8f0	0.12570548
196	0xbe5f9083	-0.2183247
197	0xbc06c0e1	-0.008224697
198	0x3e8d0d9d	0.2754945
199	0xbe5a0b17	-0.21293293
200	0x3d8c5cdb	0.06853648
201	0xbda7e8cd	-0.081987
202	0x3e46abf7	0.19401537
203	0xbdd77a90	-0.10521424
204	0x3e6159e5	0.22006948
205	0xbe6d8078	-0.23193538
206	0xbdb2c425	-0.08728818
207	0xbdfcee10	-0.12350094
208	0xbc5f814f	-0.013641669
209	0xbdcc348a	-0.099709585
210	0xbe4bda09	-0.19907393
211	0x3ddcd630	0.107830405
212	0x3dc70f25	0.097196855
213	0x3ca07601	0.019587519
214	0x3db43720	0.08799577
215	0x3e299f4a	0.1656467
216	0x3c7acdcc	0.015307855
217	0x3db6bfae	0.08923279
218	0xbda30712	-0.07960333
219	0xbe878799	-0.2647064
220	0xbe009adf	-0.12559079
221	0x3b1b200a	0.002367022
222	0xbd88bcc6	-0.06676631
223	0x3d72bf9b	0.05926476
224	0xbe6e4b65	-0.23270948
225	0x3d372254	0.044710472
226	0xbe0e61eb	-0.1390454
227	0x3d3eee3a	0.04661391
228	0xbee55fe7	-0.4479973
229	0x3b4bddf2	0.0031107632
230	0x3e17dc8b	0.14830224
231	0xbd4ac143	-0.049500715
232	0x3d0fc78c	0.035102412
233	0xbe68a337	-0.22718512
234	0x3d85cec5	0.06533579
235	0x3e936169	0.28785256
236	0xbdf31015	-0.11868302
237	0x3ca8e7e0	0.02061838
238	0xbe551cd5	-0.2081178
239	0x3e30da4f	0.17270778
240	0xbdd9c9eb	-0.10634216
241	0x3a2eb65e	0.0006664748
242	0xbdc8c135	-0.09802476
243	0x3ddab725	0.10679463
244	0xbe282e4d	-0.16423912
245	0xbc6867d6	-0.014184913
246	0xbccdc53a	-0.025118459
247	0x3deb1e11	0.11480344
248	0xbe476746	-0.1947299
249	0xbe1493c7	-0.14509498
250	0x3eb773f5	0.35830656
251	0x3eb89ad2	0.3605562
252	0x3d945878	0.072434366
253	0xbe23a122	-0.15979436
254	0xbe196c5b	-0.1498274
255	0xbe900cd7	-0.28134796

net.mixturesofgaussianlayer_06.fc_mu.bias f4 [5]
0	0xbd44d7dc	-0.048057422
1	0x3cdcafca	0.026939292
2	0xbc9b7db8	-0.018980846
3	0x3ca73e34	0.020415403
4	0xbd4badd5	-0.049726326

net.mixturesofgaussianlayer_06.fc_sigma.weight f4 [5, 64]
0	0x3e9dc863	0.30816945
1	0x3efcc33c	0.49367702
2	0x3edf361a	0.43595964
3	0xbf436956	-0.76332605
4	0x3da5e792	0.08100809
5	0x3ec8ee17	0.39244148
6	0xbf017a2e	-0.50577056
7	0x3f1e31ff	0.6179504
8	0xbdff581f	-0.1246798
9	0x3ebc7e74	0.36815226
10	0x3f32a73f	0.6978645
11	0xbe6068bf	-0.21914957
12	0x3d5fd15e	0.054643027
13	0xbea7b56d	-0.32755604
14	0x3e98f60e	0.29875225
15	0x3f018bff	0.5060424
16	0xbd141d71	-0.03616089
17	0xbe8f7d63	-0.2802535
18	0xbe7fcd93	-0.24980764
19	0x3f80b028	1.0053759
20	0xbea17baa	-0.3153966
21	0x3e314dde	0.1731486
22	0x3eeec6eb	0.46636137
23	0x3dd38f0c	0.103300184
24	0xbdb53bb0	-0.08849275
25	0x3de7a85a	0.113114074
26	0xbd42189e	-0.047386758
27	0xbe922962	-0.28547198
28	0x3da24990	0.07924187
29	0xbdc1a9c1	-0.09456206
30	0x3dbcb1d9	0.09213609
31	0xbdec8729	-0.11549217
32	0xbdd20b49	-0.10256059
33	0xbe604a3d	-0.2190332
34	0xbe334234	-0.17505723
35	0xbd50b18c	-0.050950572
36	0xbda0ec66	-0.078575894
37	0x3ef26c49	0.4734824
38	0xbef56a7c	-0.47932804
39	0x3eeebff5	0.46630827
40	0x3e574f4b	0.21026342
41	0x3eb83cbf	0.35983846
42	0x3cc73806	0.024318706
43	0x3dd231c2	0.10263397
44	0xbf355814	-0.7083752
45	0xbe752a41	-0.239419
46	0xbebb19ef	-0.36543223
47	0x3cbc7fbb	0.023010125
48	0x3d22cc44	0.039745584
49	0x3e5ec2d5	0.2175401
50	0xbdbdb65c	-0.09263298
51	0x3f13d120	0.57740974
52	0xbe2f34ad	-0.17109938
53	0x3df9ef8e	0.122038946
54	0xbe8961d8	-0.2683246
55	0x3eec8b80	0.4620018
56	0x3d3069b0	0.04306954
57	0xbeb02694	-0.34404433
58	0xbd48b771	-0.04900307
59	0xbeb150eb	-0.34632048
60	0xbebbee3d	-0.367052
61	0xbd58dc7d	-0.05294465
62	0xbd34a4a6	-0.044102333
63	0xbe0d66e2	-0.13808778
64	0xbe2e53db	-0.17024176
65	0x3ee19b51	0.4406381
66	0x3e8682e4	0.26271737
67	0xbdd09d6b	-0.10186275
68	0x3da92633	0.08259239
69	0x3ccc85e6	0.024966192
70	0xbdb6b3f6	-0.089210436
71	0xbd1f4c51	-0.03889114
72	0xbe9b8201	-0.30372623
73	0xbc2c2b8d	-0.01050843
74	0x3ebcbeb7	0.36864254
75	0xbd90cca5	-0.07070283
76	0xbe4f86c1	-0.20266248
77	0xbe47be29	-0.19506134
78	0x3e92b1d7	0.28651306
79	0x3ed33342	0.41250044
80	0xbd272ec9	-0.040816102
81	0xbdb1964a	-0.086712435
82	0xbd4e407b	-0.050354462
83	0x3ec30c95	0.38095537
84	0xbe9d000e	-0.30664104
85	0x3e3f51e4	0.18683583
86	0x3e48f2ee	0.1962392
87	0x3eb3700f	0.3504643
88	0x3e91e7e1	0.28497222
89	0x3eff19bc	0.4982432
90	0x3ce4379c	0.027858548
91	0xbd296f3e	-0.041365854
92	0x3e46ddd4	0.19420558
93	0x3e81a8b3	0.2532402
94	0x3e0b3d5d	0.13597627
95	0xbe9c8318	-0.30568767
96	0x3ba96311	0.0051692803
97	0xbd2aedd5	-0.04173072
98	0xbe231a06	-0.15927896
99	0xbcf3e6e6	-0.029773187
100	0xbe4e6eb3	-0.20159416
101	0x3ec2be0f	0.38035628
102	0xbeb4994d	-0.3527321
103	0x3e835910	0.25653887
104	0x3e2a26ce	0.16616365
105	0x3e747a9b	0.23874895
106	0x3e11f7a7	0.14254628
107	0x3d9cd563	0.07657888
108	0xbe0d2cec	-0.13786668
109	0x3d63ce03	0.05561639
110	0xbe4c8e2c	-0.1997611
111	0xbd8435bd	-0.06455562
112	0xbdda0e74	-0.10647288
113	0x3e782644	0.24233347
114	0xbe9210dd	-0.2852849
115	0x3e0bfcba	0.13670626
116	0x3d865c79	0.065606065
117	0xbe45c412	-0.19313076
118	0xbdfdf4bd	-0.12400196
119	0x3eb3b3c4	0.35098088
120	0x3dae5070	0.08511436
121	0xbd851d57	-0.06499737
122	0xbdd26578	-0.1027326
123	0xbde66781	-0.112502106
124	0xbda0dbd2	-0.078544274
125	0x3de0fd92	0.10985865
126	0xbca44d74	-0.020056464
127	0xbc8d51e4	-0.017250963
128	0x3c699ea2	0.014259012
129	0x3e14b561	0.14522316
130	0x3f1ab9c7	0.60439724
131	0xbea4fa90	-0.32222414
132	0x3eb4e34e	0.3532967
133	0x3dabc07c	0.08386323
134	0xbf1a7345	-0.6033214
135	0x3d223f15	0.03961094
136	0xbe1d6ea5	-0.15374239
137	0x3ead6e3e	0.3387317
138	0x3ee9ae10	0.45640612
139	0x3e8041d9	0.25050238
140	0xbcc414a0	-0.023935616
141	0xbec5becb	-0.38622126
142	0x3db435c0	0.087993145
143	0x3e4a4584	0.1975308
144	0xbda0b7be	-0.07847546
145	0xbe8af941	-0.2714329
146	0x3daade9c	0.083432406
147	0x3ed64f00	0.41857147
148	0xbe9b5ccd	-0.3034424
149	0x3da04857	0.07826298
150	0x3e96f0de	0.29480642
151	0xbd8a6b10	-0.06758702
152	0x3e8e288c	0.2776531
153	0xbd7fbd93	-0.06243665
154	0xbe08442a	-0.13307253
155	0xbe820527	-0.25394556
156	0x3db879c8	0.09007603
157	0xbdfad4ca	-0.122476175
158	0x3ed673c7	0.41885206
159	0x3d936f3e	0.07198952
160	0xbe94e3f8	-0.29080176
161	0xbe3a18e9	-0.18173565
162	0x3e5b7e01	0.21434785
163	0xbd370e91	-0.044691626
164	0xbed05183	-0.40687189
165	0x3e2eedad	0.17082854
166	0xbdbec1b3	-0.09314289
167	0xbcda6de6	-0.026663732
168	0x3e331503	0.17488484
169	0x3ddd8654	0.10816637
170	0xba150076	-0.00056839676
171	0xbc94d1a7	-0.018166376
172	0x3e584f4c	0.21124
173	0xbd120ae5	-0.03565492
174	0x3d88887a	0.06666656
175	0x3e0c27b4	0.1368702
176	0x3e506ba1	0.20353557
177	0xbc770a64	-0.015078161
178	0x3e2d39b9	0.1691655
179	0x3ee198ed	0.44061986
180	0x3dcb04f2	0.099130526
181	0x3dcdd7c8	0.10050923
182	0xbeb9ca69	-0.3628724
183	0x3d35212b	0.044221085
184	0xbe80652d	-0.2507719
185	0x3e51fffd	0.20507808
186	0xbd4afb63	-0.049556147
187	0x3ed4a12b	0.4152921
188	0xbe806d08	-0.25083184
189	0xbe26407e	-0.1623554
190	0x3defb13e	0.11703728
191	0xbe6e015a	-0.23242703
192	0x3dbb15b9	0.09135003
193	0x3e8f32c5	0.27968422
194	0x3dfc23b2	0.12311496
195	0xbd434721	-0.047675256
196	0xbeedc36e	-0.46438164
197	0x3e902064	0.28149712
198	0xbdfda60e	-0.12385188
199	0x3e64b242	0.22333625
200	0xbd1a4c7d	-0.0376706
201	0x3e2e5a4b	0.17026632
202	0x3d569b5a	0.05239425
203	0xbe2b0314	-0.16700393
204	0xbe8fad79	-0.28062037
205	0xbe25870f	-0.16164802
206	0x3df3d5a2	0.119059816
207	0x3eda6ad1	0.4265962
208	0x3e840f1e	0.25792783
209	0xbe09429c	-0.13404316
210	0x3e85b999	0.26118162
211	0x3d830397	0.06397169
212	0xbee17050	-0.44031
213	0x3e6947d3	0.22781305
214	0x3eeb087b	0.45904908
215	0x3e7baa20	0.24576616
216	0x3e524a41	0.20536138
217	0x3ecbecb7	0.39829037
218	0x3deb25ab	0.11481794
219	0xbb3c346d	-0.0028717772
220	0xbdd7bbb2	-0.10533847
221	0x3e967075	0.29382673
222	0xbdaba704	-0.08381465
223	0x3e39cca3	0.18144469
224	0x3da24c7c	0.079247445
225	0x3ea21021	0.3165293
226	0xbd9ecff2	-0.07754506
227	0xbe704774	-0.23464757
228	0xbd933a00	-0.07188797
229	0x3e97930c	0.29604375
230	0xbe4c9b0d	-0.19981022
231	0xbdfff7d3	-0.124984406
232	0xbd6fc3dd	-0.0585364
233	0x3dec7510	0.115457654
234	0xbd08a679	-0.033361886
235	0xbd074e61	-0.033033732
236	0xbaf62a59	-0.0018780931
237	0x3e400f84	0.18755919
238	0xbddc850a	-0.10767563
239	0xbe261601	-0.16219331
240	0x3e8c2e61	0.27379134
241	0x3e8c63e4	0.2741996
242	0xbc8552af	-0.016274778
243	0x3d5466fa	0.05185602
244	0xbe2fc5ff	-0.17165373
245	0xbd6ebac7	-0.058283594
246	0xbeb1cd54	-0.34726965
247	0x3de1006e	0.1098641
248	0x3e872eed	0.2640299
249	0xbeb76feb	-0.35827574
250	0xbca4aa2c	-0.020100676
251	0x3d110e55	0.03541406
252	0xbdce47c2	-0.100722805
253	0x3d20eebb	0.03929017
254	0xbd6861cd	-0.056733895
255	0x3e9610fe	0.2930984

net.mixturesofgaussianlayer_06.fc_sigma.bias f4 [5]
0	0xbed69c4a	-0.41916114
1	0xbe04725f	-0.12934254
2	0xbe84ec15	-0.25961366
3	0xbe0233d4	-0.12715083
4	0xbe3f8dc0	-0.18706417
