model/best_weights.pt (torch, 25685 bytes, 10 tensors)

net.linear_00.weight f4 [64, 1]
000000 aa 08 8c 3d 79 f6 55 40 7d cd 34 3d 4a 27 44 c0
       0.0683759 3.3431685 0.04414128 -3.064898
000010 2e cc 7a 3c 9b da ac 3b 8f 6f e9 3f a1 5c 8a bf
       0.015307469 0.0052750832 1.823717 -1.0809518
000020 59 d9 24 bf cf 08 18 3e 77 36 5b 40 74 34 49 bf
       -0.64394146 0.1484711 3.4251993 -0.7859566
000030 8b b5 90 3d 26 d2 0b 40 9a 5d b5 bf 1b 7a e3 be
       0.070658766 2.1847014 -1.416919 -0.44429097
000040 4c d6 02 3f a3 f7 33 c0 36 47 5c bf 03 b6 17 bf
       0.5110824 -2.8119895 -0.8604616 -0.592621
000050 74 46 08 be b3 d7 60 c0 a7 4e d4 3f 40 7f ab bf
       -0.13308126 -3.5131652 1.6586503 -1.3398209
000060 39 f7 9f 3f 13 d2 a5 be 08 28 29 40 16 5f 19 3f
       1.2497321 -0.32386836 2.6430683 0.59910715
000070 67 6b 17 bf b5 bf bb 3f c4 6f bd bf 8f da 12 c0
       -0.5914826 1.4667879 -1.4799733 -2.2945898
000080 76 8f 6c bd 55 67 76 bf 88 56 7f bf cc 6e 31 c0
       -0.057754003 -0.9625142 -0.9974141 -2.7723875
000090 84 f3 6d bf 4a e8 a9 be 14 1b 7f 3f 13 10 1c bf
       -0.929497 -0.33185035 0.9965069 -0.6096203
0000a0 29 fb 46 3f bd 78 ff bd f8 04 32 bd bf ab dd 3f
       0.7772699 -0.12474201 -0.04346177 1.7318038
0000b0 73 42 1c 3f 65 58 1a 3f 65 90 d3 be c4 93 89 bf
       0.61038893 0.6029113 -0.41321102 -1.074822
0000c0 bc 7a c9 3f 84 5e 83 3f 3e 69 e1 3f 58 2c 8f 3f
       1.574058 1.0263219 1.7610242 1.1185408
0000d0 6f fd 14 c0 c9 91 be be de ec c6 bf 05 46 37 3f
       -2.3279684 -0.372206 -1.5541036 0.71591216
0000e0 58 a4 46 bf ad 9b 9a bf 27 61 60 40 09 9e b1 bf
       -0.7759452 -1.2078758 3.5059297 -1.3876354
0000f0 b7 9e 33 c0 38 f7 34 bf 48 cd 26 40 5f 51 0f be
       -2.8065622 -0.70689726 2.6062794 -0.13995884

net.linear_00.bias f4 [64]
000000 96 dc 75 bc 18 b0 8e bc 7d 3c c4 3d 75 58 91 3d
       -0.015006205 -0.017417952 0.0958185 0.0709695
000010 6c c4 01 be ce 01 17 3e 58 1d 60 bc dd c3 a5 bd
       -0.12672585 0.14746782 -0.013678871 -0.080939986
000020 d7 57 24 bb 3d c5 f4 3c 02 06 7e 3d c4 9f ab bd
       -0.002507677 0.029879207 0.06201745 -0.08380082
000030 9d b9 90 bd 99 05 81 bc ab 92 66 bd 92 b6 a8 bd
       -0.07066653 -0.01574974 -0.056292217 -0.082379475
000040 ee 53 3b 3c f5 ae c8 3d 1a 93 2e bd 46 5e ae bd
       0.011433585 0.097989954 -0.042620756 -0.08514075
000050 24 b6 b4 bd 81 92 e5 3c 23 cf 5e 3d f2 86 1c bc
       -0.08823803 0.02802396 0.05439676 -0.009553658
000060 37 79 f4 ba e9 5a 38 bd b5 f5 22 3e 8b 69 96 3d
       -0.0018651847 -0.045008574 0.15914042 0.073443495
000070 df 27 2d be 7c bc 0e 3d 80 43 fc bb 83 54 ed 3d
       -0.16909741 0.03484772 -0.0076984763 0.11588385
000080 35 6b bd bd 85 c1 42 bc 91 0d 0a 3e 22 c4 0e 3c
       -0.09248964 -0.011886959 0.13481738 0.008713754
000090 48 5c d1 3a 15 22 d6 bd be 10 79 bd ba 3a a2 3d
       0.0015972937 -0.104557194 -0.060806982 0.079213575
0000a0 8e 92 be bd 23 f1 88 3b 8b 5c d4 bc 01 89 56 bd
       -0.09305297 0.0041791364 -0.025923034 -0.05237675
0000b0 77 c4 46 bd 11 d6 41 bd 71 0f b3 3c 78 6d 8a bd
       -0.048527207 -0.04732329 0.021857949 -0.06759161
0000c0 30 ac 4f 3d 77 f9 ca 3c 35 5b 94 3d 4a 92 04 3c
       0.05070132 0.024777157 0.07243959 0.008091519
0000d0 e8 59 89 bd 1f af 1b be 90 6d 20 be 6e 9b e9 3c
       -0.067066014 -0.15203522 -0.15666795 0.028516497
0000e0 ae 0d a0 bd 37 29 bd bc 29 c2 80 bc 68 7a 9a bd
       -0.07815109 -0.023090942 -0.015717583 -0.075428784
0000f0 5f 2c 9f bd 3b 06 9c 3d 43 29 18 3e 44 0c 86 bd
       -0.07772135 0.07618376 0.1485949 -0.06545308

net.linear_03.weight f4 [64, 64]
000000 90 e1 b8 bd 98 cc 64 3e 52 47 58 3e e7 63 24 3e
       -0.09027398 0.22343671 0.21120957 0.16053735
000010 56 15 c5 bb 44 80 2f be 41 bf 88 3c 5a b9 80 3e
       -0.0060145063 -0.17138773 0.01669276 0.25141412
000020 06 70 ee 3c 1c 95 2c 3e ed 4e 28 3e ce 61 3a 3d
       0.029106151 0.16853756 0.16436358 0.04550343
000030 72 21 10 3d b0 6e 4b 3d 85 31 96 be c3 61 01 3d
       0.035188146 0.049666107 -0.29334655 0.031587373
000040 fd 06 85 3e bc 84 47 3d 14 f7 ec bd 8c 41 4d 3e
       0.25981894 0.04871057 -0.11570564 0.20044535
000050 cc 60 73 3e 05 31 e8 3e ab 6e 46 bd b0 3a 3b be
       0.23767394 0.453499 -0.048445385 -0.18284106
000060 57 d4 9a 3c 3c 05 79 bd c0 b5 07 3e a8 46 86 3d
       0.01890008 -0.060796008 0.13252926 0.06556445
000070 4c 75 0d be 3f 52 56 be 5b 74 b6 be 67 84 8b bd
       -0.13814276 -0.20929812 -0.35635647 -0.06812363
000080 65 d0 9a 3d c5 af 47 3c c1 fd 0d bd 02 6f a8 be
       0.07559279 0.012187903 -0.034665827 -0.32897192
000090 cc 03 28 3e 36 56 09 3e e7 b2 72 be a8 20 1c 3e
       0.16407698 0.13411793 -0.23701058 0.15246832
0000a0 5d 12 74 3e e4 ca 38 3d 61 b6 c8 bd 68 a7 b7 bd
       0.2383513 0.045115367 -0.09800411 -0.08967477
0000b0 e8 25 23 3d 62 69 28 3e d9 49 35 be 6d 9f 67 3e
       0.039831072 0.1644645 -0.17703952 0.2261941
0000c0 90 6c f8 bd 55 eb e2 bc 26 37 6d be 8c 98 1d 3e
       -0.12130082 -0.027700106 -0.23165569 0.15390223
0000d0 5c 62 b0 bd 0d da ef 3d e1 87 89 bc 04 27 bd be
       -0.086125106 0.11711512 -0.016788425 -0.3694383
0000e0 bc 20 0b bc dc f4 ba 3d de c1 e5 bc cb a2 96 3e
       -0.008491691 0.091287345 -0.028046545 0.29421076
0000f0 26 74 97 bd 4c 7a 9c 3d bc 0c c5 bd 40 3f 6f bc
       -0.073952004 0.07640514 -0.096215695 -0.014602482
000100 47 bb 94 be 68 d4 f9 3d 9f 3e 16 3d 0a 51 67 bd
       -0.2904913 0.121987164 0.036680814 -0.05647377
000110 2f 51 e1 3d 5e 09 f6 be 20 7a 52 3e 25 54 86 3d
       0.11001813 -0.48054022 0.205544 0.06559018
000120 25 33 10 3e e7 d8 ae 3e 79 7f 27 3b 92 bc 57 be
       0.1408201 0.34149858 0.0025558157 -0.21068028
000130 52 8c 1b 3e 0d 1d a1 bd 5b 91 1e bd 98 ca 49 3e
       0.15190247 -0.07866869 -0.03871284 0.1970619
000140 2e 8b 67 3e a4 fd c1 3d 7f e4 d3 3c 04 57 e2 3d
       0.22611687 0.09472206 0.025865791 0.11051753
000150 42 75 2d 3e 34 bd ac bd fb d4 4c 3c ab e1 d7 3c
       0.16939262 -0.08434525 0.01250195 0.026352724
000160 19 3d 39 be dc c9 69 be 0e 20 82 be 5f 70 67 3c
       -0.18089713 -0.2283091 -0.2541508 0.014125912
000170 ca ad 2b 3e d7 1f d9 3c 86 6b 26 be 81 5f 8a be
       0.16765514 0.02650444 -0.16251954 -0.2702599
000180 9d 8a 48 3e 17 12 8b 3d a2 a1 b9 bd fe a1 00 3e
       0.19584127 0.0679056 -0.09064032 0.12561795
000190 8e a1 04 3e 74 57 e5 3d 23 e0 be 3d 0b 69 57 be
       0.12952253 0.11198321 0.093200944 -0.21036164
0001a0 46 d3 a3 3d 8b 66 00 3e f6 e6 18 3e 43 90 c1 3d
       0.079992816 0.12539117 0.14931855 0.09451344
0001b0 f5 73 94 bd 65 a7 a3 bd f6 59 63 3e b2 c0 7a bc
       -0.072486795 -0.07990912 0.22202286 -0.015304731
0001c0 bb 3a 85 3d f9 46 9d 3e de 51 07 3e 18 a3 8b 3e
       0.065053426 0.3071821 0.13214824 0.27272868
0001d0 77 ec 8e be 58 9f ed bd d2 06 c1 bd 62 4e 83 3e
       -0.27914783 -0.11602658 -0.09425129 0.2564574
0001e0 96 48 0f bd f4 52 d9 bd d0 7f 6a 3e a6 39 8b be
       -0.034981333 -0.10611525 0.22900319 -0.2719242
0001f0 2f 57 a4 be bd b2 5c 3e 81 ad 87 be 75 58 2d be
       -0.32097766 0.21552558 -0.2649956 -0.16928275
000200 1f 86 36 be b4 c3 0f bd 28 09 f2 bd 16 f8 86 be
       -0.178246 -0.035098746 -0.11818153 -0.2636115
000210 16 c0 38 3d 0b 5c 19 3d 48 fb 39 be 3d 27 0b 3e
       0.045105062 0.037441295 -0.18162262 0.13589187
000220 63 da 80 3e 17 b7 7a bc 6c 42 de bd 2c 3b f4 bc
       0.25166616 -0.015302441 -0.10852513 -0.029813372
000230 18 7b 6d 3e c1 a4 9b be d0 7e 46 3e 0b 09 5f 3d
       0.23191488 -0.30399135 0.19384313 0.054451983
000240 5a 0d bb bd 0a 45 84 3e 96 71 93 bb 1c eb 28 3e
       -0.09133406 0.25833923 -0.0044996245 0.16495937
000250 3e 87 9c be 8e 23 f1 bd 6f db 88 bd 9e 82 89 be
       -0.30571932 -0.1177436 -0.06682479 -0.26857466
000260 63 f4 b3 bd 13 75 8a 3e 2e 83 eb be 4e 32 a3 bd
       -0.087868474 0.27042446 -0.4599852 -0.07968579
000270 62 93 02 be f6 93 57 3c 0b 81 e9 3d a4 7b 9a 3e
       -0.12751535 0.013157835 0.11401566 0.30172455
000280 53 9d 6d be dd 57 27 3d b6 28 21 bc ca ce 96 be
       -0.23204546 0.040855277 -0.009836366 -0.29454643
000290 f3 60 b6 bc 25 11 ef 3d a5 ca 00 be 90 81 85 bd
       -0.022263026 0.11673192 -0.12577303 -0.06518853
0002a0 c1 db ee 3c 12 6e e2 bd a4 4d eb bc 45 51 91 bd
       0.029157521 -0.110561505 -0.028723545 -0.07095579
0002b0 c4 48 29 bd 55 a2 1e 3d 0b 82 6a be d8 ee f3 bd
       -0.04132916 0.03872903 -0.2290117 -0.1191079
0002c0 0b 72 27 3e 25 16 3a be 6d e0 98 3d d6 f6 dd 3d
       0.16352098 -0.1817251 0.07464681 0.10838096
0002d0 4e 76 bd 3e f2 97 9c 3e cc c1 3b 3e 0a 49 1a be
       0.37004322 0.30584675 0.18335646 -0.15066925
0002e0 53 5d f4 bd ff a9 4d 3e 0d 3b b8 3e 2b 36 e4 bd
       -0.11931863 0.2008438 0.35982552 -0.11143144
0002f0 49 19 f6 3d 2a 06 50 3e c2 e7 c3 bd dc 38 9b be
       0.120165415 0.20314851 -0.09565689 -0.30316818
000300 9a 36 8c 3e 7c 1d 87 3e e7 d1 21 3e 49 ea 3d be
       0.27385408 0.26389682 0.15802728 -0.18546404
000310 91 54 c1 3e 03 87 b7 3d de 88 48 3d 6c 30 b2 bd
       0.37759832 0.08961298 0.04895865 -0.08700642
000320 b8 7d 93 3e e0 fe 8e be 36 1f 20 be 5d 67 c6 bc
       0.28806853 -0.2792883 -0.15636906 -0.02421921
000330 31 99 27 be e6 34 01 bf fb b6 2a 3e 83 8a 36 bc
       -0.16367032 -0.5047134 0.16671364 -0.011141422
000340 a5 15 9f bb 23 d4 c0 3d b7 9e 14 be fe f7 d3 bd
       -0.004854875 0.09415462 -0.1451367 -0.10350035
000350 18 94 2a be 1b 57 67 3c f2 9d 2f 3e 02 2f 16 be
       -0.16658056 0.014119889 0.17150095 -0.1466637
000360 8b 99 f9 3d ab e6 ef bd b6 be eb 3d bb 16 98 be
       0.12187489 -0.11713918 0.115109846 -0.29704842
000370 80 83 a6 bd 5b 11 e1 3e ea 9a 14 3d 97 13 83 be
       -0.081305504 0.43958554 0.03628055 -0.25600883
000380 cb fc 3a 3e e4 ac ea 3d c3 5e bf bd 50 39 78 be
       0.18260495 0.114587575 -0.09344246 -0.24240613
000390 8c 16 ea 3e 73 1b 8e 3d d5 ca 9d 3c bf 78 9c 3c
       0.45720327 0.06938829 0.019261757 0.019100545
0003a0 d0 92 35 bd 7d 20 57 be 18 60 b2 be ea 57 84 be
       -0.044329464 -0.21008487 -0.3483894 -0.25848323
0003b0 20 9a 71 3c a3 49 86 be 57 7b dd 3d ec fd 42 bc
       0.014746219 -0.26228055 0.10814541 -0.01190136
0003c0 82 85 69 3e 88 65 b5 bd b1 a3 b4 bd 22 e8 97 3e
       0.22804835 -0.08857256 -0.08820284 0.2966929
0003d0 70 b2 99 bd 6a f6 cb 3d 94 16 ba 3d 62 de 36 be
       -0.075047374 0.09959109 0.09086338 -0.1785827
0003e0 a3 b6 bb 3c 9b ef f0 3e ce f8 4d be 9e 1d 89 3e
       0.022914236 0.47057804 -0.20114443 0.2678041
0003f0 72 67 b9 3e 11 07 06 3d 3f 17 4d 3e 55 38 f8 bd
       0.36211735 0.032721583 0.20028399 -0.121201195

net.linear_03.bias f4 [64]
000000 f0 c5 1b 3d 79 28 b5 bd 38 21 33 bd c7 0a cd bb
       0.038030565 -0.0884561 -0.04373285 -0.0062573883
000010 73 68 33 be d0 54 da 3b ab a8 07 3e 0c 1b 36 3d
       -0.17520313 0.0066629425 0.13247935 0.044459388
000020 55 d7 ce be 54 75 97 3c 4b 47 1c 3e 1d dd 01 3d
       -0.4039866 0.018488564 0.15261571 0.03170501
000030 d2 4f 5c bd d0 44 8c b9 ee 38 d0 bd 76 2b e5 bd
       -0.05378706 -0.0002675415 -0.101671085 -0.1118993
000040 fd 6b 81 be 08 46 3f 3c 0f 40 f2 bd 48 c7 c9 bd
       -0.252777 0.011674412 -0.118286245 -0.09852463
000050 b2 7b aa bb 26 d3 a2 bc 8c 19 33 3e 4e 79 cb 3d
       -0.005202734 -0.019876074 0.17490214 0.099352464
000060 28 b2 22 3d c5 b4 21 3d 27 f5 c1 3b f2 eb f1 3d
       0.039720684 0.039479036 0.005919117 0.11812581
000070 0a 90 48 3d ae 28 75 be b5 bc 00 3e 17 04 ea 3d
       0.04896549 -0.239413 0.12571986 0.11426561
000080 69 c6 d9 bd 7a 9e b4 be 45 8f ef 3d 9b 2b 03 bc
       -0.10633547 -0.35277158 0.11697248 -0.008006002
000090 a7 ee b9 3d 9a 10 b3 bd bf 74 61 bc a6 fe 9a 3d
       0.090787224 -0.08743401 -0.013760745 0.075681016
0000a0 dc 69 76 be 3d b0 62 3d a3 03 21 bc b4 04 fd b9
       -0.2406382 0.055343855 -0.009827527 -0.00048259425
0000b0 6b 3d 8e be 31 e1 05 be b2 74 09 3e a8 23 94 be
       -0.27781233 -0.13074185 0.13423422 -0.28933454
0000c0 39 b2 1e 3d da c7 58 bd 62 4f a3 be c9 26 ec 3d
       0.038744185 -0.05292497 -0.31896502 0.11530835
0000d0 75 06 89 be fe 70 63 3d 5a a7 7d bd 22 6b 8d 3d
       -0.2676274 0.05552768 -0.061927177 0.069051996
0000e0 95 48 6b be 32 0b 6a bd 51 41 cd bd 77 11 f0 3d
       -0.22976907 -0.057139583 -0.10022224 0.11722081
0000f0 0a 69 95 be 53 fb e5 3d bf d6 d2 bc 3d fe ba 3d
       -0.291817 0.11229577 -0.025737165 0.09130523

net.mixturesofgaussianlayer_06.fc_pi.weight f4 [5, 64]
000000 7c 20 b3 3c 08 6a 71 bd a5 31 14 3e a0 c1 f0 3c
       0.021866076 -0.05893901 0.14472063 0.029389203
000010 2d 22 83 be 51 85 09 be 61 48 19 be d3 4e 6d 3e
       -0.25612012 -0.13429762 -0.14969017 0.231746
000020 55 5b d8 3d e7 2b f9 bc d4 b9 74 be 02 65 4a 3d
       0.10564295 -0.030416442 -0.23899013 0.049412735
000030 26 bf dd bc 98 5f 98 bb 03 a1 0c 3e 50 be 85 3e
       -0.027068686 -0.0046500675 0.13733296 0.2612176
000040 a4 f6 7c 3b 32 1c 8b be c4 61 68 3d c9 f7 49 be
       0.0038599158 -0.2716995 0.05673386 -0.19723429
000050 de 96 04 3d a9 52 80 be f7 01 8e bd 70 89 73 be
       0.03237044 -0.25063065 -0.069339685 -0.23782897
000060 b4 a0 a4 3e 28 82 11 3e 0b ea dc 3d a2 a2 22 3e
       0.32153857 0.14209807 0.10786828 0.15882352
000070 f8 6b 40 be 96 74 c7 3e 5b 30 40 3d 3f 65 4b 3e
       -0.18791187 0.38956136 0.046921115 0.19862841
000080 95 90 f6 3d 9a a7 3d 3e f7 49 59 be 10 5a 8e 3e
       0.120392956 0.18520966 -0.21219622 0.27803087
000090 32 ea 9a be 64 0d 8c bd 78 c9 cd 3d dd f7 30 be
       -0.30256802 -0.068384916 0.10048193 -0.17282052
0000a0 8f db 82 be e9 b5 98 be 6d 47 65 be 40 10 ca 3c
       -0.25558135 -0.29826286 -0.22390528 0.024665952
0000b0 04 69 83 3d ed 31 1c 3e e6 6b 67 3e f0 26 0e 3e
       0.064165145 0.1525342 0.22599754 0.13882041
0000c0 87 47 9b be cd c4 c1 bc b9 cf 30 3e ad 95 42 3d
       -0.3032801 -0.023653412 0.1726674 0.047506023
0000d0 96 f3 9c 3d c8 9f 23 3d d8 d0 a2 3d 51 c0 a3 3e
       0.07663648 0.0399473 0.0794999 0.31982663
0000e0 7b 54 bd 3e 76 65 96 3e df c4 91 be 5d 1f 99 bd
       0.36978516 0.29374284 -0.28470513 -0.07476685
0000f0 8e b5 9f 3d de f8 9a be 80 eb 37 3d 17 bd 1e be
       0.07798301 -0.30267996 0.044902325 -0.1550182
000100 15 48 12 3e d6 6b e7 3e 8b 04 d7 bc 5a 2e 8c be
       0.1428531 0.4519946 -0.026247283 -0.27379113
000110 cd 25 c1 be 9d ae 13 3e 32 71 fe 3e e5 54 31 3e
       -0.37724152 0.14422078 0.49695736 0.17317541
000120 6d 49 ef bd 41 65 51 be 3f e3 ad bc 3f 49 e4 bc
       -0.11683927 -0.20448782 -0.021226523 -0.027866958
000130 62 38 94 bd 31 6f 91 be 8d ad 19 3c a6 88 14 3d
       -0.07237317 -0.28405145 0.009379757 0.03626313
000140 0e 3c 5b be 55 d6 c7 bd f1 14 34 3c e5 8b 9f be
       -0.21409628 -0.097576775 0.010991321 -0.3116142
000150 70 9a 45 be 54 1f da bc 87 c4 53 3d 16 87 ab 3e
       -0.19297194 -0.026626267 0.051701095 0.335015
000160 f7 11 0e be dd d1 94 3e 22 be 60 bc c4 51 00 3e
       -0.1387404 0.29066363 -0.013717206 0.12531191
000170 42 31 05 3e b5 f8 1b 3e 54 cc 82 3e 11 ca 89 bd
       0.13007072 0.15231593 0.25546515 -0.06727994
000180 21 f2 4e 3e 24 5b a8 3e 7c 9e 1a 3e 3f c5 3e 3e
       0.20209552 0.32882035 0.1509952 0.18629931
000190 5c 8b 1b bd f0 9c ef 3e f6 25 c5 3e 1b 40 5a 3e
       -0.0379747 0.4679942 0.38505524 0.21313517
0001a0 62 03 b0 3e 6f 88 02 bc 3b 72 44 3e c0 a7 b6 bd
       0.3437758 -0.007967099 0.191842 -0.089187145
0001b0 ea 38 5f be c1 d0 6c 3d b0 d7 16 be c4 b0 8f bd
       -0.21799055 0.05781627 -0.14730716 -0.07016137
0001c0 b1 56 8c be 8d 88 a5 3e 30 cb 06 bc bd 4d 34 be
       -0.2740989 0.32330742 -0.008227155 -0.1760778
0001d0 5c 6d 0a bd 76 78 74 be bf c8 82 3e 14 cd ce 3d
       -0.0337957 -0.23874077 0.25543782 0.10097709
0001e0 37 c7 07 3e a6 98 8d be 10 cd 0c 3e ad 7f 64 be
       0.13259588 -0.27655524 0.137501 -0.2231433
0001f0 0e e1 a3 be 4f ca 03 3e 3f b7 16 3e 3e 6c 39 3e
       -0.3200764 0.12870143 0.1471834 0.18107697
000200 09 1a 0d bd a1 c1 0c bd f1 5c 2d 3c 0a a0 00 be
       -0.034448657 -0.034364346 0.010581241 -0.1256105
000210 5c fa 86 bd eb d6 95 3c 17 29 be bd 51 60 00 be
       -0.06590721 0.018290957 -0.09285181 -0.12536742
000220 25 06 a6 3e f1 bc a1 3e d7 d1 36 3d a1 8c b9 bd
       0.32426563 0.31589463 0.044633713 -0.09060026
000230 f4 64 22 be 9c ae 8c 3e 1c 45 c5 3b 47 82 4c be
       -0.15858823 0.27476966 0.0060202014 -0.19971572
000240 0e 5e 13 be 75 78 07 3c aa bd d6 bd c6 60 c2 bd
       -0.14391348 0.008268465 -0.10485394 -0.09491114
000250 ee bf a5 3e e0 da 11 3e 71 e1 37 bd 9f 8f 96 bd
       0.32372993 0.1424365 -0.044892732 -0.07351612
000260 7d 34 80 3d c4 01 68 bd 27 af 79 3e 46 b7 88 bc
       0.06260011 -0.05664231 0.24383222 -0.016688954
000270 43 5b a3 bd 3a 1c f4 bd dd 63 f6 3c cb 08 86 3e
       -0.07976391 -0.11919446 0.030076915 0.26178584
000280 23 ce c3 3c 6c 1a 0e bd 2c d7 af 3c b1 27 07 be
       0.023902005 -0.034693167 0.021464907 -0.13198735
000290 de 35 ec 3d 4e 10 3d 3e 16 dd 9e 3d b9 ab 07 3e
       0.11533712 0.18463251 0.077570125 0.132491
0002a0 6e 49 17 3e 58 e1 09 3e 53 c7 0b 3c eb 63 98 bd
       0.14774105 0.13464868 0.008531409 -0.07440933
0002b0 93 13 b2 3d 3b e0 29 3e 03 2a 5d be f6 32 81 3e
       0.0869514 0.16589443 -0.21598057 0.25234193
0002c0 02 dc 71 3e 64 bb 7e be 86 77 66 3e 91 8c 48 3e
       0.23619083 -0.24876171 0.22506532 0.19584872
0002d0 5b 8e 04 3e be c5 92 3c 90 e5 95 be 2b 9c 7e bc
       0.1294493 0.017916556 -0.29276705 -0.015540163
0002e0 b5 c3 a1 bc 2e ee 1e 3f b4 17 11 3d 54 a6 86 3d
       -0.01974664 0.62082183 0.035422996 0.06574693
0002f0 05 2e 5d 3d 81 b1 8b be b6 8c 91 3e fd 61 d8 be
       0.053998966 -0.27283862 0.28427666 -0.4226226
000300 a9 53 10 be 3b 08 d8 bc 39 3a 2d be dd 96 8e be
       -0.14094414 -0.026371112 -0.16916741 -0.27849475
000310 cc 58 8b 3e 12 e8 c7 bd f4 77 03 3e f4 1a 93 be
       0.27216184 -0.09761061 0.12838727 -0.287315
000320 cf 0d 32 be 22 05 e8 bc 67 3f 60 be b9 aa a6 bc
       -0.1738808 -0.02832276 -0.21899186 -0.020345079
000330 e4 7e 25 be 98 aa 66 be 2b 34 fe be 23 0e de be
       -0.16161686 -0.22526014 -0.49649176 -0.4337016
000340 b4 da 24 be 56 79 fa bb 1e 18 8d bc c2 76 91 bd
       -0.16099054 -0.007643859 -0.017223414 -0.071027294
000350 d1 ca ca be 89 49 bc bb c6 59 e0 3d be 2a 92 3e
       -0.39607862 -0.0057460708 0.10954623 0.28548235
000360 f4 45 1c 3e d5 b3 92 bc de 5e e3 be 41 ba 0a 3f
       0.1526106 -0.017908016 -0.44408315 0.5419045
000370 44 a0 a3 bc 0a 21 4e bd a0 1e 24 bf 86 ee 59 bf
       -0.019973882 -0.050324477 -0.6410923 -0.8512958
000380 20 1a fb bd 13 32 8c bd af df 71 3e ac e2 94 3e
       -0.12260842 -0.068454884 0.23620485 0.29079187
000390 05 48 6e be 4a b1 07 be e6 d3 67 3d 25 94 12 be
       -0.23269661 -0.13251224 0.056598566 -0.14314325
0003a0 d2 78 67 bd 69 5d 2e be 28 8e 9c 3c 0c b9 01 be
       -0.056511708 -0.1702782 0.019110754 -0.12668246
0003b0 19 ae 4e be 9b 29 63 bd 04 f7 1c bf 63 74 85 be
       -0.201836 -0.0554596 -0.61314416 -0.2606536
0003c0 dc a0 d6 3d ec 2e 1e 3c 06 e1 7e be cb bd a5 be
       0.104799 0.009654742 -0.24890527 -0.32371363
0003d0 53 90 65 bd aa 4b d0 be 6f 43 a1 bd 50 70 33 bf
       -0.05604584 -0.40682727 -0.0787419 -0.7009325
0003e0 5c 5e d0 3d 1c 58 de bc 5c d1 3f 3d 5b 40 e3 be
       0.101742476 -0.027141623 0.04683052 -0.44385037
0003f0 96 3f 76 be f2 38 00 be 91 c3 20 bd ac 45 a9 3d
       -0.24047694 -0.12521723 -0.039249007 0.08265242

net.mixturesofgaussianlayer_06.fc_pi.bias f4 [5]
000000 4a ec a1 bd b4 b3 d0 3c 05 7e 19 be c2 e3 20 3e
       -0.07906397 0.025476314 -0.14989479 0.15711883
000010 d7 9e 65 3d
       0.056059685

net.mixturesofgaussianlayer_06.fc_mu.weight f4 [5, 64]
000000 d4 de 9f bd 9e 5b 0b 3e 44 53 3a 3d 15 73 a7 3e
       -0.07806173 0.13609168 0.045489565 0.32704988
000010 b3 5e ec bd 7d 66 13 be 46 e2 3e 3f 6a 02 02 bc
       -0.115415 -0.14394565 0.74564016 -0.007935146
000020 36 77 bf 3e e0 ad a7 be fb c2 9b 3d 56 0c 56 3e
       0.37395638 -0.32749844 0.07605549 0.20903143
000030 62 9f 1c 3e 28 8b 1b bd 75 28 1f be 4c 1a 75 be
       0.15295175 -0.037974507 -0.15542777 -0.23935813
000040 37 61 53 be b7 86 b5 be c6 28 9c bc 95 fa 5f bd
       -0.20642553 -0.35454342 -0.019062411 -0.054682333
000050 73 4d 11 3e 0a c5 ea bc b0 e9 1c 3f 71 a0 b6 3e
       0.14189701 -0.028658409 0.6129408 0.35669282
000060 d1 a5 21 3e 74 7e 08 3e 21 39 cf 3d 71 23 1b 3e
       0.1578591 0.13329488 0.10118318 0.15150239
000070 60 d3 26 bd dc f3 04 3f 86 48 7d 3d 29 c0 da 3d
       -0.040728927 0.519346 0.061836742 0.10681183
000080 e4 b1 70 be 23 d9 0a be ae 37 2b 3d 38 76 7c be
       -0.2350536 -0.13559394 0.041801147 -0.24654472
000090 31 b4 a1 3d ac 1d 7f 3e c2 9d 96 be 47 ad 5e 3e
       0.07895697 0.24913663 -0.29417235 0.21745788
0000a0 29 fe 80 3e d9 29 89 be 4b f4 fc 3d 9d e3 b9 3d
       0.2519391 -0.2678974 0.12351283 0.09076617
0000b0 eb db ea 3d 4e 7b 10 3c 35 5f b8 bd 1e 7d 9d 3e
       0.11467727 0.008818461 -0.09002534 0.3075952
0000c0 01 87 b6 be b1 49 5f bd 34 ea 18 3d 77 ff 57 3e
       -0.35649875 -0.054513637 0.03733273 0.21093546
0000d0 ab 8d f1 bc 02 8f f3 bc 38 6b ab bd 6d a7 53 3c
       -0.029486498 -0.029731277 -0.0837006 0.012918335
0000e0 51 5c ac 3e 02 5d b3 bd 68 97 62 bd f1 2e 8d 3e
       0.33664182 -0.08757974 -0.055320174 0.27574876
0000f0 df 20 1d be 63 aa 93 3e ae d0 31 3e f3 fa a9 bc
       -0.1534457 0.28840932 0.17364761 -0.020749545
000100 3e f4 5a be 17 ac a3 bd 3f bd 15 bd 14 3a 12 bd
       -0.21382234 -0.07991808 -0.036557432 -0.03569992
000110 fe 75 ed 3c 7a 35 b1 be 12 70 1f bd e9 08 4d 3e
       0.028986927 -0.34611112 -0.038925238 0.2002293
000120 ee 9d ee bc 09 2c da bd e2 b7 89 ba d3 f0 8f be
       -0.029128041 -0.1065293 -0.0010507072 -0.28113422
000130 25 14 de 3d dc 03 01 3e 5f 90 47 3d 53 65 87 bc
       0.10843686 0.12599128 0.048721667 -0.016527807
000140 76 bb 9b 3d 38 55 9e bd 89 6f e2 3d a3 cd 17 be
       0.07604115 -0.07731098 0.1105643 -0.14824538
000150 11 8a 6b 3d 78 eb 47 bd e8 bd 15 bd 29 78 8b 3d
       0.057504717 -0.048808545 -0.03655806 0.06810028
000160 f0 d2 8a be 2c dc c2 3d ec 59 ef bb 9e 67 f7 bb
       -0.27114058 0.09514651 -0.0073044207 -0.007550194
000170 ec cc 7e 3d 38 db 24 be 7e 4c 3f 3e ee be 95 be
       0.062207147 -0.1609925 0.18681523 -0.2924723
000180 0b 63 74 be 33 68 ac 3d 5e 79 0c be d7 06 16 be
       -0.23865907 0.08418312 -0.13718173 -0.14651047
000190 66 b9 e0 ba 6a f9 2e bd 27 0f 85 3d 1e dc 72 3e
       -0.0017145097 -0.04271833 0.06497031 0.2371678
0001a0 1a 0c 7c be 7f ed e7 3d a2 bd 13 3e d5 23 b6 3e
       -0.24613991 0.11324596 0.14427808 0.35574213
0001b0 c1 92 89 3e 5f 06 85 3c 23 1a 0f 3e 8d ce 6e 3e
       0.26869777 0.01623839 0.13974814 0.2332098
0001c0 9b 8b 2c 3e 59 c2 88 3d 25 b5 bf 3d d2 44 bf 3c
       0.1685013 0.06677694 0.093607225 0.023348246
0001d0 3f ee 3a be 5d 56 8e bd c8 41 04 3e 42 ea f8 3d
       -0.18254946 -0.06950066 0.12915719 0.12154056
0001e0 f5 58 d2 bd 5f e2 c2 3e 7c 09 47 3e b6 fa 4e bc
       -0.102708735 0.38063332 0.19437212 -0.012633016
0001f0 86 dd 61 be e5 ff ee bd 50 18 a3 bd 16 e5 ce 3e
       -0.2205716 -0.11669902 -0.079636216 0.40409154
000200 ae d3 88 be 23 1a b1 3d d2 21 16 3c 3a 21 26 be
       -0.26724 0.08647563 0.009163337 -0.16223612
000210 d7 c0 54 3c 81 5a f0 3c 55 1c 2e 3e cd 06 10 be
       0.01298543 0.02934003 0.17002995 -0.14065094
000220 0c e1 d2 bd 72 73 80 bd 8a d1 b6 3d aa 5c 82 3e
       -0.102968305 -0.062720194 0.08926685 0.25461322
000230 c8 a9 d2 bd 5a 4e 84 3e bc 6f b7 3d 28 21 b2 bb
       -0.102862895 0.25841027 0.089568585 -0.0054360814
000240 ed e0 2d be dd e9 85 be 64 57 8f 3e b9 52 a0 3d
       -0.16980334 -0.26154986 0.2799636 0.07828278
000250 30 ca 85 3e 8a 8f 09 bd 23 b3 88 be 45 7f da 3d
       0.2613082 -0.033584155 -0.2669917 0.10668806
000260 69 33 44 bd 60 28 89 3c e8 39 94 3e 86 15 82 3d
       -0.04790059 0.016742885 0.2895043 0.063517615
000270 61 39 c2 3e 92 f3 51 be 6d ac 82 be 08 16 b7 bd
       0.37934402 -0.20503071 -0.25522175 -0.08939749
000280 4c 71 98 3e 95 13 be be f9 6d 06 3e dc a9 59 bc
       0.2977394 -0.37124315 0.13127889 -0.013285127
000290 fd bb aa 3e 0c 37 5c 3d 3e f0 4a bd eb 92 a7 bd
       0.3334655 0.053763434 -0.04954552 -0.08182319
0002a0 14 04 e5 bd 6c 57 28 3e 7a 26 77 3e 6b f3 2d 3e
       -0.111824185 0.16439599 0.24135771 0.16987388
0002b0 c1 53 4f be 6e 46 a9 3e 71 37 26 be 53 de 5b bd
       -0.20246793 0.33061546 -0.16232087 -0.05367882
0002c0 df ce bd bd a1 0a 68 be 21 5b 87 be a0 e4 00 be
       -0.09267973 -0.22660305 -0.26436713 -0.12587214
0002d0 89 a2 43 bd d1 73 c8 3d 23 70 c2 3d c6 1d 14 be
       -0.047762427 0.09787715 0.09494045 -0.14464483
0002e0 69 fe 98 bd 78 f6 db 3d 96 43 b6 3d f8 5b 84 bd
       -0.074704 0.107403696 0.0889961 -0.06462854
0002f0 41 29 7d be 26 2c 5e 3b 0f 94 0a 3e 90 81 ed bc
       -0.24722768 0.0033900826 0.13533042 -0.028992444
000300 c4 ed 0f bd b9 5c 1c bc b8 e8 37 bd 6d 6d 2e bd
       -0.03513886 -0.009543591 -0.044899672 -0.042584825
000310 bd 3f ab 3d 1c 55 46 be 2b 71 16 3e 29 3d bb bd
       0.083617665 -0.19368404 0.14691608 -0.09142525
000320 31 6d 43 3d db f6 a9 3d b1 82 07 3e 8d 06 19 3e
       0.047711555 0.08299037 0.13233449 0.14943905
000330 95 0b 61 be a4 15 54 3a fe e2 6e bc af 89 bb bc
       -0.21977074 0.0008090383 -0.014580486 -0.022892801
000340 1e 07 b3 3d 35 c2 90 3d 90 5d 88 3d 20 fe 0e be
       0.08741592 0.07068292 0.06658471 -0.13964128
000350 c7 ae fe 3c ef dc 2a 3d c1 82 37 3d 38 91 eb bc
       0.0310892 0.041714605 0.04480243 -0.02875577
000360 fd 87 1f 3e 06 66 c9 3d 52 a1 1b 3e 32 6b 89 3e
       0.15579219 0.098339126 0.15198258 0.26839596
000370 3d 16 7b be 15 00 08 bd 0e 18 33 3e 43 d1 6a bc
       -0.24520202 -0.033203203 0.17489645 -0.014332118
000380 df 9e 39 3e d4 d8 ab 3d ab 21 cf bd 11 68 93 3d
       0.18127011 0.08390966 -0.101138435 0.071975835
000390 42 e9 e1 3b e9 22 54 be af cb 93 3d 7c c2 a6 3e
       0.0068942616 -0.20716442 0.07216584 0.32570255
0003a0 44 47 96 3e 61 6e 86 be 67 f4 63 bd eb a4 7d be
       0.29351246 -0.26256087 -0.055653002 -0.24769942
0003b0 e3 f5 36 3d b5 83 15 be c4 b8 86 3e 3a f2 22 be
       0.04466809 -0.14601023 0.2631284 -0.15912715
0003c0 d3 c4 19 3e 94 10 cc bd 01 b0 ae 3c 3d 26 85 bc
       0.15016489 -0.099640995 0.02132416 -0.016253585
0003d0 03 ed c4 bc 7b 3d 0e 3e 27 9c 0a bd b0 14 08 be
       -0.024038797 0.1389064 -0.033840325 -0.13289142
0003e0 cd 0f f7 bb 46 78 1f bd 3f 8d 52 3e 42 03 10 3c
       -0.0075397254 -0.03893306 0.20561694 0.008789839
0003f0 ba ba 55 bd bb 18 9f bd c2 7a f2 3d 1d ae e0 bd
       -0.05218003 -0.07768389 0.118398204 -0.109707095

net.mixturesofgaussianlayer_06.fc_mu.bias f4 [5]
000000 51 c2 9c bc 5f ea eb bc 1e 0a e2 3d b0 7d 7c 3d
       -0.019135626 -0.02879828 0.11037086 0.061643302
000010 c4 d5 8a 3c
       0.016947635

net.mixturesofgaussianlayer_06.fc_sigma.weight f4 [5, 64]
000000 af 6d 1e be 04 57 e6 3e 09 27 ab bc 45 95 c6 bd
       -0.15471528 0.44988263 -0.020892637 -0.0969644
000010 ab 90 b7 bc 3c ae b8 3e b9 20 1e 3f 03 d9 c5 bd
       -0.02240785 0.3607043 0.6176868 -0.09660532
000020 48 b3 33 3e 9e b1 17 bc 5c 79 5b be 77 28 32 3e
       0.17548859 -0.009258656 -0.21433014 0.17398249
000030 a3 29 04 3e 5c 00 82 be a2 62 73 3e 24 05 d0 3d
       0.12906508 -0.253909 0.23768094 0.101572305
000040 81 88 34 3e 8e 8a a5 3d fe 7e 60 3e ca 4f 40 bd
       0.17630197 0.08083068 0.21923444 -0.046951093
000050 7e 8b f7 bd 92 b1 09 be d5 d6 b3 3e 72 94 9d 3e
       -0.12087153 -0.13446644 0.3512484 0.30777317
000060 45 8b 37 3d 66 d1 93 be 69 64 3e be d5 fe 04 3f
       0.044810552 -0.28870696 -0.18592991 0.5195134
000070 65 fc b1 bd 44 c1 0e 3f 50 8f 57 be 8b a2 83 bd
       -0.086907186 0.5576365 -0.21050763 -0.06427487
000080 69 9f 0c 3e 66 d6 ae 3e 10 1e 33 3e 7f 9d ac 3e
       0.13732685 0.34147948 0.17491937 0.3371391
000090 ea 97 02 be 53 2a ed 3c 71 df 96 bc 51 c9 c3 3e
       -0.12753263 0.028950846 -0.018417092 0.3823953
0000a0 7e 6e 4f 3e 49 0d 8f bc d4 f9 57 be b7 18 92 3e
       0.20256993 -0.01746239 -0.21091396 0.2853448
0000b0 df ea 82 bc e9 35 05 3e d9 e9 92 bd 45 e4 d7 3e
       -0.015981136 0.13008846 -0.07173509 0.42166343
0000c0 f6 05 3a 3c 31 ff 61 bd 4e aa ab 3e 55 47 7d be
       0.01135396 -0.05517501 0.3352837 -0.24734242
0000d0 69 44 97 bc 24 d6 a5 3d 6a 05 b4 bd eb c5 68 bd
       -0.018465238 0.08097485 -0.08790095 -0.056829374
0000e0 6f cd d4 3e bd 68 48 bd 60 bf 0f 3e fc c3 b2 be
       0.41562983 -0.04892801 0.14037848 -0.3491515
0000f0 7f d2 d0 3e 45 1b 27 3f 3f 54 18 be b6 d2 38 be
       0.40785596 0.65275985 -0.14875887 -0.1804913
000100 79 8c 92 bc 69 8d d8 3d fd e7 33 3e b9 a4 d1 3b
       -0.017889248 0.10573847 0.17568965 0.0063978103
000110 df 37 d6 3e 53 c2 6a 3c 10 40 13 be 97 23 d2 bd
       0.418395 0.014328557 -0.14379907 -0.102606945
000120 79 db 8b 3e 0f 38 9c 3d 77 a9 0f be ae b1 19 be
       0.27315882 0.0762788 -0.1402949 -0.15009186
000130 91 ca a3 3e 0e a2 46 3e 56 a2 aa bd 02 6e 48 3e
       0.31990483 0.19397756 -0.083317444 0.19573215
000140 27 f3 34 3e 2e f7 a4 3c 0c fe 7b 3e 70 35 94 3e
       0.1767088 0.020137396 0.2460863 0.2894702
000150 6a ad a4 bd d1 15 ae 3d 66 b1 84 bd 76 19 31 be
       -0.080408886 0.08500255 -0.064791486 -0.17294869
000160 fc da ad 3a 38 91 2a 3e 34 83 06 3f 0d f9 d0 bd
       0.0013264115 0.16656959 0.5254395 -0.10203753
000170 41 ff 0d 3c 02 ed 66 3e 56 30 19 3e be f3 11 be
       0.008666814 0.22551349 0.14959845 -0.14253137
000180 5e e4 4b 3e 76 90 0a 3f 85 69 86 be 72 4a 3e bd
       0.19911334 0.5412668 -0.2625238 -0.046457715
000190 e3 7d 53 bc 93 7c b4 3d b9 a7 7d 3d d8 4e 90 be
       -0.012908432 0.08812823 0.06192753 -0.28185153
0001a0 a2 4c f0 3e 65 3b 54 3e 9f 61 9b 3d 72 ee 19 bd
       0.46933466 0.20725782 0.07586979 -0.037580915
0001b0 9a 48 e2 3e b8 c3 0e 3e 8d 0d 99 be 04 5c dd 3e
       0.44196016 0.13941848 -0.2989315 0.43234265
0001c0 bb 6a d8 3d 73 6c 19 3d 4f d4 26 3f b0 76 22 be
       0.10567232 0.03745694 0.6516771 -0.15865588
0001d0 62 39 3e 3d 1a ed d1 bd f7 35 1f 3e 30 73 60 be
       0.046441443 -0.10250302 0.1554793 -0.2191894
0001e0 a0 57 88 3e 46 e4 77 3d 7c f3 53 3e af 15 a9 3e
       0.26629353 0.060520433 0.2069835 0.33024356
0001f0 db ab 1c 3e 72 b4 a6 bd 46 5e ce 3d 95 56 9d be
       0.15299933 -0.08139886 0.10076575 -0.3073012
000200 e2 37 2a be 65 9c f8 bc 85 6e d3 bc ff 2e 28 be
       -0.1662288 -0.030348012 -0.025809536 -0.16424178
000210 18 2a b3 3e ec 3b a4 be 80 2f 9d be a9 0c 1c bd
       0.34993052 -0.32076967 -0.30700302 -0.03809801
000220 db 2c 0a 3f d2 4b 56 bd 82 10 9b bd 1e 17 d2 be
       0.53974694 -0.0523184 -0.07571508 -0.41033262
000230 61 b5 da 3c dc 65 1f 3c f0 df 87 3e fd a2 af be
       0.026697816 0.009728875 0.26538038 -0.34304038
000240 ce 09 bb 3d f8 0b b3 be fd de a8 3e c0 a3 39 3c
       0.091327295 -0.3497007 0.32982627 0.011330545
000250 60 f3 d5 3e f5 5c 75 3c c8 b7 33 bc 33 6b 13 bd
       0.41787243 0.014975776 -0.01096911 -0.035990905
000260 b4 6b 4f be 85 c6 c6 be a8 2b d4 be a3 b4 6e be
       -0.20255929 -0.38823333 -0.41439557 -0.23311095
000270 3d 65 eb 3d c4 27 41 3e e1 36 82 be dd e8 5c be
       0.11493919 0.18862826 -0.25432494 -0.21573205
000280 66 ac ca bc 7b 42 fd 3e 26 8d 0f be 0f 97 c6 3e
       -0.02474041 0.49464783 -0.14018688 0.38787124
000290 e5 4f b8 bc 45 d5 1e be 4e d1 32 bd 01 13 21 be
       -0.022499034 -0.15511043 -0.04365664 -0.15729906
0002a0 74 f1 b9 3e 5f da ec 3d 79 2a 06 be 70 f0 9a be
       0.36317027 0.115650885 -0.1310214 -0.30261564
0002b0 9d 5f 91 3e 46 a2 b0 3d 82 69 7e be 87 41 e0 3e
       0.2839326 0.08624701 -0.24844936 0.43799993
0002c0 fd 97 e0 3d 40 f4 1d 3d 20 eb dc 3e 0a 5a 7c 3e
       0.109664895 0.038563013 0.43148136 0.24643722
0002d0 ad 76 0f 3f 83 18 0d bf e8 d0 a5 be 68 64 a9 be
       0.5604046 -0.55115527 -0.32385945 -0.33084416
0002e0 97 0f 9e 3d b7 b0 5a 3f 04 09 c0 bd 0d a6 5a be
       0.07717817 0.85425895 -0.093767196 -0.21352406
0002f0 40 09 17 3f 68 7b 5d be d4 79 28 3e c5 60 9d be
       0.5899849 -0.21629107 0.16452724 -0.30737892
000300 f3 a3 89 3d 33 bf c3 bd ff f2 24 3e b3 35 91 3d
       0.06720724 -0.09557953 0.1610832 0.070903204
000310 2d 32 e7 3d 0a ca b6 be 60 95 2d bd eb 3c 07 3e
       0.11288867 -0.3570102 -0.042378783 0.13206832
000320 f7 aa 23 3f 0b 1a 00 3f 96 e0 ff be 63 64 c0 be
       0.63932747 0.5003974 -0.49976033 -0.3757659
000330 bc c7 bb 3e ee 3c 05 3f a5 1e 80 3e b4 0c d5 3e
       0.36675823 0.52046096 0.2502338 0.41611254
000340 32 b6 7f 3e 60 f5 5a 3e c0 c4 00 3f 91 88 a1 3e
       0.24971846 0.21382666 0.50300217 0.31549504
000350 10 18 ee 3c c3 3c 2a 3e 35 25 49 bf 59 3d a5 be
       0.029064208 0.16624741 -0.785724 -0.32273367
000360 15 4a 92 3e bd 09 91 3e dd 63 ba 3e 98 a4 e7 bd
       0.28572145 0.28327742 0.36404315 -0.11310691
000370 4e d4 09 be 26 fa df 3e 40 cb 88 3e e0 b8 52 3e
       -0.13459894 0.43745536 0.26717567 0.20578337
000380 6c a5 d8 3e af 91 ba 3e fe c4 ee be 15 5b 6a be
       0.42313707 0.36439273 -0.46634668 -0.22886308
000390 ed a6 b7 be 07 96 02 be 16 9e 61 be a7 16 2e be
       -0.35869542 -0.12752543 -0.22032961 -0.17000829
0003a0 aa 70 14 3f 91 22 cc 3e 33 54 91 be 9e 6f 9e be
       0.5798441 0.39870122 -0.2838455 -0.30944532
0003b0 a0 1c e6 3e 68 a7 de 3e f6 ec 8f 3e 97 44 1e 3f
       0.44943714 0.43487096 0.28110474 0.6182341
0003c0 fc 45 9d 3e 41 24 8e 3c ec 9f 93 3c 00 49 38 bf
       0.30717456 0.017351272 0.018020593 -0.7198639
0003d0 7c f8 0a 3f 95 d1 cb 3e b9 b9 27 be 22 d0 a5 3e
       0.5428541 0.39808336 -0.16379441 0.32385355
0003e0 10 a2 f7 3d 6e fe 22 3f a3 2a 70 3e f1 5e 8d bc
       0.12091458 0.6366948 0.23453765 -0.017257186
0003f0 06 ce 06 3e dc 9a 2b be 55 ec 60 be 59 2a 97 be
       0.13164529 -0.16758293 -0.21965154 -0.29524496

net.mixturesofgaussianlayer_06.fc_sigma.bias f4 [5]
000000 ea 7f 0c be a5 53 22 be a9 bd b5 be 32 9f d1 be
       -0.1372067 -0.1585222 -0.35496262 -0.4094177
000010 07 e0 61 be
       -0.22058116
